iterative_k_clustering_breast_cancer/training_on_clusterings/K_3/cluster_2/training_results/cluster_1_model.pt (torch, 17231 bytes, 4 tensors)

weight f4 [5, 343]
00000000: ace7 e838 5af5 bfb8 b04e 8b37 42bd d8b8
00000010: 53d8 3eb9 2d12 4239 20b0 0a37 5c29 5cb8
00000020: 30f3 f837 f2af abb8 b844 2238 eabc 2139
00000030: 8999 22b9 82db a9b8 fd62 3fb9 5c91 76b8
00000040: 62f4 d4b8 4858 8837 be52 b0b8 89d5 3cb9
00000050: 90be c8b7 38eb 26b8 cc44 8d38 d124 1839
00000060: 57ae 1139 765c 2139 a444 5738 9298 c138
00000070: 5f2d 3039 11ed 2639 cc6c 9238 f935 39b9
00000080: e750 4eb9 12d6 b6b8 90b8 5837 05c4 2db9
00000090: 5dff 40b9 9879 59b8 5de3 31b9 4000 81b8
000000a0: bc96 9b38 31c1 1ab9 42b7 fab8 484c ca37
000000b0: 02e9 f038 3169 3439 68fe 0138 6c5e 043f
000000c0: cf4e 39b9 5780 06b9 d769 5139 b9b4 3439
000000d0: a563 3a39 84f2 4438 29ae 4639 01af 1b39
000000e0: 1263 f438 892c 3739 f981 0db9 2d79 3839
000000f0: d07b 9eb8 05cc 2339 2094 e4b6 5d05 4ab9
00000100: 7c81 54b8 1263 9538 8966 42b9 f89b 61b8
00000110: 8c98 90b8 ce87 a138 a28f fbb8 fd28 40b9
00000120: 18f0 29b8 c40c 4238 0c80 a938 5eff 0c39
00000130: 126f c838 0404 6338 6620 01b9 7815 2238
00000140: 09bd 04b9 0245 f6b8 84de 4538 89db 1b39
00000150: 9293 e538 29ee 2c39 5754 0bb9 4718 47b9
00000160: a5fa 43b9 321f dbb8 8998 1fb9 5f10 22b9
00000170: 01c7 0839 2070 5937 b8ea 8637 fda8 2339
00000180: 32c0 b038 12ff d038 f9cb 2339 fe88 0e39
00000190: 9cf1 ce38 0259 cb38 022a f138 015f 2039
000001a0: 66a2 0fb9 c071 0b39 a16c 3139 22f5 d938
000001b0: 351c 3239 fcfd aab8 24eb 4038 0161 03b9
000001c0: 1d65 6f3d 3e2e 29b9 fc77 8d38 70b5 2237
000001d0: 4c97 abb8 d721 3839 ec82 9238 9933 27b9
000001e0: 5f66 18b9 d850 16b8 081c 20b8 a1e8 11b9
000001f0: 8904 4539 bce6 d538 021d ad38 f233 c2b8
00000200: a0f9 3f37 2887 0ab8 98a1 0238 5700 10b9
00000210: 317b 4ab9 502e a237 244b 5ab8 50ae 9fb7
00000220: f2ad d938 063e 0039 6ca9 89b8 a2db e3b8
00000230: 9d85 51b9 0c62 fdb8 9948 3439 7872 5c38
00000240: 29b8 1cb9 52bc 8db8 bcd4 a238 5288 eb38
00000250: 2d96 2a39 a1ef 4539 f25b ae38 f8fa e9b7
00000260: ce89 0e39 64d4 12b8 4c35 f738 5fb3 22b9
00000270: cc5f ffb8 f017 a3b7 8456 1338 990f 13b9
00000280: 575a 05b9 d818 29b8 10f3 60b7 3227 0db9
00000290: 5cad 3c38 b06e bd37 208b 51b7 246e 1ab8
000002a0: 98e9 5938 3c75 e3b8 bc2e c4b8 a14d 0539
000002b0: 7819 41b8 4285 a8b8 2ef5 11b9 acab f738
000002c0: 62a2 bc38 7e08 0439 89d3 1c39 4211 86b8
000002d0: 7632 0339 f091 fb37 70cc b837 c065 c7b6
000002e0: bc74 c938 aefc ba38 296e 46b9 6668 1639
000002f0: acaf 8238 9caf 9a38 cc34 b438 9825 7db8
00000300: fce6 0fb8 36e3 10b9 08d2 0538 cc37 d338
00000310: d683 0a39 65b6 3f39 4259 b138 788d 40b8
00000320: 66d1 0eb9 be34 acb8 4937 1bb9 f9a5 5139
00000330: 058e 4639 e2dd a838 8154 1e39 fe68 0bb9
00000340: 35fa 44b9 5cf1 78b8 ae1e b638 c2bb 80b8
00000350: ddcf 1639 f2cf edb8 7cec 7db8 06b2 1f39
00000360: c93f 3bb9 01a7 4039 ac13 c838 808b 0b36
00000370: 8918 25b9 42b1 fcb8 ce1b 8038 8cf8 93b8
00000380: 316f b43f f2e5 c938 b80a bf37 f987 28b9
00000390: 90e9 91b7 2d91 3db9 574b 3eb9 709e d837
000003a0: cfd1 4d39 a2d9 c0b8 02c1 e038 fcd7 f138
000003b0: 9809 6838 36e6 1139 4205 8db8 aed0 ba38
000003c0: 2963 2639 89be 3b39 f995 21b9 3285 b038
000003d0: 6c6c dfb8 e457 5f38 295d 2239 243e de38
000003e0: 680e 29b8 9c95 99b8 0563 2ab9 f0af ba37
000003f0: d6b4 0139 fe50 1fb9 89d9 00b9 6eb5 e0b8
0.00011105774 -9.15329e-05 1.6606733e-05 -0.000103349346 -0.00018200399 0.00018508053 8.266448e-06 -5.2490606e-05
2.9677147e-05 -8.186688e-05 3.868781e-05 0.00015424532 -0.0001550672 -8.0994345e-05 -0.00018252055 -5.8786347e-05
-0.000101544676 1.6253573e-05 -8.407746e-05 -0.00018008625 -2.3930595e-05 -3.979655e-05 6.736218e-05 0.00014509565
0.00013893224 0.00015388601 5.132392e-05 9.2313756e-05 0.0001680157 0.00015919308 6.9820875e-05 -0.00017663081
-0.0001967583 -8.71831e-05 1.2917575e-05 -0.00016571589 -0.00018405677 -5.1850075e-05 -0.00016964735 -6.151246e-05
7.4190524e-05 -0.00014758554 -0.000119550634 2.4115798e-05 0.00011487493 0.00017205325 3.099293e-05 0.51706576
-0.00017672333 -0.00012827046 0.00019971222 0.00017233462 0.00017775463 4.69559e-05 0.00018947631 0.00014847146
0.0001165328 0.0001746883 -0.00013495226 0.00017592749 -7.557089e-05 0.00015620895 -6.8121735e-06 -0.00019266219
-5.066533e-05 7.123327e-05 -0.00018539479 -5.3789438e-05 -6.894869e-05 7.702374e-05 -0.000119953664 -0.00018325816
-4.0516345e-05 4.6265093e-05 8.0823986e-05 0.00013446572 9.5574316e-05 5.4124757e-05 -0.00012314468 3.8643804e-05
-0.00012658922 -0.00011743048 4.7175694e-05 0.00014863735 0.00010947058 0.0001649192 -0.00013287492 -0.00018987163
-0.00018690022 -0.00010448544 -0.00015220245 -0.00015455623 0.00013044105 1.2960314e-05 1.6083344e-05 0.00015607844
8.428133e-05 9.9657234e-05 0.00015620877 0.00013593209 9.867849e-05 9.696373e-05 0.000114996 0.00015294181
-0.00013698041 0.00013298448 0.00016920503 0.00010393026 0.00016985911 -8.15354e-05 4.599536e-05 -0.0001252927
0.05844604 -0.00016134323 6.745753e-05 9.698197e-06 -8.182097e-05 0.00017560214 6.9862086e-05 -0.00015945583
-0.00014533986 -3.583808e-05 -3.817308e-05 -0.00013914939 0.00018789074 0.00010199609 8.254686e-05 -9.2603164e-05
1.14426075e-05 -3.3027638e-05 3.114491e-05 -0.00013733037 -0.00019310114 1.933347e-05 -5.204523e-05 -1.9035448e-05
0.00010379766 0.00012230137 -6.564226e-05 -0.00010865113 -0.00019981568 -0.00012082243 0.00017193182 5.2558695e-05
-0.00014945924 -6.758481e-05 7.764387e-05 0.00011231065 0.00016268408 0.00018876653 8.314093e-05 -2.789263e-05
0.00013593512 -3.5006917e-05 0.00011787805 -0.00015516345 -0.00012177191 -1.9442261e-05 3.5128105e-05 -0.00014024823
-0.00012717523 -4.0315877e-05 -1.3408033e-05 -0.00013461409 4.4984146e-05 2.2582099e-05 -1.2489763e-05 -3.6819038e-05
5.1954383e-05 -0.0001084604 -9.354713e-05 0.00012712787 -4.6038505e-05 -8.0356855e-05 -0.00013919614 0.00011809854
8.994785e-05 0.00012591665 0.00014956122 -6.3928324e-05 0.00012511932 2.998949e-05 2.2029708e-05 -5.9425074e-06
9.60617e-05 8.9162364e-05 -0.0001892379 0.00014344006 6.2316045e-05 7.376002e-05 8.592903e-05 -6.0354912e-05
-3.4308978e-05 -0.00013817553 3.1905278e-05 0.00010071657 0.00013209818 0.00018283127 8.456643e-05 -4.590812e-05
-0.00013620182 -8.211423e-05 -0.00014802547 0.00019993623 0.00018935658 8.052193e-05 0.00015099534 -0.00013295186
-0.00018785226 -5.935259e-05 8.684151e-05 -6.138488e-05 0.0001438255 -0.000113397735 -6.0540144e-05 0.0001522974
-0.00017857472 0.0001837276 9.540407e-05 2.0793814e-06 -0.00015744766 -0.00012049313 6.108695e-05 -7.055802e-05
1.4096433 9.6272575e-05 2.2773966e-05 -0.00016072382 -1.7394108e-05 -0.00018078527 -0.00018147878 2.5822985e-05
0.00019628483 -9.195811e-05 0.00010717103 0.00011532006 5.5322045e-05 0.00013914038 -6.724383e-05 8.908041e-05
0.00015867934 0.0001790469 -0.00015410026 8.4171435e-05 -0.00010653664 5.3249198e-05 0.00015484229 0.000105973595
-4.0306157e-05 -7.3234754e-05 -0.00016249351 2.2254855e-05 0.00012369765 -0.00015193594 -0.0001228807 -0.00010714946

bias f4 [5]
00000000: 181a d43f 4f93 5840 4b06 143f a53b 9f3f
00000010: 3998 2740
1.6570463 3.383991 0.578221 1.2440077 2.618666

weight f4 [323, 5]
00000000: d0fc 0937 486c 81b9 5fe5 5439 0807 2139
00000010: 1e64 49b9 075a c7be a2ad 3e3f bddc dfbe
00000020: ecbd 3540 d22d 8e3f 70e5 ed37 b644 b9b8
00000030: 3e3c a138 0e6f f8b8 b47e 0738 c931 ac3f
00000040: e8b7 7a3e 9856 dc3f 20ab 0038 baaa a93e
00000050: 603e b93f 2da3 803f 5083 e5be 546a 1639
00000060: c51d cd3e 009a da35 31fa 3bb9 a483 2239
00000070: 3883 1cb8 d6d0 36b9 feee aa3f f5be e13e
00000080: e01d dd3f 9016 6db8 b909 093f 0c0e 7e3f
00000090: 2707 fd3e ce65 9038 c01e 3639 bb95 293f
000000a0: 8823 d1b7 a87c ceb8 808f 72b6 d4cd 9eb8
000000b0: 4063 5636 1bce 3039 0091 1b36 fef9 adb8
000000c0: a461 08b9 fbfe 4bb9 58bb 9938 1624 5db9
000000d0: 3061 3e37 a0a9 01b8 bcca 53b9 8425 ddb8
000000e0: d734 7f3f 7441 c9bd 93a8 0f3f 86ed 953f
000000f0: 6985 37b9 50de 71b8 78fe ebb8 b0c3 f1b7
00000100: f206 1ab9 e004 733e ccef 353e fccb 8dbf
00000110: e708 bfbf 069c df3e 84f8 37b9 5481 a438
00000120: d057 9cb7 77ce 0c39 c65c 7ab9 4ca7 1db9
00000130: 9dac 0f39 7c9f 3339 6082 5ab7 461a bb38
00000140: e654 1439 ceff 9638 a1c2 39b9 9c75 d0b8
00000150: 48bb a6b7 f219 113e 293c 0b3f fd50 0740
00000160: 7a2c dc38 e4c4 2c3f 4267 d0b8 c04a 6437
00000170: b579 1fb9 60af 51b9 1017 7eb8 eadb f4b8
00000180: 1018 9c38 0245 e538 a636 4e39 80e5 9ab5
00000190: 1697 2539 706f 3db7 f40b b038 648c ce38
000001a0: cfe5 44b9 0d84 6cb9 7446 0e39 bf21 02b9
000001b0: a28f 3e39 508b 3bb8 e9b9 a43e c1e6 013f
000001c0: 2310 58bf 4434 e4bf 4e67 f33d 6d73 20b9
000001d0: daf2 f138 6065 cab6 a813 1338 9c77 79b9
000001e0: b0b3 5c3f 8ccf 313f ffb9 1dbf 1c90 d2be
000001f0: 0dc9 293e 46cf 9438 a855 88b7 9522 1839
00000200: b8f2 abb8 a029 68b9 405f 7eb8 950c 53b9
00000210: cec9 0cb9 40df d336 4bd8 0bb9 40ed 2a38
00000220: 2431 86b8 7af2 33b9 20ab 3a38 69a5 0e39
00000230: e5e7 2fb9 e0c0 42b7 a0ad 84b6 1864 8e37
00000240: 317a 18b9 f093 5ab8 16a3 9db8 b80d c638
00000250: ece6 2338 088e 8eb8 61be 1439 e951 49b9
00000260: 2540 08b9 765e 40b9 ae9e efb8 6c0c a0b8
00000270: d5e8 77b9 2967 44b9 5647 9fb8 e410 6038
00000280: 62ba ccb8 1c53 17b8 44ee 3db8 b833 cfb7
00000290: 72b2 8f38 4246 bdbf 7bc7 fa3e 7406 8b3f
000002a0: 434a b43d 794f a93e 9e49 e338 2832 86b9
000002b0: 477c 09b9 3f90 19b9 f24e 8cb8 c9f3 0eb9
000002c0: 131e 66b9 c6cd 36b9 f48b d538 4c69 a938
000002d0: e019 1439 b1a1 0639 5eaf e138 db5e 38b9
000002e0: b83b 8e37 02a3 4bb9 00e3 4a38 2a18 8ab8
000002f0: 8c51 47b9 1415 eab8 2ee5 98b8 9475 0238
00000300: f4fa 05b9 2c98 e638 488c 9f37 115e 09c0
00000310: 288e c03e dc15 833f fc4e d43e 7e78 c43e
00000320: da7e 97b8 d0f4 c438 c07c 02b9 9c97 59b8
00000330: be66 9638 a86b 3e3f c6d2 d43d 728f 75bf
00000340: aba3 adbf c7dc ef3d fc3a e6b8 7494 03b8
00000350: a3d6 0bb9 20b3 5237 d048 ad38 b215 d638
00000360: f41c f738 9616 3939 f4c1 2038 e029 0cb8
00000370: c8d4 36b8 f46f 0db9 eec1 1e39 b47a e838
00000380: e4c5 9938 4ca8 ccb8 80cb c436 2e98 2339
00000390: 4f3b 23b9 90b0 6137 a46d 5bb9 1caa 6eb9
000003a0: 3899 9337 b8aa ad37 9608 83b9 3c92 a0bd
000003b0: dd4c b13f ba31 1939 8bb6 6040 4d05 4d3e
000003c0: 8036 6336 6486 0fb8 9894 a6b8 e29f 8638
000003d0: 26b7 ed38 5823 cf38 9054 f9b8 c422 fbb8
000003e0: ca6f 0bb9 4ec0 11b9 bf7b 45b9 9831 a238
000003f0: 8b40 39b9 0cdb 10b8 7853 7eb9 ce1f f2b8
8.224699e-06 -0.00024685473 0.00020303343 0.00015356776 -0.0001920615 -0.38935873 0.7448369 -0.43723097
2.839717 1.1107733 2.8359442e-05 -8.834286e-05 7.688299e-05 -0.00011846247 3.230451e-05 1.3452693
0.24484217 1.7213926 3.067695e-05 0.33138067 1.447216 1.0049797 -0.44826746 0.00014344725
0.40061775 1.6287086e-06 -0.00017926913 0.00015498564 -3.7315505e-05 -0.0001743467 1.3354185 0.44091
1.7274742 -5.6526216e-05 0.5353046 0.99240184 0.4941952 6.885418e-05 0.00017368328 0.66244096
-2.4931287e-05 -9.8460645e-05 -3.6144338e-06 -7.5723656e-05 3.1946256e-06 0.00016861448 2.31812e-06 -8.2958475e-05
-0.00013006345 -0.00019454576 7.330504e-05 -0.00021089645 1.1347511e-05 -3.0913972e-05 -0.00020198053 -0.00010545089
0.9969 -0.09826937 0.561166 1.1713111 -0.00017501939 -5.7665922e-05 -0.00011253072 -2.8820563e-05
-0.00014689172 0.23732328 0.17767256 -1.1077876 -1.4924592 0.43673724 -0.0001754482 7.8442186e-05
-1.863754e-05 0.00013428355 -0.00023876419 -0.0001503501 0.00013701846 0.00017130183 -1.3024168e-05 8.921749e-05
0.00014146007 7.200205e-05 -0.0001771548 -9.940119e-05 -1.9875952e-05 0.14170054 0.5438867 2.1143181
0.00010498702 0.6748793 -9.937446e-05 1.3607263e-05 -0.00015208761 -0.00019997125 -6.0579798e-05 -0.00011675789
7.443142e-05 0.000109324246 0.00019666049 -1.1540687e-06 0.0001579191 -1.1291224e-05 8.3945604e-05 9.848995e-05
-0.00018777627 -0.00022555907 0.00013568421 -0.00012410338 0.0001817332 -4.471402e-05 0.32173088 0.5074273
-0.8439962 -1.782845 0.11884938 -0.00015301789 0.0001153701 -6.0318707e-06 3.5065837e-05 -0.00023791048
0.8621168 0.69457316 -0.6161193 -0.41125572 0.16580601 7.0957976e-05 -1.625235e-05 0.00014508732
-8.199125e-05 -0.0002214075 -6.0647028e-05 -0.00020127215 -0.00013426619 6.3142797e-06 -0.00013336648 4.0752115e-05
-6.398771e-05 -0.000171611 4.450523e-05 0.00013603795 -0.00016775688 -1.1608208e-05 -3.954119e-06 1.6974329e-05
-0.0001454137 -5.2113028e-05 -7.5167205e-05 9.443931e-05 3.907729e-05 -6.797543e-05 0.00014185302 -0.00019199368
-0.00012993866 -0.00018345736 -0.000114259645 -7.631708e-05 -0.00023642492 -0.00018730447 -7.594998e-05 5.3421492e-05
-9.7621945e-05 -3.6078607e-05 -4.5283014e-05 -2.4700406e-05 6.8520094e-05 -1.4787066 0.48980317 1.0861344
0.08803227 0.33068445 0.00010837916 -0.0002559584 -0.00013111635 -0.00014644953 -6.690425e-05 -0.00013632992
-0.00021945713 -0.00017433529 0.000101827 8.078161e-05 0.00014124019 0.0001283947 0.00010761501 -0.00017582944
1.6955528e-05 -0.00019420314 4.8371963e-05 -6.584854e-05 -0.00019008497 -0.000111619156 -7.290613e-05 3.110392e-05
-0.00012777356 0.00010995599 1.90196e-05 -2.1463664 0.37608457 1.0241046 0.4146651 0.38373178
-7.223869e-05 9.391608e-05 -0.00012444239 -5.187803e-05 7.1716946e-05 0.7438302 0.10391764 -0.95922005
-1.3565573 0.11712032 -0.00010978241 -3.137109e-05 -0.00013336031 1.2558681e-05 8.262845e-05 0.00010208356
0.00011783271 0.00017651389 3.8327606e-05 -3.34176e-05 -4.359035e-05 -0.00013488514 0.00015140299 0.00011085477
7.3324685e-05 -9.758826e-05 5.8649457e-06 0.00015601583 -0.00015566986 1.3452154e-05 -0.00020926312 -0.0002276082
1.7595114e-05 2.0702704e-05 -0.00024992664 -0.07840392 1.3851582 0.00014609742 3.5111415 0.20021553
3.385736e-06 -3.4219018e-05 -7.9431746e-05 6.4193984e-05 0.00011335155 9.8771125e-05 -0.00011888996 -0.00011975088
-0.00013297718 -0.00013899917 -0.00018833483 7.7339995e-05 -0.00017667019 -3.453628e-05 -0.00024254422 -0.00011545383

bias f4 [323]
00000000: a830 ac38 cfe7 da3f 645e b9b8 69f0 523f
00000010: 609e 0f3f 2428 ba38 4016 dd3e d523 283f
00000020: 4cff 0738 7b9e 26b9 8ed7 dfb8 30a4 c83f
00000030: 6ac6 de38 c730 c63e e851 68b9 6058 0638
00000040: 1fc3 4fb9 7776 9b3f 2a7d 2fb9 ba05 1fb9
00000050: 687a d1b7 6c5d 2ab9 2eb5 963e a84d 4c38
00000060: 6f42 113f 7d91 51b9 2dd6 46b9 d887 acb8
00000070: 6c9b 76b9 acea 51b9 5c05 67b9 adfb 2eb9
00000080: 3e78 9138 4859 073f 44bc 88b9 7569 0fb9
00000090: 9692 87b9 9c1f e8b8 80fe 75b9 c542 a93f
000000a0: 9c42 62b9 4296 023f d39e 11b9 bca1 43b8
000000b0: 12f9 8a38 e8e5 aeb7 6046 07b8 1138 1440
000000c0: f8fe f738 a224 da38 00ee c338 20cb 98b7
000000d0: 0407 8238 dbf4 74b9 5e17 ecb8 30b8 91b7
000000e0: a0f1 bb38 a234 cf38 1040 5738 3280 85b9
000000f0: a994 ac3f 65cb 07b9 0f7a 37b9 a0cc ffb7
00000100: 233c 81b9 bf95 4db9 3d16 24b9 3d71 29b9
00000110: 7b5a ed3e fc79 0b38 287d d937 1800 29b8
00000120: 827b 54b9 e040 76b9 a839 f838 4010 4237
00000130: 1e14 b5b8 3999 86b9 8850 4eb8 51e4 7c3d
00000140: c46a a538 e80b 1b3f 8275 06b9 bb03 813e
00000150: 80dc e6b5 b448 5738 40f2 da38 54a2 52b8
00000160: b9bc b13f f631 f2b8 444a 89b8 06f0 25b9
00000170: 601c 2cb7 62fc 2d3f c021 9238 c82f 87b8
00000180: 94d5 0238 ee52 9f38 0c88 35b9 0a0c 45b9
00000190: 0856 d5b8 7030 0639 c836 0838 99c8 1ab9
000001a0: 590f 3fb9 e2aa 823f 9860 253f a615 c7b8
000001b0: a242 e638 42c7 30b9 6427 31b8 1823 6ab8
000001c0: e773 d73e b8fe 393f baac c8b8 688c 51b9
000001d0: c0f8 023f 2801 f6b8 a063 e638 0182 1eb9
000001e0: 6cce 1039 6cc4 1338 f727 b93e b61b 80b9
000001f0: be8b a1b8 706d 5437 0656 cdb8 6623 45b9
00000200: 4cee ca38 105a 6537 00db 76b5 a95c 1ab9
00000210: 2060 7e38 f0e1 22b9 d4dc 143f e910 da3e
00000220: 50e1 7337 ca41 ff3e bcb4 07b8 98f4 113f
00000230: 9741 3cb9 eb6f 05b9 3861 b2b8 1c91 ad38
00000240: 3076 a43e 1e34 c738 c760 0339 c095 a937
00000250: 8e53 54b9 c116 60b9 81cb 80b9 4cae 0438
00000260: 8e91 d23e 3726 1b3f b97d 283e 4fc4 12b9
00000270: 0a9a 063f 69c5 133f c878 8537 67d8 2db9
00000280: 2b10 243f 4a5f 1e3f 5852 8f3f be0e a73e
00000290: d288 9bb8 5d75 46b9 e2f1 77b9 ef8a db3e
000002a0: 28ed bc37 ec1a 3238 2aff 013f 183c cf3f
000002b0: ec6e af3f c0b2 3bb7 c705 59b9 5144 46b9
000002c0: f81e 8037 bf00 21b9 eaab 8b38 6d5b b73e
000002d0: 5a2b 003f f413 f2b8 e337 113f 0224 d538
000002e0: 07e3 0039 6e1e e13d 2e9d fa38 a08a c636
000002f0: e036 aeb6 9738 0eb9 4e43 20b9 f21c 98b8
00000300: fdf8 003f ca3e 83b9 00ef 5336 e69c 483f
00000310: 203c 5137 937c 6b3e bceb 183e b8c4 0738
00000320: 262f c838 56a6 82b9 c644 c4b8 88cf 0fb8
00000330: a68e 3db9 776e 3eb9 dcc3 4e38 f361 143f
00000340: c4f1 4ab8 e019 8038 bef7 9f38 0d33 75b9
00000350: e170 493f b6e5 91b8 7fb3 00b9 c8c6 73b9
00000360: 78de cbb8 0939 5f3d 35f8 143f 6677 34b9
00000370: c4c0 1238 b003 ea37 a05d 8037 2c3d 13b9
00000380: dc3c 9140 8842 41b9 14ed 19b9 06e4 a538
00000390: 471f e83e ddd1 34b9 10c4 63b8 1c40 63b8
000003a0: 5d70 603f e0ca 5637 b484 ffb8 7645 aa38
000003b0: 408a 5e37 348c 1139 cc6a 7d38 29e7 57b9
000003c0: 8f47 03b9 5426 8cb8 5939 27b9 7028 73b8
000003d0: 6c46 c938 08d7 3ab9 f00c 2c3f 1848 b13f
000003e0: 7b58 013f 30be b2b8 330d 0639 2adb fd38
000003f0: 8c19 5db8 44b7 67b8 4afa 82b9 662a fcb8
8.210662e-05 1.7101992 -8.839069e-05 0.82398087 0.56101036 8.876648e-05 0.43181038 0.65679675
3.2424272e-05 -0.00015890032 -0.00010673619 1.5675106 0.000106227424 0.3870909 -0.00022155757 3.2030395e-05
-0.00019813747 1.2145528 -0.00016735928 -0.00015165555 -2.4971741e-05 -0.00016247266 0.29435104 4.8709713e-05
0.56741995 -0.00019985992 -0.00018962538 -8.226902e-05 -0.00023518287 -0.00020019215 -0.00022031873 -0.0001668769
6.936536e-05 0.5287061 -0.0002608021 -0.00013676829 -0.00025858422 -0.0001106851 -0.0002345983 1.3223501
-0.00021577853 0.51010525 -0.00013887444 -4.664225e-05 6.626746e-05 -2.0849475e-05 -3.225205e-05 2.315922
0.000118253694 0.000104018734 9.3426555e-05 -1.82144e-05 6.20019e-05 -0.00023360869 -0.000112577094 -1.7371116e-05
8.961861e-05 9.880333e-05 5.1319657e-05 -0.0002546325 1.3482867 -0.00012950374 -0.0001749771 -3.0493655e-05
-0.00024649603 -0.00019606108 -0.00015648543 -0.0001615928 0.46358094 3.325379e-05 2.5926696e-05 -4.0292827e-05
-0.00020263906 -0.00023484556 0.00011836301 1.1567085e-05 -8.6345e-05 -0.0002567263 -4.9189228e-05 0.061741177
7.8877e-05 0.6056504 -0.00012823011 0.2519816 -1.7200509e-06 5.1327705e-05 0.000104401726 -5.021908e-05
1.3885719 -0.00011548765 -6.546502e-05 -0.00015825042 -1.02586055e-05 0.6796323 6.968109e-05 -6.4462016e-05
3.1193325e-05 7.597158e-05 -0.00017312187 -0.00018791869 -0.00010172656 0.0001279728 3.2475946e-05 -0.00014761313
-0.00018220897 1.0208399 0.64600515 -9.493092e-05 0.00010979666 -0.00016858897 -4.2236774e-05 -5.582263e-05
0.42080614 0.72654295 -9.568916e-05 -0.00019984099 0.5116081 -0.000117304095 0.00010985811 -0.00015116484
0.00013809808 3.5230463e-05 0.36163303 -0.0002443471 -7.703107e-05 1.2661665e-05 -9.791185e-05 -0.00018800571
9.676497e-05 1.3670433e-05 -9.196083e-07 -0.00014721103 6.0647842e-05 -0.00015533692 0.58149457 0.42591026
1.4536388e-05 0.4985488 -3.235483e-05 0.57013845 -0.00017953511 -0.00012725561 -8.50581e-05 8.2763116e-05
0.3212142 9.498767e-05 0.00012529186 2.0216103e-05 -0.00020249022 -0.00021370781 -0.00024565685 3.163358e-05
0.41126674 0.60605186 0.1645421 -0.00013996776 0.52578795 0.577231 1.5911079e-05 -0.00016579182
0.6408717 0.6186415 1.1197004 0.32628435 -7.416461e-05 -0.00018926473 -0.00023645864 0.42879435
2.2521781e-05 4.246358e-05 0.50779974 1.6190214 1.3705726 -1.1187687e-05 -0.00020696885 -0.00018908201
1.527321e-05 -0.00015354434 6.660058e-05 0.3581194 0.5006615 -0.00011543176 0.567259 0.000101633384
0.00012291606 0.10992132 0.00011950206 5.916998e-06 -5.1919924e-06 -0.00013563257 -0.00015283862 -7.253316e-05
0.50379926 -0.0002503305 3.1580566e-06 0.7836441 1.247137e-05 0.2299674 0.14933676 3.2369717e-05
9.545525e-05 -0.00024919462 -9.358818e-05 -3.4287135e-05 -0.00018077585 -0.00018160963 4.9296636e-05 0.5796196
-4.8385715e-05 6.108335e-05 7.6278564e-05 -0.00023384039 0.78687865 -6.956926e-05 -0.00012273899 -0.00023248338
-9.721232e-05 0.054497752 0.58191234 -0.00017210617 3.498864e-05 2.789669e-05 1.5302387e-05 -0.00014041801
4.538679 -0.00018430699 -0.00014679536 7.910286e-05 0.45336363 -0.00017244318 -5.4303615e-05 -5.4180724e-05
0.8767145 1.28026295e-05 -0.000121840654 8.11917e-05 1.326442e-05 0.00013880507 6.0419363e-05 -0.00020590112
-0.00012519791 -6.6828594e-05 -0.00015947725 -5.7973375e-05 9.597544e-05 -0.00017818448 0.6720724 1.3850126
0.50525635 -8.5231266e-05 0.00012784153 0.000121048026 -5.27143e-05 -5.524537e-05 -0.00024982012 -0.00012024194
