iterative_k_clustering_AML/first_algorithm_results/K_2/training_results/H_model.pt (torch, 3487 bytes, 4 tensors)

weight f4 [5, 35]
00000000: 2c1f d73a 3f67 503f 1dd9 96ba 1a6a 49bb
00000010: a3de 0c3b 83f7 a73b 7a57 e1ba 4dad e8bb
00000020: 3f7a 843f 39f1 8abb b557 2abb 9c87 7ebb
00000030: 41fa 553b 9971 d1ba f16a 7abb 82e2 d1bf
00000040: c109 e5ba 2809 ae3f 0ecd d63f d5b3 333a
00000050: 4477 6abb a9fe b1b9 4459 713b ab6e 83bb
00000060: eaba c13a 09d7 623a e2cc 82bb 84fb 243b
00000070: 1bf7 88bb d55d 503a d54f 193a c494 963a
00000080: 84a5 503b 392d 163b 026e 82bb 3842 1cba
00000090: b0ea ae3b 4c63 3f3b 3662 b2bf d097 c43a
000000a0: 88c9 983a 319e 44bb 9ff2 c93a 1e5e 683b
000000b0: edd0 beba d63d fc39 2a21 d53a 1c60 80bb
000000c0: 20e5 9e3a 5a11 54be 5eee 84bb c268 733b
000000d0: 84c7 35ba 23d7 0cbb 75a9 183b 8816 f0ba
000000e0: d5fd 163a 4418 7dbb d5d1 103a a4d1 373b
000000f0: c4e3 6dbb e4af 333b 84bc 56bb d5bf 7fba
00000100: 35ca 073b d54d 14ba d5b5 64ba 8460 6c3b
00000110: 0b38 843b 4a6f e9ba 55cf 0abb f48e dbba
00000120: 1b42 c5ba b77b a13a a77b aeba f491 62bb
00000130: d8d3 1abb bc41 153b 6548 42bb b20b 23bb
00000140: 4bbb 86b8 4442 74bb 1504 21ba e127 13bb
00000150: 5340 743b 381f 93be de64 b2ba 1d69 963b
00000160: 669f 3d3b d51f 1cba 4485 6abb 9588 363a
00000170: a965 27ba b56d 0e3b 556b 02ba 75be 2c3b
00000180: d55c 3c3a 09c2 3c3a 198e eeb9 256f 583b
00000190: 98cd e03a d81d e2ba a919 8839 b37f 81bb
000001a0: d5e4 3cba c83c e4ba a0f8 72bb a33a fdb9
000001b0: 243f 063b 8eaa 753b 7472 d639 3343 0739
000001c0: 5278 873a b3f1 60bb fc6c 813a efba 353b
000001d0: c4c6 6abb 1a45 573b f782 eb3a 7d0a 5e3b
000001e0: 0caa ca3a 61e9 d737 ebb3 f7ba 51d6 c3ba
000001f0: 3969 4e3b d5be 433a a98c abb9 0820 a03a
00000200: b75e 603b 2260 8e3b d5c5 713a 7562 253b
00000210: e255 81bb c26b 82bb d5b7 753a 8eb2 ceba
00000220: 35d2 383b ca5e f53a c4cb 723b d567 533a
00000230: 1f8c 32bb d65c 6fbb 00fd 6abb cf9f 9fbe
00000240: f444 2b3a 2c83 933b d06d 613b 08a3 7b3b
00000250: 517e fb3e c435 86bb 6587 4dbb d562 683a
00000260: 0c96 b4ba d589 2bbb b766 93b8 1ee0 b6ba
00000270: 421a ad3a bc0f 23bb 6979 d939 ca38 baba
00000280: e64f 1d3b 0665 513b 46b8 08bb d0db 273a
00000290: c6fd 69bb 46f9 393b 64c3 003b e3b6 80bb
000002a0: fb91 8abb e349 87bb d0e3 503a 869a 783b
000002b0: 8620 7e3b 7714 8fbb 687a eb3a
0.0016412488 0.8140754 -0.0011508797 -0.0030733407 0.0021495007 0.0051259412 -0.0017192208 -0.007100737
1.0349807 -0.0042401818 -0.002599222 -0.0038838154 0.0032650384 -0.0015979289 -0.0038210715 -1.639725
-0.001747422 1.3596544 1.6781328 0.0006855105 -0.0035776654 -0.00033949807 0.0036826888 -0.0040109954
0.0014780436 0.00086532586 -0.003991709 0.002517433 -0.004179848 0.00079485524 0.0005848383 0.0011488427
0.0031836936 0.0022915138 -0.003980399 -0.0005960795 0.0053380355 0.0029203473 -1.3936222 0.0014998857
0.0011656741 -0.0030001516 0.001540739 0.003545649 -0.0014558114 0.00048111257 0.0016260494 -0.003917707
0.0012122728 -0.20709744 -0.004056736 0.0037141298 -0.0006934332 -0.0021490536 0.0023294364 -0.0018317262
0.000575987 -0.00386192 0.00055244315 0.002804854 -0.003629909 0.0027418071 -0.0032766173 -0.0009756063
0.002071989 -0.000565735 -0.0008724605 0.003606827 0.004035001 -0.0017809656 -0.0021180708 -0.0016750977
-0.0015049608 0.0012320195 -0.0013311998 -0.0034571858 -0.0023624804 0.0022774776 -0.0029645201 -0.0024878797
-6.424504e-05 -0.0037270943 -0.0006142271 -0.002245419 0.0037269786 -0.28734756 -0.0013610383 0.004590167
0.002893412 -0.0005955671 -0.0035785 0.00069631013 -0.0006385693 0.002173287 -0.00049751 0.0026358638
0.0007185464 0.00072005444 -0.00045500768 0.0033025232 0.0017151115 -0.0017251326 0.0002595906 -0.0039519905
-0.00072057295 -0.0017413134 -0.0037074462 -0.00048299608 0.0020484412 0.0037485692 0.00040902535 0.00012899637
0.0010335541 -0.0034323751 0.0009874399 0.002772983 -0.003582404 0.0032847584 0.0017968108 0.0033880763
0.0015462055 2.5738673e-05 -0.0018898224 -0.0014941191 0.0031495823 0.0007467096 -0.00032720462 0.0012216577
0.0034236142 0.004344956 0.00092228997 0.0025235687 -0.0039470056 -0.003980131 0.00093734014 -0.0015769766
0.0028201465 0.0018720266 0.0037047723 0.00080644834 -0.0027244163 -0.003652384 -0.0035856366 -0.31176612
0.0006533407 0.004501721 0.0034397729 0.0038396735 0.4911981 -0.004095765 -0.003136122 0.0008864825
-0.0013777628 -0.0026174684 -7.028638e-05 -0.001395229 0.0013206678 -0.0024881205 0.00041479923 -0.0014207598
0.0024003922 0.0031951084 -0.0020861789 0.0006403299 -0.003570424 0.0028377338 0.0019647712 -0.003928052
-0.004228828 -0.004128681 0.0007968517 0.00379339 0.003877671 -0.0043664533 0.0017965557

bias f4 [5]
00000000: 1f39 e93e 32cc 1b3f fe37 8dbf d246 8dbf
00000010: 583f 31bf
0.45551392 0.6085845 -1.1032712 -1.1037238 -0.6923728

weight f4 [15, 5]
00000000: 7e9f 9eb9 8fc5 c6be 1d95 673a 92ab 293e
00000010: b07c 2e3b a1d0 56bb 9052 e3ba 464a 1abf
00000020: 0a77 efbe 600b 17be 8649 69bb 6971 5c3b
00000030: 0612 033b cf61 e13e 38d1 65bb 6981 1f3f
00000040: aac1 153f cc58 35bf 0dee 4bbb 70f8 893b
00000050: 4054 973a 3ae2 5eba 0109 3b3b d52d b63e
00000060: a27a f3ba 46d3 0ebf d643 f13e 84b9 8ebe
00000070: f47e 093a 8b33 c53a c2f1 2fbb 9028 80ba
00000080: 37ef 99ba 9a1a 8a3e 29fa 04bb ba4d c239
00000090: 9df0 f4be ab67 803e 982e 1c3a 7bf4 0a3e
000000a0: f05e c03f a487 aabb 2ea2 113b 027e 813b
000000b0: d69a 84bf 0b09 383b 6db1 c53e 4db2 c9be
000000c0: 8deb 16be 6463 4fbb c8ca 743b 0864 8a3b
000000d0: 6888 073e a9a1 4a39 1f76 c93e b0a8 523f
000000e0: 2049 ee3d 81c7 953b 6bf8 763b b8a8 943b
000000f0: d00c 6e3f 89fc e7ba ee3a 5bbb 14fd 25be
00000100: a337 ccbe 4c48 983a 2eb7 8dbb f604 e2ba
00000110: dda2 003b 00ed 2738 4251 653b 54f3 99bf
00000120: c58d e5be ecc3 623b d693 03bf
-0.0003025494 -0.388226 0.00088341703 0.16569355 0.0026624613 -0.003277816 -0.0017343331 -0.6026958
-0.46770507 -0.14750433 -0.0035596802 0.0033636934 0.0019999756 0.44019935 -0.003506733 0.6230684
0.5849863 -0.7083862 -0.003111723 0.0042105243 0.0011545494 -0.00085023383 0.0028539302 0.35581842
-0.0018575976 -0.5579113 0.47122067 -0.27875912 0.0005245053 0.0015045268 -0.002684698 -0.0009777714
-0.0011744265 0.2697342 -0.0020290709 0.00037060474 -0.47839823 0.25079092 0.0005957871 0.13569824
1.5028973 -0.005204158 0.002222191 0.003951789 -1.0359752 0.0028081562 0.38611928 -0.39393845
-0.14738293 -0.0031644935 0.0037352312 0.0042233504 0.13235629 0.00019324444 0.39347932 0.82288647
0.11635041 0.004570902 0.003768469 0.0045367144 0.929883 -0.0017699163 -0.0033451873 -0.16209823
-0.39886197 0.0011618226 -0.0043248152 -0.001724391 0.0019628324 4.0036626e-05 0.003499106 -1.2027383
-0.44834724 0.0034601642 -0.51397455

bias f4 [15]
00000000: a016 2bbf dcbb 77bb a488 b7ba 2845 5b3a
00000010: 9b66 3abf 575a 953e 8d2a 2fbf cc41 5b3b
00000020: 98e5 a6ba e79d b53e d9fb 203b 0fe6 47be
00000030: d9ea 333b 605d 59bf 4576 2dbb
-0.668314 -0.0037801182 -0.0014002514 0.0008364492 -0.72812814 0.29170486 -0.684243 0.0033455966
-0.0012733219 0.35472032 0.0024564175 -0.19521354 0.0027453213 -0.84908104 -0.00264682
