RECAP_clustering_AML/results_trainings/K_2/cluster_2/training_results/cluster_1_model.pt (torch, 3855 bytes, 4 tensors)

weight f4 [5, 39]
00000000: 08f2 a9ba 448b 7bbb 2e6d 803f ea80 9eba
00000010: 5931 a73f 35f0 2fbb cbf6 4638 222f 803b
00000020: 1c0f 033b cc70 8ebf 1cd0 3a3b 293d c5b9
00000030: 24e6 1d3b 37e6 7bbb dee4 0c3b a9dd dc39
00000040: 1a7c 0240 d58f 2dba 7298 f7ba 29e2 d8bf
00000050: 0990 993e 912a 7ebb ca9b 443f b9dd 58bb
00000060: d5f8 233a fd8b 903b d51d 58ba a47c 213b
00000070: ca70 8c3a 4462 713b 536f 0239 447b 79bb
00000080: f56b 2f3b 324d 893b c422 76bb c475 6bbb
00000090: d501 38ba d582 32ba 034b 8d3b 1574 25bb
000000a0: d5b9 3c3a 8b2b acbe 1597 473b 9873 6c3f
000000b0: d54f 373a 44df 66bb d52b 343a c428 66bb
000000c0: 89cb 323a d5c4 3cba 755c 513b c4ff 72bb
000000d0: 69ae 493a c42a faba 4498 77bb 25fc 2a3b
000000e0: 04a5 713b 6404 7c3b f213 fc3e 4e64 dfbe
000000f0: ae4b 64bf 8bf6 8b3f 67d8 893b d5db 343a
00000100: d51d 513a ca5d df3a 0d2b 143a 5875 f63a
00000110: b326 8cbb b73f 69bb 194e 98b9 e4dd 483b
00000120: 04e9 6a3b 04be 5fbb c24a 8cbb ccec 0cbb
00000130: 0e87 98ba 9c39 30bb d5cb 35ba 4412 78bb
00000140: a18b 18be 84d5 10bb 81d3 ad3a d585 2d3a
00000150: 2c10 2c3b 4427 71bb 1729 72bb ba2f 063b
00000160: 04fa 52bb c4b6 0cbb 8b31 86bb 4474 793b
00000170: 17c2 3ebb 8e38 80ba 3798 96be d557 3cba
00000180: 9c09 4e3b 12c7 813b d689 d139 d3c6 853b
00000190: 50cc d0ba 3dc8 42ba d57b 163a 8493 59bb
000001a0: aa54 a9ba 9532 11bb 0958 723a d52b 79ba
000001b0: d5b5 20ba ecba 4ebb 0449 673b c4bf 7fbb
000001c0: 88fd b63a 1b6e 88bb b7ec 8d3b d559 583a
000001d0: 4ba5 2db8 e4ad 543b 5565 22ba 951d 063f
000001e0: 6a4a fbba c4e0 dd3a 1545 4fbb c4c0 4d3b
000001f0: 3530 153b f2dd b13a ee3f 6e3b d59e 24ba
00000200: 445d 69bb d5fc 1fba e24b 81bb b960 9f3b
00000210: d599 4e3a 98e1 9d3b 44e9 70bb 84f4 013b
00000220: 9e2a 5cbf 8d31 a23f c0b2 cdba dc5a c2be
00000230: 656e a2ba 0964 2cba 0c59 3bbb c482 54bb
00000240: d554 6aba d5a6 47ba 441b 79bb 87ca 483b
00000250: f5ff 503b 97e6 71bb 840f 683b d53f 433a
00000260: 44ea 67bb 4433 68bb 1968 b939 d5fa 40ba
00000270: d517 4aba 02f1 803b 7426 49be 22f2 803b
00000280: da79 d7be 96e5 97b7 55f0 76ba d56f 41ba
00000290: d54e 2dba 6509 85bb d5cb 1b3a eacb d93a
000002a0: 44ae 7cbb 2a4b b9ba 40f6 6cbb d992 8139
000002b0: 44e8 4a3f 44ad 6abb 9590 0bbb 47d0 843b
000002c0: f158 81bf 4067 8d3f 9ac4 823a e4b2 b4ba
000002d0: c463 63bb 4432 67bb aad5 9aba 84eb 703b
000002e0: e5e0 b538 f5f7 27bb 445d 733b c430 6cbb
000002f0: 1963 de39 5930 8e39 d527 173a 89fc 3f3a
00000300: d005 71ba 90bf 4a3a d001 23ba
-0.0012965808 -0.003838257 1.0033319 -0.0012092863 1.3061935 -0.0026846055 4.7436723e-05 0.0039118687
0.001999802 -1.1128173 0.002850539 -0.00037620336 0.0024093473 -0.003843678 0.002149872 0.0004212682
2.0388246 -0.0006620859 -0.0018890037 -1.6944019 0.29992703 -0.0038782696 0.76800215 -0.0033091141
0.00062550354 0.004411219 -0.00082441914 0.0024640942 0.0010714766 0.0036832253 0.00012439238 -0.0038067857
0.0026767228 0.0041901106 -0.0037557343 -0.0035928348 -0.0007019316 -0.00068096566 0.0043119206 -0.0025246192
0.0007199322 -0.3362697 0.0030455042 0.9236388 0.0006992792 -0.0035228292 0.00068729866 -0.0035119513
0.000682049 -0.0007200961 0.0031945978 -0.0037078718 0.00076935306 -0.0019086231 -0.0037779966 0.0026090231
0.0036872039 0.0038454765 0.49233967 -0.43631214 -0.8917798 1.0934614 0.0042067054 0.00068992126
0.00079771626 0.0017041501 0.0005652167 0.0018803282 -0.0042770742 -0.0035590956 -0.00029049887 0.0030649835
0.0035844455 -0.0034140358 -0.0042813728 -0.0021503447 -0.0011636929 -0.0026889807 -0.00069349754 -0.0037852684
-0.14897014 -0.0022099921 0.0013261886 0.0006619369 0.0026254756 -0.0036797086 -0.003695076 0.0020475225
-0.0032192478 -0.0021471241 -0.0040952615 0.0038063684 -0.0029107386 -0.000978248 -0.29413006 -0.0007184719
0.0031438833 0.0039604986 0.00039966282 0.0040825396 -0.001593003 -0.00074303505 0.00057404983 -0.0033199498
-0.0012918909 -0.0022155393 0.00092446856 -0.00095051277 -0.0006130611 -0.003154452 0.0035291323 -0.0039024213
0.0013961056 -0.004163516 0.004331197 0.0008253132 -4.1400355e-05 0.003245228 -0.0006194909 0.5238889
-0.0019171957 0.0016927947 -0.003162687 0.0031395415 0.002276433 0.0013570173 0.0036354023 -0.00062797713
-0.003560857 -0.00061030436 -0.0039458135 0.004863825 0.0007881199 0.0048181526 -0.003676013 0.001982958
-0.8600253 1.2671372 -0.001569353 -0.37959945 -0.0012392519 -0.00065761857 -0.0028587012 -0.0032426575
-0.00089390326 -0.00076161075 -0.0038010636 0.0030638294 0.0031890844 -0.0036911124 0.0035409639 0.00074481714
-0.0035387436 -0.0035430947 0.00035363509 -0.00073615956 -0.000770924 0.0039349804 -0.19643575 0.0039351145
-0.42085153 -1.8107512e-05 -0.00094199675 -0.000737903 -0.0006611173 -0.004059958 0.0005943154 0.0016616557
-0.003855602 -0.001413678 -0.0036157519 0.00024714207 0.7926066 -0.003580884 -0.0021295894 0.004053149
-1.0105268 1.1047134 0.0009976805 -0.0013786224 -0.0034696916 -0.0035277763 -0.0011812944 0.0036761472
8.6726424e-05 -0.0025629972 0.0037134448 -0.0036039809 0.00042416973 0.00027120372 0.00057661283 0.00073237024
-0.00091942865 0.00077342335 -0.00062182266

bias f4 [5]
00000000: 9671 debe 70d2 66bd ea94 74bf 009a eebe
00000010: 2857 bebe
-0.43446034 -0.056353033 -0.95539725 -0.46601868 -0.3717587

weight f4 [19, 5]
00000000: 1a12 5c3b 752b 64ba 7648 1a3b db09 89bb
00000010: 137d 753b be10 36bb 6196 343b 781c 3f3e
00000020: aa77 30ba 92d8 8fbb 3297 b0bf ed3b 9e3f
00000030: 91d1 1abf 6b75 cebf 9603 4dbb 96d0 10bb
00000040: 0748 063b fe5f 833b 1695 8a3a 2707 073b
00000050: 40ce b03f 6c80 a0bf 057c 61bf 5d7d 663b
00000060: 11a7 1d40 edb8 553a 2f0b 30bb ac50 7bba
00000070: 7fcb 5a3b e6e5 e53d 3178 d33a a385 7a3a
00000080: c21a 253a 0908 cb3a cbc4 753b 5989 7839
00000090: e55b 6cbb c3bb 0f3a 6cb3 5abb 0ff1 2abb
000000a0: 1379 c339 7153 54bb 0490 c73a eac5 823b
000000b0: d655 263b a441 6b3f cdbf e7b7 73e7 b8be
000000c0: 09d3 c53f 7bcb c6bf 43d7 8c3b f095 803b
000000d0: 073e 553a df6d 68ba ee95 c5ba e0b3 d639
000000e0: 6609 2939 aea0 7dbb 7481 84bb 7e98 0eb8
000000f0: de9a b5ba ad97 8f3b 43d9 313e ece1 1e39
00000100: ca8e bb3a ddab 043b a70c 07bb bf80 9eba
00000110: 74f1 e53a bde8 37ba 686f 0d40 df5c 4840
00000120: 9a1d 88bf 62ef 77bb 7400 24be b59b 3b3a
00000130: 42a6 7e3b 3d10 1a3a 8a37 9eba 99cb ff3d
00000140: 1c4a 3f3f d4f3 7a3a 23c3 aebe 2a8a ec3f
00000150: a20e d5bf 52c4 483b cc65 85bb 78a3 943a
00000160: 36bf 19bb 405e 55b9 708b 95b9 aea2 6cbb
00000170: 7eeb 37bb 52f8 46bb bcdf 603b
0.0033580125 -0.00087039854 0.0023541725 -0.004182083 0.0037458583 -0.0027780975 0.0027555453 0.18663204
-0.00067316985 -0.004389831 -1.3796141 1.2362038 -0.6047602 -1.6129583 -0.0031282655 -0.0022096983
0.002048971 0.004009246 0.0010572996 0.0020603628 1.3812943 -1.2539191 -0.88079864 0.0035169937
2.463322 0.0008152861 -0.0026862135 -0.0009586911 0.0033385453 0.1122549 0.0016133842 0.00095566566
0.0006298238 0.0015490066 0.003750133 0.00023702289 -0.0036065516 0.0005482996 -0.0033371104 -0.0026083624
0.00037283506 -0.0032398368 0.0015225415 0.0039908784 0.0025380752 0.91897035 -2.762666e-05 -0.36114082
1.5455028 -1.5530847 0.004298122 0.003924124 0.0008134548 -0.000886647 -0.001507459 0.00040951278
0.00016120597 -0.003870051 -0.0040437523 -3.3997458e-05 -0.0013855358 0.004382095 0.17368035 0.00015152217
0.0014309522 0.002024404 -0.0020606907 -0.0012092813 0.0017543272 -0.00070155767 2.2099247 3.1306684
-1.0634034 -0.0037831892 -0.16015798 0.0007156686 0.0038856422 0.00058770535 -0.0012070995 0.12490005
0.74722457 0.00095730764 -0.34133253 1.8479664 -1.664509 0.0030634594 -0.004070973 0.0011340221
-0.0023459918 -0.00020348374 -0.00028523384 -0.0036107707 -0.0028063948 -0.0030360413 0.0034313044

bias f4 [19]
00000000: 95a6 c4be 89e3 0bbe 3b97 bd3f 53a7 6cbb
00000010: 9ba8 853f 6a97 93b9 d2d0 3b3a 2713 abbe
00000020: 8f89 773b 12a8 c33f bf5f 10be 4926 a3ba
00000030: 0a2b 923a 1177 acbe 5ea7 743f d217 ffba
00000040: 9be5 a73f 7ddc 5bbe 3c68 2ebe
-0.38408342 -0.13661017 1.4811777 -0.0036110475 1.0442079 -0.00028150837 0.00071646005 -0.3341305
0.00377712 1.5285666 -0.14099024 -0.0012447323 0.0011151743 -0.3368459 0.9556788 -0.0019462055
1.3116945 -0.21470828 -0.1703195
