RECAP_clustering_AML/results_trainings/K_3/cluster_2/training_results/cluster_1_model.pt (torch, 3855 bytes, 4 tensors)

weight f4 [5, 39]
0.000652877 -0.0023713326 0.06795007 0.0017556131 -0.81353974 0.0042750156 -0.00070269156 0.0009353525
0.0022228549 0.0036848667 -1.6210898 2.408828 -0.74766624 -1.3213829 0.002730946 0.00029138968
-0.00085582334 -0.0012546503 -0.008583327 -1.593904 0.32533646 0.33561113 -0.656313 0.0041747172
0.0025708724 0.0005797975 -0.0035872916 -0.0023429182 -0.0035292963 -0.001675711 0.0027484624 -0.0038376013
-0.0009793167 -0.0017761467 0.0020921652 -0.0022856155 -0.0037197033 -0.0008327042 -0.002626558 0.0035104537
0.0036387758 -0.0007563031 0.00413634 0.0014299387 0.0031774458 0.0035103718 0.00343774 -0.0004557493
-0.0034830766 -0.00037514372 0.52849615 0.0039949184 -0.0012568602 -0.000887916 0.0024184985 0.0018409927
-0.0032385692 -0.0036565666 0.004054134 0.5275767 0.0028534452 -0.0038624872 -0.002010125 -0.0039403415
0.0036218443 -0.0034158283 0.0038781771 0.0036926651 0.00015718983 0.00076302636 0.0035760195 -0.00045525542
0.0009702717 0.00078992295 -0.0020491902 -0.003563271 -0.0037374059 0.0034010718 -6.1069884e-05 0.002642912
1.2829758 0.0011632242 0.0022665404 -0.0019555031 -0.003712521 0.0028010472 0.0032314495 -0.0023007896
-0.001071664 -0.000642359 -0.0041908408 -0.0018290926 0.00092226017 0.0028489241 0.00043314704 0.0020904527
0.00089468755 -0.00013582391 1.4255929 -0.0014215271 -0.0022588703 -0.00016048634 -0.0040177605 -0.000563619
-0.0040637506 0.0012267539 -0.0036492208 -0.0038954178 -0.0015705833 -0.0020983864 -0.0015197296 0.0021598164
0.0024398987 -0.0044890353 0.0007509266 -0.0025825922 0.0035673091 -0.003922806 0.0039129267 0.0027757771
0.0014681634 -0.0015010174 -0.0012268077 -0.000780118 -0.0005129248 0.00078330946 0.004147545 -0.002210703
1.4498142 0.0034359654 -0.0043379203 0.003795878 0.0010883515 -0.0029838688 -0.0012839728 -0.0011578044
0.0011412033 0.004914966 0.108696386 -0.0010763728 0.00418872 0.0034885684 -0.0016719971 0.0007596885
0.00071706745 -0.0038475553 -0.0024832645 -0.0027535756 0.00089356053 0.0013471779 -0.00444805 0.0035711685
-0.00043498052 -0.0032315264 -0.0019969055 -0.0026836796 0.0035972463 -0.0027444968 0.0021416156 -0.003491331
-0.0016854829 0.001367925 0.0012308294 1.794762e-05 -0.0021221726 0.00071983255 -0.00202435 0.0011162271
0.004109501 0.0030401426 -0.003736035 -0.0012824063 0.00025630314 -0.003957699 -0.0035560685 -0.00093633647
-0.0018372467 -0.0040556146 0.0028995438 -0.0013485912 -0.0023307959 -0.0036707083 -0.00164066 0.0035915384
-0.002681983 0.002657411 0.0026168053 -0.0034849206 0.00066932786 -0.0036278227 -0.0039132587 0.0026027535
-0.0035207137 0.001585634 0.00064109406
00000000: d525 2b3a 5c68 1bbb 6829 8b3d 9a1c e63a
00000010: 2444 50bf 6e15 8c3b d534 38ba 7232 753a
00000020: 51ad 113b ce7d 713b df7f cfbf 3d2a 1a40
00000030: 0e67 3fbf 1323 a9bf acf9 323b a9c5 9839
00000040: 5559 60ba 1473 a4ba 15a1 0cbc 0c05 ccbf
00000050: 8092 a63e 39d5 ab3e 2104 28bf 11cc 883b
00000060: 157c 283b 8dfd 173a c418 6bbb a58b 19bb
00000070: c44b 67bb 88a3 dbba 8c1f 343b 4480 7bbb
00000080: 6a5c 80ba 98cd e8ba b51c 093b 44ca 15bb
00000090: 44c6 73bb d549 5aba 5522 2cbb a40f 663b
000000a0: 8778 6e3b a442 46ba 238a 873b c86c bb3a
000000b0: b23c 503b 440e 663b b54b 613b a3f1 eeb9
000000c0: 5444 64bb f0ae c4b9 864b 073f cee7 823b
000000d0: 3bbd a4ba 09c3 68ba ac7f 1e3b 774d f13a
000000e0: 2d3e 54bb 02a3 6fbb 8ad8 843b 440f 073f
000000f0: de00 3b3b c821 7dbb 4dbc 03bb fb1d 81bb
00000100: 775c 6d3b 17dc 5fbb 0429 7e3b a400 723b
00000110: 53d3 2439 d505 483a a75b 6a3b 59af eeb9
00000120: d559 7e3a d512 4f3a b54b 06bb c485 69bb
00000130: 44ef 74bb 84e4 5e3b a512 80b8 b534 2d3b
00000140: 8d38 a43f 5477 983a 3d8a 143b e627 00bb
00000150: c44d 73bb c691 373b bac6 533b d8c8 16bb
00000160: 1477 8cba fc63 28ba 5253 89bb 2abe efba
00000170: d5c3 713a 04b5 3a3b 0318 e339 faff 083b
00000180: 7789 6a3a f46b 0eb9 d479 b63f 8952 baba
00000190: 8e09 14bb 3948 28b9 6ba7 83bb d5bf 13ba
000001a0: 3629 85bb 08cb a03a c427 6fbb 444a 7fbb
000001b0: 08dc cdba 1585 09bb aa31 c7ba b58b 0d3b
000001c0: b5e6 1f3b c218 93bb d5d9 443a b540 29bb
000001d0: 84c9 693b e28a 80bb 0238 803b d0e9 353b
000001e0: 646f c03a c9bd c4ba d6cc a0ba d580 4cba
000001f0: cd75 06ba 0257 4d3a 21e8 873b 71e1 10bb
00000200: 8393 b93f ef2d 613b 1d25 8ebb 44c4 783b
00000210: 04a7 8e3a 038d 43bb fa4a a8ba 78c1 97ba
00000220: 6e94 953a b90d a13b 369c de3d 1415 8dba
00000230: 8841 893b 77a0 643b ea26 dbba d525 473a
00000240: 95f9 3b3a 4427 7cbb 44be 22bb 5575 34bb
00000250: d53d 6a3a ca93 b03a f3c0 91bb 440a 6a3b
00000260: 190e e4b9 04c8 53bb 84de 02bb ace0 2fbb
00000270: c7bf 6b3b 04dd 33bb 595a 0c3b d0ce 64bb
00000280: 6ceb dcba f24b b33a c853 a13a 388e 9637
00000290: 2614 0bbb 25b3 3c3a f5aa 04bb 5e4e 923a
000002a0: fea8 863b 213d 473b 44d8 74bb 6a16 a8ba
000002b0: 6d60 8639 96af 81bb ee0c 69bb 7a74 75ba
000002c0: c5cf f0ba f6e4 84bb 4606 3e3b 36c3 b0ba
000002d0: 44c0 18bb 4490 70bb 6a0b d7ba 0460 6b3b
000002e0: 35c4 2fbb f527 2e3b b57e 2b3b 4463 64bb
000002f0: d575 2f3a c4c0 6dbb cb3a 80bb f592 2a3b
00000300: c6bb 66bb 0cd5 cf3a 180f 283a

bias f4 [5]
-1.4777156 0.8225228 -0.3066604 -0.3017456 -0.61425096
00000000: c925 bdbf db90 523f 9802 9dbe 667e 9abe
00000010: 8d3f 1dbf

weight f4 [19, 5]
-0.0015362186 -0.57397527 -0.1955718 -0.0011126664 -0.00094682974 -0.0003317952 -0.7318995 0.0014357986
0.0025716922 0.0011492743 -1.5616663 -0.12259633 0.0007815559 -0.0038228203 0.0011486716 0.0044696513
-0.30897132 -0.0037297101 -0.27398124 -0.00022622856 1.9910493 0.00022737372 -0.00091344694 1.0169076
-0.0002797967 0.8553618 0.8765395 0.006056549 0.30212277 -0.3814178 -0.002614934 -0.31802508
0.00030751142 -0.0013400208 -0.0010758343 -0.48895556 -0.14298956 -0.2120494 0.0020633608 -0.0037785172
-0.0036568274 -0.0026560496 -0.38414156 -0.000988563 -0.00094290276 0.005888692 -0.0012696695 -0.32637513
0.61721075 -0.0037975318 1.9282103 0.67425555 1.7877938 -0.00438514 0.0022960517 -1.8216475
0.0015989281 0.80066746 0.003559401 0.0024608783 1.9928224 0.30013958 0.6184799 0.8275794
0.0022088075 1.9241208 0.5908551 0.0012822122 1.0149237 0.00047684807 -0.0013282016 -0.0031840962
0.0014867899 -0.003928964 0.004482971 -0.003257677 -0.85805 -0.0025004954 0.002337806 0.20067634
0.0034208922 0.002043686 -0.003872756 0.0006624453 0.0014720215 -0.004411812 -0.08105384 0.003153323
-0.00023120083 -0.00085181184 0.0028020572 0.6918423 0.00041865394 0.9880403 -0.0052408716
00000000: f15a c9ba 0bf0 12bf f943 48be e4d6 91ba
00000010: ab34 78ba ccf4 adb9 c45d 3bbf 6831 bc3a
00000020: d689 283b 3fa3 963a aee4 c7bf c913 fbbd
00000030: 54e1 4c3a 4888 7abb 068f 963a 2776 923b
00000040: 7d31 9ebe 276e 74bb 4547 8cbe c437 6db9
00000050: b4da fe3f 2b6b 6e39 6374 6fba 072a 823f
00000060: adb1 92b9 fef8 5a3f e564 603f 0476 c63b
00000070: d6af 9a3e 3249 c3be 505f 2bbb 2fd4 a2be
00000080: 7c39 a139 a3a3 afba 0203 8dba 6258 fabe
00000090: db6b 12be 7a23 59be 7339 073b 00a1 77bb
000000a0: 62a7 6fbb 1e11 2ebb 34ae c4be ac92 81ba
000000b0: 222d 77ba eef5 c03b 0a6b a6ba a41a a7be
000000c0: 8601 1e3f 03e0 78bb 98cf f63f 039c 2c3f
000000d0: 6dd6 e43f 38b1 8fbb 5b79 163b bf2b e9bf
000000e0: 2093 d13a 8bf8 4c3f d744 693b b046 213b
000000f0: ce14 ff3f e5ab 993e b354 1e3f 3edc 533f
00000100: a4c1 103b 9749 f63f 4842 173f e70f a83a
00000110: 05e9 813f 7701 fa39 0d17 aeba 45ac 50bb
00000120: 64e0 c23a 8abe 80bb e3e5 923b c07e 55bb
00000130: 2aa9 5bbf 5adf 23bb e035 193b 197e 4d3e
00000140: 0c31 603b 5def 053b 10ce 7dbb f4a7 2d3a
00000150: d8f0 c03a f690 90bb 8eff a5bd fba7 4e3b
00000160: 806e 72b9 204c 5fba b8a2 373b 941c 313f
00000170: c87e db39 36f0 7c3f 9ebb abbb

bias f4 [19]
-0.4829586 -0.0029174066 0.18337695 -0.0004907307 0.5479773 1.5367477 -0.86406046 0.0009268757
0.5705056 0.0035929717 0.001365783 1.0853653 0.9640378 -0.00039145848 -0.9055428 -0.004425492
-0.51337034 0.004106058 1.0633142
00000000: 5a46 f7be f631 3fbb 2bc7 3b3e 61a4 00ba
00000010: 3e48 0c3f 26b4 c43f 1133 5dbf 93f9 723a
00000020: a80c 123f 1078 6b3b 1304 b33a 40ed 8a3f
00000030: 2ecb 763f ab3c cdb9 a7d1 67bf b803 91bb
00000040: 3d6c 03bf 1c8c 863b ae1a 883f
