iterative_k_clustering_breast_cancer/training_on_clusterings_second_algorithm/K_4/cluster_1/training_results/cluster_0_model.pt (torch, 17231 bytes, 4 tensors)

weight f4 [5, 344]
00000000: 5c09 6eb8 f2a9 32bf 57d4 2c39 b822 cab7
00000010: d8c5 76b8 32db e538 086d 9e37 628f ddb8
00000020: 5833 71b8 feea 2039 046a 3b38 d078 083e
00000030: 3217 ef38 9839 7338 f850 28b8 6676 14b9
00000040: 62de ee38 5397 ab3d 5f9a 50b9 9029 bbb7
00000050: d0fc dd37 ccd8 dc38 5079 e737 f20d 9438
00000060: 5f61 10b9 46a3 1139 58ef 7338 818e 1639
00000070: 85aa 3ab9 9927 3f39 05e0 3139 9c45 a938
00000080: 29b8 2fb9 3a43 3cbf 00ec c834 f8d3 3db8
00000090: aeac bb38 f227 b738 2d3e 2b39 717b 853e
000000a0: 1259 8838 6cb4 9eb8 2481 4c38 d09f d7b7
000000b0: fef2 0c39 7773 4339 f017 8037 58df 763f
000000c0: b0c6 c6b7 01a1 51b9 5f26 35b9 32ab 94b8
000000d0: e514 2cb9 d88a 76b8 5c5e df38 57ac 1739
000000e0: 480f 39b8 98c1 0238 b06b cfb7 1092 4937
000000f0: e3e7 00b9 3287 d7b8 808d 0bb6 f843 7938
00000100: 98d9 7b38 a5fc 27b9 38b7 3638 ccf4 8938
00000110: 5c75 6438 a2d9 eb38 31c5 0bb9 2edc 1b39
00000120: ce52 16b9 40a0 e3b6 5fdd 4939 ac9b b838
00000130: 20f3 37b7 9cc9 dab8 31fb 3fb9 9228 db38
00000140: 3c2a 45b9 2db9 42b9 5f95 3739 3064 92b7
00000150: 1203 e2b8 5fef 41b9 a1a0 4db9 f931 22b9
00000160: bd05 c83e d753 4239 8432 4c38 38a3 2338
00000170: 3606 05b9 edad 6939 98ee 3638 6520 35b9
00000180: 99df 22b9 3a4c 3039 29b2 26b9 579c 4739
00000190: 5c0e 98b8 a10e 46b9 8570 44b9 89d4 4bb9
000001a0: 44eb 5d38 880a 5239 42d5 c738 bce6 a1b8
000001b0: cf78 3fb9 2ef5 0439 02c1 e038 fd3a 26b9
000001c0: 1ffa 0340 dc4c 46b8 f80a 8937 5258 9138
000001d0: 84f2 32b8 9c5f c6b8 807e 1eb6 02d6 cb38
000001e0: 05fa 4339 b746 4139 a089 2637 5ddf 47b9
000001f0: 8c12 e238 4824 a0b7 c0c1 8bb6 92e3 cd38
00000200: 665c 1239 02ff 9ab8 cc95 ba38 5738 4e39
00000210: b63a 20b9 d1ca 1539 e8f1 41b9 ce0a 17b9
00000220: 3247 bab8 84ae 3f38 cf1a 2fb9 3060 a737
00000230: 29d6 1839 91d5 3439 d6c3 14b9 3237 9a38
00000240: e83e 3338 57be 4bb9 31a7 3639 57b4 0db9
00000250: 1008 a037 f86a fbb7 5c9e f6b8 3192 4db9
00000260: f949 4db9 d895 2838 3020 9d37 42e1 9338
00000270: 1cce b13e d8e0 2ab8 febe 0fb9 845e 0938
00000280: 01a7 4f39 feef 0d39 ccb4 5d3f 58d4 06b9
00000290: 02dd c738 3873 5e38 d1e3 4fb9 893c 2e39
000002a0: f2d7 edb8 b864 43b8 206a 20b7 0a19 0739
000002b0: 8a85 50be 92cd f438 5061 99b7 80cb 2c36
000002c0: 9963 3d39 781d 0f38 b214 e138 42fd 8d38
000002d0: c0e9 e636 5847 0a38 4bf0 fbbc b071 f237
000002e0: 12b7 d038 10a8 f4b7 28b7 0bb8 d78b 2ab9
000002f0: 9046 b137 2883 0038 d183 50b9 f80a 99b7
00000300: 6816 ddb7 bede ea38 2e91 00b9 44b5 2eb9
00000310: 127d 81b8 0016 3935 fc4f f538 f97a 1539
00000320: 00fd d435 5f89 46b9 b802 d537 4039 fc36
00000330: a1c1 3239 d2bb f838 5caa a8b8 36b8 1339
00000340: fc9c a538 d68d 21b9 7875 73b8 9891 66b8
00000350: ecb9 8ab8 4909 1239 d8d0 2bb8 0052 8f34
00000360: 02a6 de38 a235 8c38 6d07 4839 d89d 2b38
00000370: 4006 a9b7 05d8 2e39 5c38 9f38 513d 4b39
00000380: 2a02 cd3e 023e bfb8 50ce f537 a1ac 3739
00000390: e0d5 2237 99ef 39b9 5706 27b9 3074 edb7
000003a0: d13e 24b9 2eda 0939 0494 7e38 9da8 31b9
000003b0: 2dc3 2bb9 5ef9 12b9 f8ab 3b38 7794 46b9
000003c0: a261 95b8 d58c 4439 607d 57b7 3c43 a238
000003d0: 42e9 b7b8 c9a7 1db9 a1b6 3539 f0b7 b4b7
000003e0: 6d5d 2ebd b8e3 f237 321d 9c38 78d9 2b38
000003f0: 022c beb8 993f 49b9 6c58 c338 124b 81b8
-5.675234e-05 -0.69790566 0.00016482301 -2.4096444e-05 -5.8835227e-05 0.00010960399 1.888584e-05 -0.00010564808
-5.7506695e-05 0.0001534633 4.468301e-05 0.13327336 0.000114007285 5.7989353e-05 -4.012973e-05 -0.00014158487
0.000113901464 0.08378472 -0.00019893933 -2.2311491e-05 2.6462978e-05 0.00010530799 2.7593836e-05 7.0597875e-05
-0.00013769184 0.00013889102 5.815862e-05 0.00014358202 -0.00017801866 0.0001822993 0.00016963489 8.071514e-05
-0.00016757906 -0.7354008 3.7424616e-07 -4.5258523e-05 8.949019e-05 8.7335604e-05 0.00016330993 0.2607074
6.501576e-05 -7.567633e-05 4.875766e-05 -2.5704416e-05 0.00013441962 0.00018639663 1.5269936e-05 0.96434546
-2.369596e-05 -0.00019991772 -0.000172758 -7.0890776e-05 -0.00016410982 -5.878028e-05 0.000106510444 0.00014464684
-4.412167e-05 3.1174714e-05 -2.4726469e-05 1.2014541e-05 -0.00012293416 -0.00010277181 -2.0794978e-06 5.9429527e-05
6.0045713e-05 -0.00016020479 4.3562817e-05 6.578266e-05 5.4468735e-05 0.000112462105 -0.00013329533 0.00014863975
-0.00014335962 -6.7837827e-06 0.00019251321 8.8028e-05 -1.0964257e-05 -0.00010432603 -0.00018308756 0.000104502906
-0.00018803118 -0.00018570265 0.00017507885 -1.745121e-05 -0.00010777092 -0.00018495087 -0.00019610162 -0.0001546814
0.39066878 0.00018532515 4.8684436e-05 3.9014238e-05 -0.00012686182 0.00022285404 4.361439e-05 -0.00017273573
-0.0001553282 0.00016813065 -0.00015897363 0.0001903636 -7.2505994e-05 -0.00018888201 -0.00018733933 -0.00019438764
5.2909614e-05 0.00020031084 9.528782e-05 -7.720056e-05 -0.00018260184 0.00012679838 0.00010717103 -0.00015852968
2.0621412 -4.727846e-05 1.633678e-05 6.93059e-05 -4.2664367e-05 -9.4591844e-05 -2.3617467e-06 9.7196564e-05
0.00018689789 0.00018432258 9.926414e-06 -0.00019061328 0.000107799744 -1.9090381e-05 -4.1650783e-06 9.81755e-05
0.00013958066 -7.390791e-05 8.897073e-05 0.00019666679 -0.0001528066 0.00014285302 -0.00018496031 -0.00014404507
-8.882432e-05 4.570048e-05 -0.00016699288 1.9952742e-05 0.0001457563 0.00017245697 -0.00014187334 7.353573e-05
4.273551e-05 -0.00019430496 0.00017419156 -0.0001351399 1.907724e-05 -2.9971343e-05 -0.00011759691 -0.00019604784
-0.0001957788 4.0193874e-05 1.8730847e-05 7.051464e-05 0.3472756 -4.074056e-05 -0.00013708693 3.275137e-05
0.00019803272 0.00013536212 0.86604 -0.0001285834 9.530225e-05 5.303623e-05 -0.00019825927 0.00016616484
-0.000113412636 -4.6585425e-05 -9.561452e-06 0.00012883931 -0.20363441 0.00011673117 -1.8284336e-05 2.574845e-06
0.00018061548 3.41213e-05 0.00010732691 6.770577e-05 6.8817462e-06 3.2968208e-05 -0.030754229 2.8901588e-05
9.9523124e-05 -2.9165327e-05 -3.331076e-05 -0.00016264558 2.1132902e-05 3.0639727e-05 -0.00019885531 -1.8244129e-05
-2.6355687e-05 0.000111994785 -0.00012261115 -0.0001666146 -6.1744955e-05 6.8949885e-07 0.000116974086 0.00014255558
1.5868864e-06 -0.00018933926 2.5392845e-05 7.51685e-06 0.00017047535 0.00011860546 -8.042596e-05 0.00014087636
7.897054e-05 -0.00015406994 -5.8045116e-05 -5.4971868e-05 -6.6149834e-05 0.00013927104 -4.0964078e-05 2.6695488e-07
0.00010616706 6.68571e-05 0.00019076253 4.091658e-05 -2.014928e-05 0.00016674407 7.5922086e-05 0.00019382431
0.40040714 -9.1191396e-05 2.9302348e-05 0.00017516549 9.705749e-06 -0.00017732232 -0.00015928723 -2.8306706e-05
-0.0001566366 0.00013146616 6.069617e-05 -0.00016942849 -0.0001638054 -0.00014016542 4.4744433e-05 -0.00018938059
-7.123059e-05 0.0001874448 -1.284419e-05 7.737285e-05 -8.769568e-05 -0.00015035192 0.0001732954 -2.1543325e-05
-0.042569567 2.8954688e-05 7.444098e-05 4.097211e-05 -9.068103e-05 -0.00019192546 9.3147944e-05 -6.165182e-05

bias f4 [5]
00000000: bfe6 20bf da8a 82c0 9831 5140 203b 36c0
00000010: 3932 15bf
-0.6285209 -4.0794497 3.268652 -2.8473587 -0.5827976

weight f4 [324, 5]
00000000: 586d 10b9 eefb cdb8 e800 14b8 bacd 7538
00000010: 8a2d 3939 8096 cbbf 5274 45bf 3ea8 9b3e
00000020: 7fc9 88bf 4374 b039 4c44 77b8 546e 8e39
00000030: 3436 8838 63b3 6339 ec10 35b8 705a a5b8
00000040: a3d1 b8be 98bf a03e fe0d 54be 0142 aebe
00000050: 34c2 6d3f e90d adbe 6144 ed3e 763e 15bf
00000060: a263 1cbe fcfa 2239 044d 62b8 bb67 20b9
00000070: 39e1 8c39 94d8 4b39 1809 83b7 6d3f 91be
00000080: e0e9 523e 6ddb 8cbe d00f d0be cc77 293e
00000090: c509 55be f809 9a3e 32f2 9bbe 3975 84be
000000a0: 0c5a abb8 b664 5339 fd3d 88b8 ae4d 5139
000000b0: 2276 ba38 9704 42b9 2307 89b8 0ad2 9bb8
000000c0: cc0e 2f38 667e 6739 60b4 0039 ec62 afb8
000000d0: 00f9 5d37 78ab 0737 c11e 8539 3713 28bf
000000e0: 15eb 73bf e876 d83e 7550 23bf 2f21 07bf
000000f0: 55e3 55b9 9a53 3439 8015 86b9 fafd 60b8
00000100: b7c6 5739 2aea 623f 0793 0dbe 86ad c23d
00000110: 9111 b6bd c4bd 30bf 4ad8 e0b8 e521 5a39
00000120: 059e 31b9 0b13 6239 d6e7 fbb8 e03a 5137
00000130: a025 4736 0016 d3b4 1496 7538 2b35 04b9
00000140: a873 f238 90d0 d9b8 f8c9 17b8 d8e4 21b8
00000150: d2f8 6339 792b 9fbf 7b76 4fbf d7c3 913e
00000160: 2ea8 4bbf 4378 efbe 3547 08b9 1527 8f38
00000170: 9419 04b9 30c3 5039 7676 1339 fbde 1d39
00000180: a02f 8f39 c85e 3eb9 39e0 5239 ac6d 39b8
00000190: ba7e 2939 4811 2637 dcef 0d38 fa0e 3439
000001a0: 5ed1 4f39 b013 de38 d9ab 4139 abc5 36b9
000001b0: a035 2239 1aff 7739 8ed6 643f 119c 8fbe
000001c0: 1694 123e 50e8 cebd 17a2 81be b0d8 e837
000001d0: b079 3639 c0be 3bb9 fa6e c038 b525 6739
000001e0: 4f5a 793f a224 12be a38f b73e 257d a0bd
000001f0: 970e a5be d235 de38 967e dbb8 fddf 00b9
00000200: 32c4 2938 50af 1938 825c 0939 7e9b 89b8
00000210: a081 65b6 9277 c0b8 9e66 17b9 e054 e537
00000220: a89f 64b8 cff6 ac38 54c9 64b8 6806 23b8
00000230: 2cd3 9638 9843 94b8 1cd7 40b9 544e d7b8
00000240: 80b5 efb7 d052 0e39 4208 2438 4f5b 66b9
00000250: 5cb4 a0b8 b4d9 0639 10b8 2939 2cae 8a39
00000260: 26ae 4eb9 d0db 39b7 0820 b7b8 be3d 90b8
00000270: b0e9 c238 2a63 82b9 2ada 1d38 5c93 4e38
00000280: e49d 6cb8 0c88 1d39 b8b3 81b9 dcb7 5f38
00000290: 0649 ee38 6de2 b5bf c2c2 efbd b35d b93e
000002a0: 7524 22be 1e78 aabe f2fb 0039 ec81 3639
000002b0: d862 ffb8 fc0c 8239 aeff 2339 72dc 2239
000002c0: 2fd2 8339 ccaf 68b8 76c2 1039 2172 03b9
000002d0: c091 1639 e0bf 2e36 a08c 8db9 56a8 1739
000002e0: 782c 6639 eea3 a838 d484 bbb8 abe7 dcb8
000002f0: 8470 1638 7b11 0d39 a856 1638 07f5 a738
00000300: 7404 c0b7 409a 1b39 807c 60b7 d35e 98bf
00000310: 569c 9bbf 375f d93e c143 7bbf 055f 80be
00000320: f6ea 99b8 b8aa 6338 e08d 8fb9 47ec 8839
00000330: 1b12 3a39 a7af 7e3f 26a8 bdbd 350c d03d
00000340: 9382 10be df54 9cbe 25e9 3239 bf86 bfb8
00000350: b86f a4b7 5e5e 4339 602a c4b6 d8fc bc38
00000360: 0c8b 6f38 cea5 8fb9 c00d 9936 60e6 a6b7
00000370: bc80 b2b8 f767 5239 2b0f 75b9 2c8f cdb7
00000380: 5838 deb8 6d58 19b9 a213 45b8 3edd 6bb9
00000390: d912 8f39 44fc 68b8 f82e a5b7 0030 dfb4
000003a0: 5035 2bb9 42a1 69b8 c8e0 8d37 61d4 11c0
000003b0: a0c7 83bf dee4 2d3e 7085 40bf 9b5b 91bd
000003c0: 60df b7b8 df5e 3439 3a70 a4b8 1688 5c39
000003d0: 96a8 a6b8 fa9a 3a39 f3b4 81b8 4d85 f038
000003e0: d077 3cb7 211e 16b9 f905 2db9 3023 a0b8
000003f0: dc0b 88b9 0ab8 6739 14b0 9c38 36b6 95b8
-0.00013773644 -9.822087e-05 -3.5286794e-05 5.860415e-05 0.0001765994 -1.5905304 -0.77130616 0.30401796
-1.0686492 0.00033655958 -5.8952995e-05 0.0002716655 6.4950815e-05 0.00021715234 -4.3169523e-05 -7.8846584e-05
-0.3609744 0.31396174 -0.20708463 -0.34034732 0.92874455 -0.33799675 0.4634123 -0.5829843
-0.15272382 0.00015543023 -5.3954325e-05 -0.00015297432 0.00026870685 0.0001944027 -1.5620652e-05 -0.28368703
0.20597029 -0.2751116 -0.40637064 0.16549605 -0.20804508 0.3008573 -0.30458218 -0.25870684
-8.170688e-05 0.00020160046 -6.4965316e-05 0.00019960731 8.891175e-05 -0.00018502992 -6.5339984e-05 -7.430099e-05
4.1737032e-05 0.00022076964 0.00012274226 -8.363076e-05 1.3230601e-05 8.08655e-06 0.0002539065 -0.6565432
-0.9528058 0.42278218 -0.6379464 -0.5278501 -0.0002039795 0.00017197282 -0.0002557449 -5.3642296e-05
0.00020578025 0.88638556 -0.13825618 0.09505753 -0.08890069 -0.6903956 -0.00010721439 0.00020802727
-0.00016938902 0.00021560134 -0.000120117955 1.2471079e-05 2.9675211e-06 -3.931782e-07 5.8552323e-05 -0.00012608308
0.00011561002 -0.00010386214 -3.6189304e-05 -3.859852e-05 0.000217411 -1.2435142 -0.8104016 0.28469726
-0.79553497 -0.4677144 -0.00012996497 6.826051e-05 -0.0001259803 0.00019909139 0.00014063143 0.00015055753
0.0002731057 -0.00018155121 0.0002011069 -4.4209577e-05 0.00016164305 9.898395e-06 3.3840406e-05 0.00017171717
0.00019819054 0.00010589452 0.00018469933 -0.0001743051 0.00015469501 0.00023650788 0.89389884 -0.28048757
0.14314303 -0.10102904 -0.25318977 2.7757458e-05 0.00017402205 -0.0001790477 9.1759444e-05 0.00022043924
0.97403425 -0.14271787 0.35851774 -0.078363694 -0.32237694 0.0001059581 -0.00010466312 -0.00012290473
4.047546e-05 3.6641315e-05 0.000130998 -6.561632e-05 -3.419911e-06 -9.177545e-05 -0.0001443871 2.733845e-05
-5.4508128e-05 8.247571e-05 -5.4546937e-05 -3.8868195e-05 7.191891e-05 -7.06978e-05 -0.00018390681 -0.00010266589
-2.8575538e-05 0.00013573025 3.9108338e-05 -0.00021968524 -7.662989e-05 0.00012860337 0.00016185665 0.0002645118
-0.00019710566 -1.1078038e-05 -8.732086e-05 -6.8779555e-05 9.2941686e-05 -0.00024869415 3.7634898e-05 4.9251466e-05
-5.641383e-05 0.00015023368 -0.00024738698 5.3338576e-05 0.00011362326 -1.4209725 -0.11707069 0.362043
-0.1583422 -0.33294767 0.00012300888 0.00017405272 -0.000121777586 0.00024805206 0.0001564014 0.00015531646
0.00025142866 -5.5476834e-05 0.00013805353 -0.0001253565 0.00014359411 2.6039706e-06 -0.0002699839 0.00014463192
0.00021951075 8.0413985e-05 -8.941596e-05 -0.00010533569 3.5867575e-05 0.0001345332 3.584349e-05 8.0088204e-05
-2.2890257e-05 0.00014839415 -1.3380428e-05 -1.1903938 -1.2157085 0.42455456 -0.9815026 -0.25072494
-7.3393734e-05 5.428001e-05 -0.0002738079 0.00026115982 0.00017745087 0.99486774 -0.092605874 0.10158578
-0.1411231 -0.30533502 0.00017062256 -9.132688e-05 -1.9602347e-05 0.00018631804 -5.8461883e-06 9.0116344e-05
5.7111538e-05 -0.0002739862 4.561356e-06 -1.9896019e-05 -8.51168e-05 0.0002006589 -0.00023370671 -2.4504574e-05
-0.0001059628 -0.00014624158 -4.6986745e-05 -0.00022493766 0.00027289128 -5.554805e-05 -1.9691404e-05 -4.1571911e-07
-0.00016327691 -5.5701712e-05 1.6913182e-05 -2.2785876 -1.0295296 0.16981837 -0.7520361 -0.070975505
-8.767727e-05 0.0001720148 -7.841033e-05 0.00021031531 -7.9468984e-05 0.00017796076 -6.184904e-05 0.00011468921
-1.1233569e-05 -0.00014316339 -0.0001650079 -7.635949e-05 -0.00025948777 0.00022098437 7.471457e-05 -7.138813e-05

bias f4 [324]
00000000: 20c0 4637 b908 bf3f 0ab5 e4b8 0bf2 593e
00000010: a862 d03e 8226 1ab9 215b 913e 8994 4e3e
00000020: 588a aab7 e4ab 97b8 f36d 52b9 9632 983f
00000030: 8aaa cdb8 3e58 2b3e 4087 91b6 804b 5435
00000040: f495 65b9 3f31 be3e 2c9f 10b8 ab86 b538
00000050: f640 4eb9 312f 82b9 12df 983e fbea 87b9
00000060: b83b 163e 37d8 08b9 b0a2 7eb7 3017 95b6
00000070: d0f8 4f38 881c f7b8 e74b 35b9 de8c 58b9
00000080: 977a c938 9294 e13d b8b4 ef38 0651 4b38
00000090: 04f2 93b9 a0bf 27b6 5079 8b36 1437 8c3f
000000a0: 3d38 deb8 62f3 c03e 8c1b 1b38 24c1 48b9
000000b0: 10e9 34b9 f2be f3b8 d639 8038 9498 2340
000000c0: 5126 3eb9 44fe 36b8 00e8 2537 9067 813e
000000d0: 7917 013f af25 d6b8 e0a1 ce36 f6a3 d3b8
000000e0: 92e5 3738 4ced bb37 ce63 7338 cb28 55b9
000000f0: 107e 4e3f 1b2c e338 d641 1ab9 5054 9037
00000100: b6b1 5bb9 6051 3db7 ec2e 12b9 4ea4 9db8
00000110: 6bc7 563e f86d 64b9 7004 3437 7bf7 813e
00000120: c838 17b8 1808 ae37 4e75 ebb8 cae1 d738
00000130: dcd2 1eb8 9c62 0138 a62d 8bb9 1f5c 9d3d
00000140: fa40 713e 906b bf3e 4d79 0cb9 a8ba 633e
00000150: 809e bfb8 ae0e 9638 90d9 5eb8 00c7 7d38
00000160: df8d 9a3f dc51 7cb8 5061 94b6 d858 11b7
00000170: 38b4 2db7 3326 e33e 70a2 3b37 19f4 9ab8
00000180: f62a 9738 bbbc b93e e848 7bb9 03a1 c638
00000190: 3cdd 42b9 5140 9d38 c477 a037 3022 dfb8
000001a0: d210 84b9 d82b 813e 7c12 883e ee2b cf3e
000001b0: 6cb0 58b8 f476 c9b8 5816 58b8 666b 93b9
000001c0: e8a3 3b40 adb2 a03e 35f0 2eb9 a247 45b9
000001d0: 14b2 403e d018 c9b7 adcb 15b9 3c7a 22b9
000001e0: c0a7 f9b8 d0cc 61b8 72a4 5d3e 1d49 3ab9
000001f0: 3ff7 5cb9 98d9 c4b8 0ccf 4fb9 8437 41b8
00000200: 3bc8 d9b8 3178 11b9 5150 153e a8c4 36b8
00000210: e158 9db8 8668 85b9 f6bb 253e eb65 703e
00000220: 1c50 c237 c36d 023e b289 3ab8 7195 373e
00000230: 0cbd 89b8 dc8e 80b8 0c4d 43b8 f06b 06b9
00000240: 1011 8e3e d6b5 cab8 005e 21b8 3a4e 6eb9
00000250: f870 51b8 85b0 dab8 cd30 ed38 00b3 7bb9
00000260: 177c 593f 1b23 4f3e bdd0 ea3d 8072 b635
00000270: ba32 943e 85df b73d 5866 57b9 0cfd 51b8
00000280: 44ea 7f3e 7e4b 633e 6e77 a03f 2edf 0a3f
00000290: b46c 07b9 53f8 46b9 845d 64b9 15cf 973e
000002a0: d20d f2b8 97d6 34b9 028e 543e 4340 8c3f
000002b0: bf6f f93f 8246 69b9 c0e4 9238 80e7 e438
000002c0: dc34 2c38 550c 6ab9 b18a 81b9 24e9 ac3e
000002d0: c0ac 133e 0244 02b9 f396 9b3e 4272 f0b8
000002e0: 5d8a cc38 1fc3 653e 1b5a 8ab9 7b9c 96b8
000002f0: 4363 b638 50b3 c1b7 8683 7eb9 90ff c0b6
00000300: a818 4c3e 4635 7238 5035 8bb9 2f03 a53f
00000310: f664 62b9 c103 203f 7dbe ca3d 6eec e4b8
00000320: 1c12 e138 b60b 1db9 ae54 28b8 bafa 32b9
00000330: 5c9e 53b8 8daa cfb8 6a57 30b9 7f59 783e
00000340: 1841 a338 1def f0b8 e4a4 cab8 0650 8338
00000350: 1008 703e 6611 e138 64ea 27b9 240c 90b9
00000360: c075 34b6 e343 373e 8c4a 4d3e 8c58 07b9
00000370: 3fc9 e43e 64cf 33b9 dcd3 c7b8 36c9 f2b8
00000380: a30e 1d40 de5f fc3d d817 2837 0f62 8538
00000390: b85b 023e 516a d63d b76e bbb8 bab0 88b9
000003a0: 5a32 dcb8 984c e33e 3324 9338 c191 84b9
000003b0: cbe9 b0b8 7518 ef38 48f8 40b9 c06c beb7
000003c0: 209a 3db9 769a 4938 6659 0eb9 e269 b5b8
000003d0: d0e0 28b9 88b6 a538 a4e6 8bb9 21aa c43e
000003e0: b48f f93f 957e 673f a4c1 8db9 ccde 8d38
000003f0: 488a 93b9 d073 1cb9 201b b4b7 0a94 8ab9
1.1846452e-05 1.4924537 -0.00010905608 0.21283738 0.4070027 -0.0001470093 0.28389838 0.20173849
-2.033e-05 -7.232258e-05 -0.0002006812 1.1890438 -9.806927e-05 0.1673288 -4.337082e-06 7.908602e-07
-0.00021895004 0.37146947 -3.4480516e-05 8.6558364e-05 -0.00019669891 -0.00024830693 0.2985769 -0.0002592428
0.14671218 -0.00013050517 -1.5177458e-05 -4.4432454e-06 4.958437e-05 -0.00011783192 -0.00017289781 -0.00020651842
9.607261e-05 0.11014666 0.000114300696 4.847443e-05 -0.0002821834 -2.499648e-06 4.1566454e-06 1.0954309
-0.0001059626 0.37685686 3.6980535e-05 -0.00019145437 -0.0001725296 -0.00011622709 6.1142884e-05 2.5561876
-0.00018134086 -4.3628985e-05 9.888783e-06 0.25274324 0.5042644 -0.00010211334 6.158123e-06 -0.00010091804
4.3844404e-05 2.2402637e-05 5.8028665e-05 -0.0002032846 0.80661106 0.00010832419 -0.0001471111 1.7205399e-05
-0.0002095167 -1.12842245e-05 -0.00013941125 -7.5169475e-05 0.2097451 -0.00021784741 1.0729869e-05 0.25384125
-3.6054087e-05 2.0746185e-05 -0.00011227523 0.000102940554 -3.7866514e-05 3.0847834e-05 -0.00026546157 0.07683586
0.23559943 0.3738675 -0.00013396628 0.22239172 -9.137113e-05 7.155292e-05 -5.3131545e-05 6.0505234e-05
1.2074546 -6.015772e-05 -4.4220724e-06 -8.663359e-06 -1.0353564e-05 0.4436508 1.1183889e-05 -7.388759e-05
7.208243e-05 0.36276802 -0.00023964385 9.4713665e-05 -0.00018583698 7.498323e-05 1.9129257e-05 -0.000106398365
-0.00025189534 0.25228763 0.26576602 0.40463203 -5.166272e-05 -9.6065836e-05 -5.1519222e-05 -0.00028118043
2.931879 0.3138632 -0.00016683417 -0.0001881407 0.18817931 -2.3972621e-05 -0.00014285622 -0.0001549506
-0.00011904491 -5.3834927e-05 0.21644762 -0.00017765579 -0.00021072941 -9.386538e-05 -0.0001981819 -4.606649e-05
-0.00010384662 -0.00013873052 0.1458142 -4.357533e-05 -7.5028984e-05 -0.00025445613 0.16184983 0.23476379
2.3163906e-05 0.12737183 -4.4474094e-05 0.17928101 -6.567882e-05 -6.130125e-05 -4.656338e-05 -0.00012819446
0.27747393 -9.66598e-05 -3.8472936e-05 -0.0002272659 -4.9934693e-05 -0.000104279294 0.000113101305 -0.00024003908
0.8495497 0.20228235 0.11465595 1.3593381e-06 0.2894495 0.0897818 -0.00020542124 -5.006515e-05
0.24991709 0.22196767 1.2536447 0.54246795 -0.00012915098 -0.0001897526 -0.00021778612 0.2965018
-0.000115420335 -0.00017246079 0.20757297 1.0957111 1.9487227 -0.00022246878 7.0044305e-05 0.000109150074
4.1057225e-05 -0.00022320573 -0.0002470813 0.33771622 0.14421368 -0.00012423101 0.30388603 -0.00011465374
9.75325e-05 0.22437714 -0.00026388545 -7.181704e-05 8.696925e-05 -2.3090892e-05 -0.00024272324 -5.7517973e-06
0.1993128 5.774691e-05 -0.00026551867 1.2891597 -0.0002159065 0.6250573 0.09899614 -0.00010915926
0.00010732209 -0.0001497705 -4.0133185e-05 -0.00017068806 -5.0453804e-05 -9.902297e-05 -0.00016817232 0.2425289
7.78457e-05 -0.0001148863 -9.662824e-05 6.261472e-05 0.23440576 0.00010732077 -0.00016013678 -0.00027474866
-2.689063e-06 0.1789699 0.20047969 -0.0001290759 0.4468479 -0.0001714803 -9.528521e-05 -0.00011576938
2.4540184 0.12322973 1.0019132e-05 6.360199e-05 0.127303 0.10469497 -8.937477e-05 -0.00026071613
-0.00010499796 0.44394374 7.016249e-05 -0.00025285597 -8.435881e-05 0.000114009636 -0.00018403039 -2.2700406e-05
-0.0001808186 4.8065987e-05 -0.00013575479 -8.650475e-05 -0.00016105478 7.901812e-05 -0.00026683987 0.38411048
1.949698 0.90427524 -0.0002703789 6.764903e-05 -0.00028141052 -0.00014920463 -2.1470303e-05 -0.0002643171
