RECAP_clustering_breast_cancer/results_trainings/K_3/cluster_3/training_results/cluster_2_model.pt (torch, 18767 bytes, 4 tensors)

weight f4 [5, 379]
00000000: d1dd 0539 0194 1d39 079b 103f cf67 48b9
00000010: 117c 1239 da73 b2b8 c759 8439 7cdb 4038
00000020: 3c25 9eb8 f4a1 de38 b076 b7b7 005a 6337
00000030: 52e9 703f 39d8 b0b8 cc07 963e 6029 d336
00000040: 88c7 fe38 e0ad 1737 6beb 413e df75 0a39
00000050: 446a 00b8 c04b 92b6 b8a3 9c37 ea9b 9638
00000060: 5881 1938 b386 4739 c970 51b9 c2e2 9a38
00000070: 7c9c b3b8 e6d5 06b9 c8a5 1539 81fd 0739
00000080: 247e b0b8 d8fe 9738 8068 1e36 8a1d 7f3f
00000090: 9172 08b9 f952 3cb9 8c0c 5a38 ece6 3e39
000000a0: 241a 2838 84ed 13b8 822c 5639 6aa3 b738
000000b0: e800 cab7 5266 eab8 a83b 50b9 e42b 3a38
000000c0: 30c0 c8b7 8867 b237 528d 8638 6510 813f
000000d0: 5414 72b8 a8cc 0038 506e c037 ebb8 01b9
000000e0: 90be fc37 f0e7 1fb7 40d8 afb6 a1e7 29b9
000000f0: 22c3 6139 7916 5339 a338 3a39 5df6 45b9
00000100: 20a0 6337 aca9 f338 c58f 0fb9 2021 fbb7
00000110: c9c9 4639 5425 45b8 6c46 b038 1a51 9338
00000120: 2483 c83c 32a9 e1b8 aa8c a138 7079 0239
00000130: 20f1 94b8 aaa1 e6b8 6834 eeb7 bcc2 18b8
00000140: 2c56 0eb8 40ee 5139 84bc 0c38 d90c 00b9
00000150: fadc bb38 d6f8 2239 5ede 1a39 40e5 a138
00000160: 8e5c 4f39 c839 df38 d74c 3639 6669 1d39
00000170: 2825 2b38 b860 0738 01ac 5039 5689 4e39
00000180: 1834 1c38 ab2e 9d3f 8048 e0b6 a182 2a39
00000190: 0b47 31b9 30ab df37 f0fe c1b7 be0b a139
000001a0: ccec b4b8 6c32 b938 c904 3c39 7875 6d38
000001b0: 243c 2b39 35a7 65b9 c56f 733e f0d1 3837
000001c0: 1069 cbb8 9cc8 78b8 1309 3939 7e86 2439
000001d0: cb95 d0b8 e96d 36b9 8218 c738 01f2 30b9
000001e0: 2064 e538 c098 8537 649d 7f38 39ad bb3f
000001f0: 8da2 6639 700e b9b7 a8c2 45b8 e2c4 aa38
00000200: b0d6 2ab7 56ac 06b9 6915 4f39 104c d0b7
00000210: fd5b 3639 d888 70b8 14b4 7d39 9cc5 9638
00000220: 5cd9 6c38 0cc6 9bb8 2f5a 8b39 5c50 e1b8
00000230: 3203 8038 cedb 8738 38e7 3438 31e1 48b9
00000240: 5282 c938 aa51 0a39 0cfa 91b8 e5bc 2639
00000250: de66 e9b8 84c2 2f38 00f6 cdb5 021f b038
00000260: 57f0 0339 cd0f a939 3d7f 8339 4273 8c38
00000270: c96b 2eb9 8035 8cb7 82fe 34b9 c8fc 1038
00000280: 22ee 17b9 3528 0139 9ca9 ee38 c693 b7b8
00000290: d73f 6bb9 7517 3e39 0c67 7638 06e9 1a39
000002a0: 9907 3a39 4c28 1d39 d973 5239 821d 1739
000002b0: d60d 1639 7221 d438 80e4 95b6 08c7 8fb8
000002c0: 00c1 ccb7 35ae 143f 17a8 6139 1098 acb7
000002d0: b860 5238 f28f 8b38 b540 3d39 cf0d 4139
000002e0: b84f b9b7 605d 2237 41d6 0d3f e013 7b39
000002f0: 70f1 1ab9 4c1f 7ab8 fce1 d438 1012 1fb8
00000300: c25a aa38 3528 0a39 d435 6ab8 08b5 8a37
00000310: 8963 3e39 bd20 cb38 5692 6339 d65e 1e39
00000320: 0b51 52b9 bd5f 1d39 b67e 9d38 db1a 2939
00000330: 8423 c937 fd1d 49b9 e9e0 37b9 4df0 0c39
00000340: 1309 4739 b4cc 5a38 04c2 bfb8 92f6 3b39
00000350: 83d1 2d39 ae9c df38 069c 19b9 4ade 50b8
00000360: 62e1 dfb8 c9c9 03b9 36af df3e 506a e0b7
00000370: bf59 48b9 9bc6 15b9 861a 4739 4c1d 84b9
00000380: a48c 7b38 6ab6 dfb8 a720 4e39 d0c3 4539
00000390: fd73 4fb9 2d96 2739 6832 34b9 0c3e ff38
000003a0: a2a5 5439 d0ae cc38 9dd3 30b9 10d6 1c38
000003b0: 1d4f 6c3d 3c4b a438 5811 8e37 387b 80b8
000003c0: 126f ccb8 5d39 6239 3665 0939 5088 19b7
000003d0: 9ccb ecb8 d47d 1ab9 ed4b 8539 e501 30b9
000003e0: eed8 93b8 93cc 5039 5027 6f38 0800 2db9
000003f0: cc96 c738 92a3 9b38 213b 1239 00eb d7b5
0.00012766501 0.00015027823 0.5648655 -0.00019112158 0.00013969863 -8.5092805e-05 0.0002524389 4.5980778e-05
-7.5409625e-05 0.00010615951 -2.1870568e-05 1.3551209e-05 0.9410602 -8.4326086e-05 0.29302824 6.2931067e-06
0.000121488294 9.040785e-06 0.18937461 0.00013204616 -3.0616546e-05 -4.3599575e-06 1.8672887e-05 7.1815986e-05
3.6598503e-05 0.00019028298 -0.00019973809 7.385529e-05 -8.5645326e-05 -0.00012858919 0.00014271506 0.00012969041
-8.4158295e-05 7.2477094e-05 2.3604662e-06 0.9965445 -0.0001301265 -0.00017959987 5.1986935e-05 0.00018205837
4.0078667e-05 -3.5268735e-05 0.00020425211 8.756558e-05 -2.4080698e-05 -0.00011177048 -0.0001985865 4.4386732e-05
-2.3931352e-05 2.1267464e-05 6.415941e-05 1.0083128 -5.771623e-05 3.070818e-05 2.2939552e-05 -0.00012371286
3.0129479e-05 -9.531141e-06 -5.2405812e-06 -0.00016203384 0.00021530365 0.000201309 0.00017759441 -0.00018879162
1.3567536e-05 0.00011618747 -0.00013691101 -2.9936957e-05 0.00018957922 -4.7003225e-05 8.405451e-05 7.0246126e-05
0.024476595 -0.00010760351 7.703279e-05 0.00012443005 -7.102103e-05 -0.00010997367 -2.8396214e-05 -3.6420985e-05
-3.3935692e-05 0.00020020548 3.355417e-05 -0.00012211817 8.958015e-05 0.00015542223 0.00014769423 7.7197794e-05
0.00019775538 0.00010644231 0.00017385498 0.00015011951 4.080418e-05 3.2276585e-05 0.00019900502 0.00019696853
3.7241814e-05 1.2279867 -6.6841603e-06 0.00016261126 -0.00016906501 2.6663387e-05 -2.3126107e-05 0.00030717062
-8.627176e-05 8.830879e-05 0.0001793086 5.6614605e-05 0.00016330235 -0.00021901431 0.23773105 1.10161345e-05
-9.699364e-05 -5.931464e-05 0.00017646355 0.00015690361 -9.946114e-05 -0.00017397817 9.4936244e-05 -0.00016874821
0.00010938221 1.5925965e-05 6.094332e-05 1.4662238 0.00021995064 -2.2060442e-05 -4.7149748e-05 8.142904e-05
-1.0182775e-05 -0.00012843436 0.00019749034 -2.4830952e-05 0.00017391141 -5.7347905e-05 0.00024195045 7.189365e-05
5.6469216e-05 -7.427865e-05 0.00026579338 -0.00010743804 6.104111e-05 6.4782434e-05 4.3130683e-05 -0.00019157377
9.608701e-05 0.00013191128 -6.960714e-05 0.00015901362 -0.00011129466 4.1904408e-05 -1.5345286e-06 8.39811e-05
0.00012582667 0.00032245964 0.00025081067 6.697189e-05 -0.00016634086 -1.6714213e-05 -0.00017260949 3.4567696e-05
-0.00014489194 0.00012317377 0.000113803166 -8.753645e-05 -0.00022435129 0.0001812855 5.874694e-05 0.00014773392
0.00017741173 0.00014987699 0.00020070317 0.00014411475 0.00014310269 0.000101151774 -4.467147e-06 -6.855844e-05
-2.4408568e-05 0.5807832 0.0002152029 -2.0574807e-05 5.0157978e-05 6.6548484e-05 0.0001804855 0.00018411058
-2.209084e-05 9.677693e-06 0.5540505 0.0002394463 -0.00014776527 -5.9633792e-05 0.000101510406 -3.7925376e-05
8.123137e-05 0.00013175684 -5.584008e-05 1.6535181e-05 0.00018156892 9.685892e-05 0.00021702921 0.00015103383
-0.00020057352 0.00015008352 7.509945e-05 0.000161271 2.3977605e-05 -0.00019180025 -0.00017536026 0.0001344096
0.000189815 5.2165895e-05 -9.143728e-05 0.00017925564 0.00016576615 0.000106626525 -0.0001464934 -4.9798087e-05
-0.000106754494 -0.00012568304 0.43688363 -2.6752386e-05 -0.0001910692 -0.00014283734 0.00018988 -0.0002519883
5.9974045e-05 -0.00010667446 0.00019657855 0.0001886033 -0.00019784267 0.00015982306 -0.00017184915 0.00012170905
0.00020279599 9.7600394e-05 -0.000168635 3.739266e-05 0.057692636 7.834143e-05 1.6935795e-05 -6.126467e-05
-9.7481665e-05 0.00021574409 0.00013103042 -9.151248e-06 -0.00011291282 -0.00014733459 0.00025424306 -0.00016785374
-7.0499125e-05 0.00019912636 5.7018653e-05 -0.00016498577 9.5171476e-05 7.421443e-05 0.00013945672 -1.6087142e-06

bias f4 [5]
00000000: 0e1f 023f 727e 1840 1b12 09bf a66d e33e
00000010: e05b 28c0
0.50828636 2.3827176 -0.5354325 0.44419593 -2.6306076

weight f4 [359, 5]
00000000: 8a04 1eb9 f655 95b8 53fb 1839 3652 e5b8
00000010: 7849 1138 3f9b a139 08ff 77b8 ba76 aeb8
00000020: 3064 f438 0795 19b9 60b3 acb6 add9 4c3e
00000030: 4519 15c0 403f 463f 02c3 80bd c0f9 63b7
00000040: 7b60 4bb9 b0ca 3f38 4607 21b9 84e2 943d
00000050: 1050 7c37 006c d9b4 7903 0db9 58c4 e2b8
00000060: 9b28 4139 a0c6 6d36 f084 ed3d be24 1d39
00000070: 807c 35b6 ee07 81be ea0e e23e c132 8138
00000080: b21a 88b9 fa1f e7be a28e 8eb9 0d47 fabd
00000090: df3d 4a39 9430 bd38 58c8 7939 b602 a838
000000a0: 1a0c e738 decf 133e 4abe 34b9 9a79 0038
000000b0: ea90 91be f8b0 83be a35d c93e 7a4f 0339
000000c0: d055 6ab7 443d aebc 92d4 5e39 36d0 79b9
000000d0: 682a e3b8 bc9e d138 32a7 3639 4ed2 d0b8
000000e0: ccd6 1438 82ea 9cb8 9441 1db9 53fc 0039
000000f0: 8a67 8039 49a4 283f 1604 1938 9326 973f
00000100: 7403 39bf 0690 2938 d23b d93d e2e4 f738
00000110: 6fe5 2239 6710 35be a309 3438 b612 263f
00000120: cced dab8 4ffd 683e 9402 d2bd 4816 bc37
00000130: f8e4 80b9 72bd 1139 0cb0 56b9 ad22 4839
00000140: a853 95b8 b49b 9eb8 46f5 ffb8 5052 e037
00000150: 5ab0 69b9 9416 10b8 1a5f 96b8 50b7 d2b6
00000160: c071 6637 0037 1bb5 dd3f 43b9 7a22 3f3f
00000170: 71b9 87bf ed1b fc3e 1e26 f4be a65a 75b8
00000180: acc2 8539 013e bfb8 4c2a 2938 359c 0cb9
00000190: 663f 4eb9 1bde 033c 488b 0b37 fc6c 9537
000001a0: 87ce 0ebc 9838 f437 bc7c 76b9 26cf 8438
000001b0: 1e3a 8b38 3622 8239 e510 3239 d916 053c
000001c0: 10f1 02b7 0481 c938 beb0 77bc 6ed3 5f38
000001d0: 3ade 32b9 8911 8ab9 30e2 2538 70ec 51b7
000001e0: 60c1 2d39 a8a5 62b9 a0e6 f037 806f ecb6
000001f0: e2cc f838 c29d a3bd 685b c538 fc16 dd38
00000200: 4ed2 83b8 808e 34b8 323d 3439 b860 98b8
00000210: 1058 eb37 1032 5bb9 a833 e8b6 bc79 1838
00000220: d0f2 c3b8 4bed 0639 e14a 4b39 0de5 7e39
00000230: 6214 9138 29b0 10b9 98b7 4839 97e1 1739
00000240: 6432 6cb8 952f 4239 f010 b9b7 2c51 70b8
00000250: 989f ebb7 c60e a438 a922 c9bd e2d5 1739
00000260: 9a21 4cb9 3453 05b9 ef52 8eb9 5c5b 3d39
00000270: 678d 2cb9 289c 3e39 4066 f9b6 8658 9839
00000280: 4847 2bb9 de10 0739 d45e 40b8 0056 8736
00000290: 9e44 ac38 042e 4f39 0a94 bf38 6cf0 8b38
000002a0: caac 29b9 f0a9 7738 0831 23b7 e8e8 9338
000002b0: 55f7 1539 d20c 07b9 5e7f 4239 80ae 66b6
000002c0: 42fb 6c3e 6219 65bf f58a 3339 4dc5 0bbf
000002d0: 9b8b e5bd 5a5b d6b8 828e 92b8 785d bfb7
000002e0: 646d cbb8 5832 1eb9 2a90 c3b7 04c0 3b39
000002f0: d6f5 abb8 388f 5d39 e759 04b9 3881 bb39
00000300: 18c6 32b9 26f9 8838 d0e4 89b7 70fa 16b7
00000310: 7090 1937 7dad 0539 c00e 20b7 5c09 a2b8
00000320: 6e6f c6b8 f29d 34b9 4c86 9d38 6018 a0b8
00000330: 569a 4a3d 4f16 b0bf d277 f83e 0c8c edbc
00000340: 6a71 32b9 9304 3abf d88a 0537 98d0 d538
00000350: 709f 2cb7 ac6b 8b38 c5fc 3939 d62a 43b8
00000360: e00c 66b7 682f 9537 606d 2db7 e810 5138
00000370: 44f6 4ab9 bcdc edb8 4a4c 9838 c013 42b8
00000380: b087 24b7 40a9 6d36 8fd2 a1b9 f610 4b39
00000390: 986b 9937 5fd1 bd39 f2a2 d7b8 ccb2 df38
000003a0: 4c83 4639 9e63 3c39 7a15 ee38 b05a 4a37
000003b0: f4bf a1b9 fa36 e5b8 40fc ceb6 408b 9339
000003c0: 7832 ffb8 6f7f 97b9 1891 9538 60ae 2eb7
000003d0: 027f 8439 0023 84b7 c0b0 7cb7 963c 5bb9
000003e0: a682 d338 39ba 5439 c8e3 69b8 6517 05b9
000003f0: 5808 7ab8 6e3a 3739 4c2e 2f38 9d96 0fbf
-0.00015069745 -7.120885e-05 0.00014589475 -0.00010934884 3.4639117e-05 0.0003082398 -5.9126905e-05 -8.319081e-05
0.00011653488 -0.00014646734 -5.1468814e-06 0.20004912 -2.3296673 0.7744026 -0.06287195 -1.3588404e-05
-0.0001939553 4.5726716e-05 -0.00015356866 0.07269767 1.50390115e-05 -4.049798e-07 -0.00013448102 -0.00010813092
0.00018421041 3.5431367e-06 0.115976214 0.00014986374 -2.704357e-06 -0.25201362 0.44152004 6.160653e-05
-0.0002595983 -0.45141584 -0.0002719062 -0.12220583 0.0001928727 9.021271e-05 0.00023821124 8.011369e-05
0.000110171924 0.14434764 -0.00017237026 3.063083e-05 -0.28430873 -0.25720954 0.39329252 0.00012522741
-1.3967467e-05 -0.021269448 0.00021250758 -0.00023824055 -0.00010832102 9.995463e-05 0.00017419158 -9.957385e-05
3.5485995e-05 -7.48234e-05 -0.00014997117 0.0001230103 0.00024491205 0.6587568 3.6481848e-05 1.1808647
-0.72270894 4.0426872e-05 0.10607113 0.000118205106 0.00015534995 -0.17682038 4.292432e-05 0.648723
-0.00010439343 0.2275288 -0.10254398 2.2421722e-05 -0.00024584658 0.00013898851 -0.00020474213 0.00019086404
-7.120456e-05 -7.563029e-05 -0.00012205033 2.674121e-05 -0.00022286308 -3.4353303e-05 -7.1702714e-05 -6.279828e-06
1.3735553e-05 -5.7822035e-07 -0.0001862044 0.7466198 -1.0603467 0.49240056 -0.4768533 -5.8496975e-05
0.0002551278 -9.119139e-05 4.0332132e-05 -0.00013409632 -0.00019669309 0.00804856 8.317475e-06 1.7812934e-05
-0.008716232 2.911342e-05 -0.00023506855 6.332835e-05 6.638862e-05 0.0002482102 0.00016981697 0.008123123
-7.804731e-06 9.608458e-05 -0.015117822 5.3364252e-05 -0.00017058189 -0.00026334476 3.954972e-05 -1.2512421e-05
0.00016570603 -0.00021614751 2.8717623e-05 -7.0463284e-06 0.00011863724 -0.07989074 9.410718e-05 0.000105423824
-6.285739e-05 -4.3048058e-05 0.00017188935 -7.26594e-05 2.805519e-05 -0.00020904117 -6.9201524e-06 3.6352998e-05
-9.343552e-05 0.00012867634 0.00019387483 0.00024308656 6.9179354e-05 -0.00013798535 0.0001914188 0.00014484521
-5.6313715e-05 0.00018519007 -2.2061606e-05 -5.7296056e-05 -2.80885e-05 7.822881e-05 -0.09821064 0.0001448016
-0.00019467474 -0.00012714864 -0.0002714614 0.00018058479 -0.00016455875 0.00018177985 -7.4326817e-06 0.00029057654
-0.00016334385 0.00012880887 -4.5864683e-05 4.0333252e-06 8.21438e-05 0.000197582 9.135164e-05 6.6728186e-05
-0.00016181465 5.9047656e-05 -9.726973e-06 7.0528884e-05 0.00014301886 -0.00012879379 0.0001854873 -3.4374243e-06
0.23142722 -0.89491856 0.00017122536 -0.5459793 -0.11208268 -0.00010221331 -6.988367e-05 -2.2812499e-05
-9.70017e-05 -0.00015086809 -2.3312943e-05 0.00017905241 -8.199706e-05 0.00021129556 -0.00012621992 0.00035763695
-0.00017049199 6.531393e-05 -1.6438222e-05 -8.999006e-06 9.15314e-06 0.00012748498 -9.540177e-06 -7.726505e-05
-9.462131e-05 -0.00017224977 7.511358e-05 -7.633935e-05 0.049463592 -1.3756808 0.48528916 -0.028997444
-0.00017017653 -0.7266323 7.959745e-06 0.00010195485 -1.0289121e-05 6.648092e-05 0.00017737139 -4.6531517e-05
-1.3712066e-05 1.778426e-05 -1.0337069e-05 4.984523e-05 -0.00019355962 -0.000113421556 7.262135e-05 -4.6271598e-05
-9.806754e-06 3.5414268e-06 -0.0003086519 0.00019365907 1.8289124e-05 0.00036204883 -0.0001028235 0.00010666772
0.00018931663 0.00017966187 0.00011352725 1.2061253e-05 -0.0003085133 -0.00010929811 -6.168644e-06 0.00028141774
-0.00012168748 -0.0002889591 7.1318995e-05 -1.0411808e-05 0.0002527163 -1.5751924e-05 -1.5061523e-05 -0.00020908038
0.00010085599 0.00020287269 -5.5763667e-05 -0.00012692584 -5.9612415e-05 0.00017474007 4.176637e-05 -0.5608919

bias f4 [359]
00000000: 4a12 10b9 fc0d 31b8 f6a2 923f c0fe b6b9
00000010: f02d e6b6 f53c 533e df1e c9b8 b5ee 8439
00000020: 4dbf fb3e d9e7 fc3d 50f6 23b9 5691 d538
00000030: 1524 8d3f 0740 993e ab90 173f c049 ceb6
00000040: 5024 05b7 00f1 08b8 5927 7a3e 0664 0e39
00000050: 3ce1 173d c638 a8bb 808e b43c 1f04 4cb9
00000060: dd35 6cb9 80ff 3f39 33ad 70b9 3d29 02b9
00000070: 0037 59b8 9ca4 2bbe 3e3c cc38 eaea aabd
00000080: 3d66 60b9 ec94 71b9 5d37 6bb9 1b0c 393f
00000090: 00c4 7b39 23e9 0cbe 660e 023e eef8 ae38
000000a0: ee26 84b8 3330 ae3e 3660 ecb8 7574 58b9
000000b0: d786 1939 13ec afb8 380c a237 a482 99bd
000000c0: 6412 29bd 9380 51b9 3472 efb8 0bf9 c53f
000000d0: a5a9 7a39 3caa bfbc cccc 46b8 458b 6db9
000000e0: 7435 05be 0249 d138 0e3c b438 4683 97bd
000000f0: 284c a837 0ce2 c33e 22fb fa3e 35e6 b9b9
00000100: 80a6 38b8 8ce8 a7b9 b05a 243d 5362 66b9
00000110: e85f d537 e458 34b9 6e86 22b9 8abf 0ab9
00000120: eb12 9539 1f95 75b8 1c69 6f38 130d 9f3e
00000130: f040 2ab7 b358 8239 cee5 7139 d3e3 fc3e
00000140: a856 aa37 9895 b038 ae2a 1cb9 3317 4bb9
00000150: 40db da37 e2a1 683b 7abd cbb8 785f da38
00000160: 169d 7e3e bbc4 523f 50ae 9c3e 4dbd 44b9
00000170: 1c38 e6bd a641 6639 9a0f b8b9 4140 1239
00000180: 1b2b bcbd 2226 cd3f dcff 6638 677b 67b9
00000190: ec8f 3938 3184 013a 79d7 50b9 5ba0 5f3f
000001a0: 7ef9 abb9 60f8 8db9 c62c bcb9 4b24 abb9
000001b0: 1ce2 8438 59cb 3cb9 5ea7 9b3c 4df4 91bd
000001c0: 6cd1 c1b8 f684 863d 28b7 c938 1ffd fa3e
000001d0: 56b1 5b3f e007 ea37 5346 f1b8 144d a4b9
000001e0: 06ee ce38 2cdd 2fb9 cce0 abb9 885a e83f
000001f0: f849 d7b7 985b a3b9 6e22 8d39 6137 7839
00000200: c8ac 1d39 35df 3a3d cca5 ecb8 3773 95b9
00000210: 21e7 29b8 8246 d538 a046 f2b6 1327 1db9
00000220: 3422 a7b8 52d6 98b8 b077 b2b8 e0fb 1eb7
00000230: 80a5 aab9 adf9 c2bd e855 43b8 a1ac aeb9
00000240: 3fd6 c7bd 0e07 e9b8 607c a2b9 0d91 0cb9
00000250: 5192 0f39 34c3 5db9 f8ef 4737 ac4b b7b9
00000260: c080 b5b9 acf2 d83d e1fb e3b8 d2be 37bd
00000270: 4de7 53b9 aa7a 68b9 165d adb8 3c45 be38
00000280: 8c92 1b38 83e0 383e 1c0e 8cb8 2210 31b9
00000290: b933 be3d 8d94 41bd 544c d13d 8df1 60b9
000002a0: 6030 adb7 acb0 3c39 7739 623e b88f c738
000002b0: 6945 04b9 fa63 c5bb 7281 a338 2394 173e
000002c0: 0e04 2939 aa90 713f 9fc5 183f 55da a9b9
000002d0: 8cd1 20b9 39bd 69bb 6648 763d bb33 90b8
000002e0: 1379 a83c c057 eeb6 de07 6d3f ba8a 8a3f
000002f0: b211 e538 7438 17b8 c80e 9636 c2ba 7fb9
00000300: 26d5 dcb8 f961 02b9 670f 99b9 acea 4038
00000310: b434 1ebe 487e 7c3e 474f 7d3e 4647 25bd
00000320: 8835 1939 f8e9 1139 5d18 243b bc04 5b38
00000330: 563b dbb8 d36d 6cb9 0797 7a39 10f1 aab7
00000340: e025 7cb8 26e7 90b8 4cd9 1738 fcdc 04b8
00000350: bc8f 0db9 48be 8bb8 06c7 8fb9 f2f6 aa38
00000360: 3551 69b9 a417 0abd 7663 653f 3ee6 60b9
00000370: f1b9 e13e 7f26 74b9 1af3 f13e 3463 0139
00000380: 97c6 62b9 eecb c33e 6f28 463f 9759 9d3e
00000390: 1853 88b7 38e7 5db9 7211 b539 6ac7 2db9
000003a0: e10e 173c b461 f038 116a b0bd ea5f eab8
000003b0: a06f 8fb8 0026 7eb6 95d6 bf38 c05c 3337
000003c0: 9358 29b9 18ab 9f39 6073 1a38 a0a4 85b7
000003d0: d5c0 c5bd 6632 8038 0875 9638 16ab 31b9
000003e0: a1ed 31b9 ec00 a538 6472 853d 6e65 b73e
000003f0: 6f76 0d39 5101 20b9 9734 97b9 1861 ba37
-0.00013739723 -4.2213112e-05 1.1455982 -0.0003490355 -6.859882e-06 0.20628722 -9.590177e-05 0.00025354853
0.49169388 0.12348909 -0.0001563665 0.000101837024 1.1026636 0.2993166 0.5920512 -6.147864e-06
-7.935872e-06 -3.2649375e-05 0.24429072 0.00013579437 0.037080035 -0.005133721 0.022040606 -0.00019456491
-0.0002252678 0.0001831036 -0.00022952705 -0.00012413129 -5.1788054e-05 -0.16762012 9.738699e-05 -0.083455876
-0.00021400391 -0.00023039029 -0.00022431971 0.72284096 0.00024010241 -0.1376081 0.12700805 8.343333e-05
-6.301502e-05 0.34021148 -0.000112712776 -0.00020642749 0.00014641449 -8.3886225e-05 1.9317595e-05 -0.07495621
-0.041277304 -0.00019979691 -0.0001141768 1.5466627 0.00023905055 -0.023396604 -4.739761e-05 -0.00022653963
-0.13008672 9.9794954e-05 8.594255e-05 -0.07398085 2.0062624e-05 0.38258398 0.49019724 -0.00035457467
-4.4024084e-05 -0.00032025983 0.04012555 -0.00021971138 2.5436239e-05 -0.00017199252 -0.00015499603 -0.0001323206
0.0002843359 -5.855143e-05 5.707993e-05 0.31064662 -1.0147909e-05 0.00024861618 0.0002306916 0.49392566
2.0305932e-05 8.420198e-05 -0.00014893219 -0.00019368231 2.6089721e-05 0.003549688 -9.715087e-05 0.000104128325
0.24864611 0.82331437 0.3060174 -0.00018762537 -0.11241171 0.00021958965 -0.0003510684 0.00013947581
-0.09187909 1.6027262 5.507456e-05 -0.00022075848 4.4241475e-05 0.00049406575 -0.00019916696 0.8735406
-0.00032801548 -0.0002707867 -0.00035891513 -0.00032642702 6.336367e-05 -0.0001800483 0.019000705 -0.07126675
-9.241965e-05 0.06568329 9.6185424e-05 0.4902124 0.8581747 2.789864e-05 -0.000115048744 -0.00031337945
9.867181e-05 -0.00016771693 -0.00032783148 1.8152628 -2.5664442e-05 -0.00031158025 0.00026919268 0.00023671753
0.00015037053 0.045623023 -0.00011284239 -0.00028505336 -4.0507995e-05 0.000101697646 -7.220384e-06 -0.00014987243
-7.9695514e-05 -7.287845e-05 -8.509995e-05 -9.476178e-06 -0.00032548234 -0.09520278 -4.657163e-05 -0.00033316485
-0.09757661 -0.0001111162 -0.00030991714 -0.00013405476 0.0001369205 -0.00021148921 1.1917196e-05 -0.0003496086
-0.00034618936 0.10593161 -0.000108711196 -0.044859715 -0.00020208694 -0.0002217094 -8.2666214e-05 9.072802e-05
3.7091362e-05 0.18054394 -6.678348e-05 -0.00016886045 0.09287209 -0.04726081 0.102196366 -0.0002145229
-2.0645733e-05 0.00017994893 0.22092234 9.515829e-05 -0.00012614358 -0.006023881 7.796557e-05 0.14802603
0.00016118606 0.94361365 0.59676546 -0.00032396862 -0.00015336851 -0.0035665764 0.06012764 -6.8760906e-05
0.020565545 -7.103168e-06 0.9259013 1.0823586 0.00010922867 -3.605378e-05 4.472069e-06 -0.00024388268
-0.000105301195 -0.00012434264 -0.0002919391 4.5994922e-05 -0.15449792 0.24657547 0.24737273 -0.040351175
0.00014611159 0.00013915438 0.0025038936 5.2218078e-05 -0.00010453786 -0.00022547627 0.0002389812 -2.0377833e-05
-6.0116756e-05 -6.90951e-05 3.620358e-05 -3.167706e-05 -0.00013500353 -6.663479e-05 -0.0002742337 8.152229e-05
-0.00022250864 -0.03371395 0.8960489 -0.00021448077 0.44087175 -0.00023283994 0.47255784 0.00012339355
-0.0002162702 0.38241524 0.77405447 0.30732414 -1.6251157e-05 -0.00021162338 0.00034536008 -0.00016572853
0.009219856 0.000114622904 -0.086139806 -0.00011175855 -6.839563e-05 -3.7871068e-06 9.147559e-05 1.06908265e-05
-0.00016150092 0.00030454318 3.6823913e-05 -1.5931495e-05 -0.096559204 6.112903e-05 7.174356e-05 -0.0001694377
-0.00016968559 7.867985e-05 0.06515959 0.35819572 0.00013490928 -0.0001525928 -0.00028840147 2.221814e-05
