iterative_k_clustering_breast_cancer/first_algorithm_results/K_4/training_results/H_model.pt (torch, 13919 bytes, 4 tensors)

weight f4 [5, 272]
000000 35 87 55 b9 0c 14 ac 38 8a c2 48 b9 d8 70 51 b8
       -0.00020363631 8.205333e-05 -0.00019145958 -4.9934577e-05
000010 0f 53 0d 39 f2 cf 94 38 a9 ef 0d b9 e8 97 4d b9
       0.0001347775 7.095923e-05 -0.00013536088 -0.00019606913
000020 22 5f 63 b9 78 bb 08 b8 a2 cd c0 38 01 4c 87 3e
       -0.00021683847 -3.259952e-05 9.1935755e-05 0.26425174
000030 ee c9 45 38 6f 8e 19 39 06 c9 0d b9 5c 61 73 b8
       4.715652e-05 0.00014644278 -0.00013521695 -5.8026388e-05
000040 14 8f 1b b9 db 19 31 b9 90 69 ed 38 29 2e 74 b9
       -0.00014835253 -0.00016889667 0.00011320703 -0.0002328685
000050 3d db 37 b9 02 cd 98 38 94 74 0b 38 86 c1 8d 38
       -0.00017533913 7.2861105e-05 3.3248754e-05 6.7594505e-05
000060 2c 6c e0 38 3b 91 03 b9 a6 1b 7e 39 a4 38 06 b8
       0.00010701301 -0.00012547236 0.00024233627 -3.200084e-05
000070 08 35 11 39 18 2e 2c 39 c8 c6 e8 b7 80 5b 97 35
       0.00013848033 0.0001642037 -2.774912e-05 1.1277007e-06
000080 6c 08 6d b8 c4 c3 91 38 50 ff 29 37 d6 b4 bd 38
       -5.6513047e-05 6.950603e-05 1.01326295e-05 9.0459056e-05
000090 33 64 0d 39 61 91 fd b9 ed 95 3e 39 af 80 11 b9
       0.00013484135 -0.00048364236 0.00018175664 -0.00013876216
0000a0 8f bf 14 39 55 99 ab 3f 10 11 25 b9 44 53 3c 38
       0.00014185741 1.3406168 -0.00015741982 4.490024e-05
0000b0 a2 b8 8c b9 d7 39 5f 39 c4 df 42 38 c4 64 4a b8
       -0.00026840443 0.00021288484 4.6461602e-05 -4.82544e-05
0000c0 a8 fc a2 37 80 df 48 37 90 7a 1e 37 01 b3 a6 3c
       1.9429557e-05 1.1972967e-05 9.44607e-06 0.020349028
0000d0 91 92 25 39 00 fb 9e b5 88 39 b0 b8 fc 60 a8 38
       0.00015790226 -1.1844968e-06 -8.40305e-05 8.028929e-05
0000e0 96 d6 d0 b8 5c 49 7f b8 2e 29 b2 38 41 72 1a b9
       -9.9581826e-05 -6.086506e-05 8.495372e-05 -0.00014729147
0000f0 fc e9 db b8 bd 04 3e b9 ab 17 0d 39 e0 13 0f b7
       -0.00010486317 -0.00018121577 0.00013455625 -8.528092e-06
000100 84 33 3b 39 a1 c6 3d b9 a7 52 35 39 30 c7 29 39
       0.00017852901 -0.0001809844 0.00017292296 0.00016191299
000110 e4 62 13 b8 e0 c4 e0 b7 e2 87 8f b8 9a 55 24 b9
       -3.513963e-05 -2.6794558e-05 -6.8440815e-05 -0.00015672148
000120 18 bc 53 b8 d6 b5 c9 38 98 fd 10 38 b7 7f 48 39
       -5.0481496e-05 9.6182965e-05 3.4568453e-05 0.00019121064
000130 84 2c 31 b8 ae 20 26 b9 76 01 7d 39 c0 6b fd b6
       -4.2241547e-05 -0.00015843168 0.00024128504 -7.5525313e-06
000140 c5 83 3d b9 54 1a 47 39 52 3b 13 39 63 55 3f b9
       -0.00018073533 0.00018987927 0.00014041111 -0.00018246988
000150 af dc a0 b8 a2 65 a5 38 88 58 ba b8 d7 04 d5 3e
       -7.6705e-05 7.886744e-05 -8.8856614e-05 0.41605255
000160 cc be 3c 39 0e ae c1 38 50 4a 07 b8 7e ed dc b8
       0.00018000155 9.2353774e-05 -3.2255717e-05 -0.00010534654
000170 a0 3d cb 3f 30 a5 d7 38 74 42 68 38 9a 00 1e 39
       1.5878181 0.000102827675 5.5375e-05 0.00015068278
000180 c8 8a a5 b7 fc bf 85 b8 5f f7 15 39 38 b3 5b b8
       -1.9734158e-05 -6.377694e-05 0.000143019 -5.238058e-05
000190 81 3a 3f b9 16 21 d4 b8 a0 d8 5d b9 18 de fc 37
       -0.00018236974 -0.000101151105 -0.00021156901 3.0144161e-05
0001a0 36 21 22 b9 65 58 36 b9 80 9e 6c b8 5c 1d 00 b9
       -0.00015461896 -0.00017389802 -5.64144e-05 -0.00012217968
0001b0 d1 9e 0a b9 65 e8 2a 39 b8 9f 4c 39 94 3c c9 b8
       -0.0001321987 0.00016299037 0.00019514456 -9.5957104e-05
0001c0 e0 ab e9 b7 ea 6f 3a 39 e2 48 f3 38 e2 cb 32 b9
       -2.78558e-05 0.00017780034 0.000116007184 -0.00017051355
0001d0 00 e7 aa b6 80 a6 62 36 45 14 47 39 80 ee 1b 38
       -5.0932867e-06 3.377354e-06 0.0001898567 3.7177e-05
0001e0 d0 af 87 37 d8 eb 22 b8 da 97 17 39 fc bf 18 b8
       1.6175123e-05 -3.8843456e-05 0.00014457051 -3.6418423e-05
0001f0 da 9c 60 39 c0 69 cb 36 a0 b1 d2 b6 b0 de 98 3f
       0.00021420736 6.0621824e-06 -6.279166e-06 1.1942959
000200 4a 87 87 b8 8f 57 49 39 00 c7 37 b7 5c 95 b8 38
       -6.462501e-05 0.00019201472 -1.0953983e-05 8.801624e-05
000210 3a 3c 70 b9 f1 b0 02 39 87 89 df 3f d0 33 c0 37
       -0.0002291062 0.00012463682 1.7463845 2.291231e-05
000220 7c 65 98 b8 70 72 9f 37 90 54 4b 38 28 76 eb b8
       -7.266828e-05 1.9007566e-05 4.8477727e-05 -0.000112276815
000230 5a ba 98 3d aa 11 bd 38 48 d4 0a 38 8c 1e 01 b8
       0.07457419 9.0155125e-05 3.3099466e-05 -3.0784446e-05
000240 84 da 0c b8 f9 81 27 39 1e 1b e4 38 f9 4e 1a 39
       -3.358211e-05 0.0001597478 0.00010876938 0.00014716004
000250 88 d4 ed b7 00 93 b2 38 f8 34 2a 38 30 d0 c9 37
       -2.835157e-05 8.515082e-05 4.058049e-05 2.4058012e-05
000260 62 fa cd b8 a2 d4 07 39 12 20 3b 3b 42 06 5c 38
       -9.821799e-05 0.00012953815 0.002855305 5.2457915e-05
000270 a0 b0 d4 36 7d a8 19 b9 40 b0 9f b9 4f e1 17 b9
       6.338654e-06 -0.00014653984 -0.0003045816 -0.00014484416
000280 51 75 1e b9 b8 f9 0f b8 bc 27 92 38 c9 53 1a b9
       -0.00015111758 -3.4326426e-05 6.9692236e-05 -0.00014717797
000290 2f 4d 41 b9 7d 06 0e 39 4c c0 3a b9 d3 42 75 b9
       -0.00018434667 0.00013544592 -0.00017809978 -0.00023389915
0002a0 2d b3 4c b9 d2 64 4b 39 a1 a5 96 39 78 0e 05 38
       -0.00019521704 0.00019397147 0.00028733633 3.1723146e-05
0002b0 95 1a 41 b9 a6 01 03 b9 3e f4 07 40 84 da 54 b8
       -0.00018415817 -0.00012493748 2.1242824 -5.0748247e-05
0002c0 42 f5 a9 b8 3e 7d 01 39 dc 62 65 38 2d 82 38 b9
       -8.104231e-05 0.00012349055 5.4689925e-05 -0.00017596102
0002d0 5d 65 94 b8 08 a3 d2 b8 28 77 0f b8 f9 c5 11 39
       -7.07607e-05 -0.00010043947 -3.420483e-05 0.00013902028
0002e0 41 20 25 39 66 33 1f b9 14 86 f6 38 7c 19 0e bd
       0.00015747642 -0.00015182569 0.00011755168 -0.034692273
0002f0 22 25 83 b8 5f d8 4d b9 12 f5 fb b8 88 04 d1 b7
       -6.253483e-05 -0.00019630928 -0.000120142606 -2.4916852e-05
000300 27 e9 3e b9 90 cf 94 37 00 0a a2 b4 70 2c 08 37
       -0.00018206668 1.7739629e-05 -3.0182127e-07 8.116578e-06
000310 57 df 13 b9 e0 de 20 37 8c eb e4 38 b4 15 af b8
       -0.00014102213 9.588635e-06 0.00010915761 -8.348693e-05
000320 2b 80 e3 38 db 41 fa b8 40 df 05 37 b4 29 4c b8
       0.000108480766 -0.000119331955 7.979397e-06 -4.867623e-05
000330 62 a5 e3 38 52 60 c5 38 ac 53 99 b8 02 09 a0 b8
       0.000108550084 9.411633e-05 -7.3111936e-05 -7.6310724e-05
000340 d0 3f 7d 37 20 14 a9 37 dc 1f 63 b8 b4 d1 b9 b8
       1.5094833e-05 2.0155741e-05 -5.415069e-05 -8.860548e-05
000350 c0 22 09 38 ac 2d fe b8 99 bf 12 b9 30 f3 0f b8
       3.269571e-05 -0.00012120171 -0.0001399502 -3.4320343e-05
000360 7f a3 38 39 f7 0a 3f 39 5c 26 f6 38 40 e7 28 36
       0.00017608514 0.00018219264 0.00011737339 2.5168556e-06
000370 a8 9f af 37 76 e5 09 b9 59 2f 1b 39 3c 7b 1f b8
       2.0935971e-05 -0.00013150819 0.0001479959 -3.8023325e-05
000380 3e 4e 35 b9 bf 8e 2c 39 72 24 35 b9 34 ee 02 b8
       -0.00017290653 0.00016456375 -0.00017275082 -3.121626e-05
000390 dc 44 46 b8 12 59 bc b8 d4 5b 60 b8 ec 9e 13 b9
       -4.727101e-05 -8.981129e-05 -5.3491283e-05 -0.00014078215
0003a0 d5 2c 77 39 62 26 25 b9 14 0c f6 38 4b 69 1e 3f
       0.00023572457 -0.00015749925 0.00011732444 0.61879414
0003b0 c2 03 4a 39 70 0e 9a b7 a7 bb 26 39 00 74 cd b4
       0.00019265621 -1.8364954e-05 0.000159009 -3.8268627e-07
0003c0 bf f6 29 b9 7d 00 ce 3f 30 e8 5b b7 b4 88 8e 38
       -0.00016209016 1.6093899 -1.3107478e-05 6.7965506e-05
0003d0 14 c4 38 b8 f5 b6 00 b9 e0 56 bd 37 78 e1 e0 38
       -4.405163e-05 -0.00012275188 2.257101e-05 0.00010723149
0003e0 fc 00 d8 38 5e 1f 1c 39 0f 8a ad 38 66 d2 51 38
       0.00010299866 0.00014889005 8.274998e-05 5.0025432e-05
0003f0 07 09 dd c0 08 46 ea bf c1 7b d2 3f 99 55 81 40
       -6.907352 -1.8302622 1.6444017 4.041699

bias f4 [5]
000000 6f 94 ce 3f 86 da cf be e4 be 43 c0 1b fb ff 3f
       1.6139048 -0.40596408 -3.058526 1.9998506
000010 b6 09 5d bf
       -0.8634294

weight f4 [252, 5]
000000 81 b0 17 b9 de 3b 83 b9 7c 18 7e b9 c4 fa b7 b8
       -0.00014466235 -0.00025030872 -0.00024232449 -8.772829e-05
000010 30 e6 86 38 4b 99 82 39 73 f2 6b 3e 0e 06 49 39
       6.432494e-05 0.00024909744 0.23041706 0.0001917111
000020 da 7f f0 bd e2 28 b2 b8 77 73 3a bf 22 74 a0 bf
       -0.11743136 -8.4953164e-05 -0.72832435 -1.2535441
000030 ac 0b 8d b8 ae cc 52 3f 31 b5 c4 bd c0 6b 6c 36
       -6.725578e-05 0.82343566 -0.09604872 3.522946e-06
000040 a4 d2 3e b8 c9 fe 2f 39 67 20 73 be 9f cd e2 3e
       -4.5495704e-05 0.00016784215 -0.2374283 0.442975
000050 85 03 85 3f 63 c5 1e 39 40 9d 11 36 07 6b b0 3e
       1.0391699 0.00015141586 2.1698215e-06 0.34456655
000060 60 94 c3 b7 f7 e4 a5 38 8f 0b 12 39 74 46 a7 39
       -2.3314904e-05 7.910461e-05 0.00013927951 0.00031905214
000070 f0 ac c5 b7 e5 af 89 b9 62 ea 89 be 24 85 1b b9
       -2.356476e-05 -0.00026261728 -0.26936632 -0.0001483155
000080 8e f4 dd b8 d0 8a bf 3d 11 2b f5 b8 0a 9a 36 bf
       -0.00010583653 0.09352648 -0.00011690532 -0.71328795
000090 f8 1a 19 b9 8e cd 6f b9 5e 12 9d 39 33 bb 67 bc
       -0.00014601264 -0.00022869391 0.00029959058 -0.014143753
0000a0 2d 20 bf bd 3f 59 e0 ba f2 c7 8f b9 3f 9c bb 3e
       -0.09332309 -0.0017116441 -0.00027424056 0.36642644
0000b0 0b 61 05 bf 62 89 ba 3e f8 7d d7 ba c6 b8 e8 b8
       -0.521012 0.3643294 -0.001644074 -0.00011097039
0000c0 fd 8c 96 be 0c 18 d4 b8 89 59 67 39 c0 2b 28 b6
       -0.2940444 -0.00010113427 0.00022063231 -2.5059417e-06
0000d0 66 92 15 39 65 42 34 39 a3 a0 8d 3e 4b 16 8f 3e
       0.00014264285 0.00017190872 0.2766162 0.27946696
0000e0 ef 90 55 bf 3e 28 fe bd b8 37 dc 3e 01 c8 e9 be
       -0.83424276 -0.12410019 0.4301126 -0.45660403
0000f0 14 2f 06 be be 8d a0 39 a2 e2 17 bd ec 40 e2 3e
       -0.13103896 0.00030623184 -0.03708137 0.44190156
000100 7c 7e 3c b9 39 71 ef bd 08 20 9f 39 b7 c8 9e 39
       -0.00017976196 -0.116915174 0.00030350708 0.00030285653
000110 4c f5 7b b8 9c 1c 27 b8 64 12 58 b8 6e a6 aa b8
       -6.0071514e-05 -3.9842547e-05 -5.151554e-05 -8.1372316e-05
000120 a2 1b 5c 38 de f4 d9 be d4 a3 91 3e f4 86 4c b8
       5.2477822e-05 -0.4256963 0.28445303 -4.8763075e-05
000130 cc 68 d6 b7 20 60 30 37 fd 37 d6 b8 d4 e3 15 b8
       -2.5559588e-05 1.0512798e-05 -0.00010214744 -3.573655e-05
000140 72 e6 06 bf a1 02 0b 39 3f 27 97 39 04 ba 92 b8
       -0.5269538 0.00013257052 0.00028830205 -6.9964706e-05
000150 98 ae 7a 38 0c 6e 12 c0 79 83 b9 bd d6 f0 50 b9
       5.9767248e-05 -2.2879667 -0.090582795 -0.00019926144
000160 2b 63 ba 3e 93 c5 09 be 60 1d e8 b7 ce 6b 65 bd
       0.36403784 -0.13454275 -2.7670234e-05 -0.056011014
000170 6a a7 8b bc 9c 61 17 39 ac c4 8a b9 cc 6e 28 38
       -0.017047603 0.00014436845 -0.00026467943 4.015751e-05
000180 08 36 bd be 74 25 e8 bd c8 66 d8 b7 4a 4d f0 b8
       -0.36955285 -0.113352686 -2.5797068e-05 -0.00011458488
000190 3a 04 17 b9 c4 dc 4f 38 60 c9 05 39 1d 87 28 bf
       -0.00014402057 4.955825e-05 0.00012758886 -0.65831167
0001a0 10 db c9 b7 e7 89 f3 38 90 f7 8c b7 20 a7 ff 36
       -2.4063076e-05 0.00011612829 -1.680458e-05 7.619048e-06
0001b0 ec 59 08 bd f4 d8 a1 38 34 3d 48 39 3a 9e 5b 3e
       -0.03328888 7.717489e-05 0.00019096286 0.21447077
0001c0 f6 32 5c 39 f1 8a d9 ba a8 0a e3 b8 aa 71 ca b8
       0.0002099982 -0.0016597194 -0.000108261884 -9.653282e-05
0001d0 e5 dd 9b b9 06 ba 8f b9 00 90 d5 35 00 5f 67 35
       -0.00029729228 -0.00027413684 1.5911646e-06 8.619245e-07
0001e0 9e f9 93 38 79 e1 57 b9 c9 08 a2 39 7b 3b 50 39
       7.056001e-05 -0.00020587993 0.00030905593 0.00019858584
0001f0 3c 1b 89 3e 01 eb 1c 3d 40 65 3d 39 85 81 4b be
       0.2677859 0.038310055 0.00018062163 -0.19873627
000200 08 89 75 38 7c f4 90 b8 60 2f 70 b9 22 16 1d b9
       5.8540172e-05 -6.911994e-05 -0.00022905832 -0.00014980932
000210 72 7b 2c b9 8a 22 ec 3c ac 53 3c 39 90 e4 6c 37
       -0.00016449185 0.028825063 0.00017960247 1.41199125e-05
000220 35 4a 8b 39 48 30 98 39 9e 2a e6 b8 44 3b a5 b8
       0.00026567435 0.00029027672 -0.00010975193 -7.878852e-05
000230 3e 7f a4 bb 8e 3b 26 bb 5d d0 2a b9 56 9e 40 3d
       -0.0050200513 -0.0025365087 -0.00016290085 0.047026
000240 e9 57 80 be 63 aa fb 3d 7a 22 d7 3e eb 77 09 be
       -0.2506707 0.12288358 0.4201849 -0.13424651
000250 b1 5b 82 bd 4a 4c 1b bf bd cd 8a 3e 78 5a a1 b8
       -0.06365145 -0.6066328 0.2711009 -7.6939294e-05
000260 50 a8 f7 b7 78 12 2b b8 0a e8 92 39 64 db 3a 3f
       -2.9523071e-05 -4.0786777e-05 0.00028020173 0.72991014
000270 90 78 23 39 66 10 e9 b8 1a cf 1a b9 79 41 97 3e
       0.00015589804 -0.0001111336 -0.00014763736 0.2954214
000280 23 37 96 be f6 dc 39 39 3c 1d 10 bf bc de af 3d
       -0.2933894 0.00017725289 -0.5629461 0.08587405
000290 4c 17 66 b8 c8 8d eb b8 14 4d 56 b8 9a de a0 39
       -5.485797e-05 -0.00011232082 -5.109336e-05 0.0003068343
0002a0 20 fd e8 b7 24 23 cd b8 9b 3d 9a 3e 60 0f a3 37
       -2.7774426e-05 -9.781707e-05 0.30125126 1.9438274e-05
0002b0 98 9a 75 b8 8a 0d b7 be 44 9f 02 39 90 15 6e b9
       -5.855653e-05 -0.35752517 0.00012457097 -0.00022705481
0002c0 42 ce 89 b8 11 7d 5a b9 cb 38 48 39 f2 d8 ac be
       -6.5710876e-05 -0.00020836691 0.00019094643 -0.33759266
0002d0 fe e7 f7 bd dc bc 8f 39 60 85 f5 b7 73 1e 09 39
       -0.12104796 0.00027415797 -2.9268384e-05 0.00013076681
0002e0 ac 0c e3 38 b8 ca d4 39 b7 a5 9b bf 3c a9 aa 38
       0.00010826564 0.00040586828 -1.2159947 8.137754e-05
0002f0 61 4f 79 3f f4 b3 98 bf b6 e8 ec be 88 4c c1 38
       0.9738675 -1.1929917 -0.46271294 9.217212e-05
000300 18 bd 98 39 f2 12 bf b8 3e ff a8 b8 8e 48 a9 b8
       0.00029132585 -9.1111186e-05 -8.058407e-05 -8.072062e-05
000310 9f c6 0b 3d 17 15 b4 39 98 a4 ed 38 a5 0e 49 3d
       0.034124967 0.0003434799 0.000113316986 0.04908623
000320 26 fc 05 bf 20 83 93 b7 2b 0c 94 39 f0 2e 98 37
       -0.52337873 -1.7584825e-05 0.00028237826 1.8141669e-05
000330 ad 74 2c 39 93 de cf be e1 61 12 3f d4 35 3d b8
       0.00016446663 -0.40599498 0.571806 -4.5111243e-05
000340 ff 03 25 40 97 a1 7c 3e 5f 78 8d b8 60 55 dd b6
       2.578369 0.24671017 -6.745825e-05 -6.596252e-06
000350 61 2c 44 39 40 7d 50 b7 a8 4b 25 b9 aa e9 f1 bd
       0.00018708549 -1.2426928e-05 -0.0001576381 -0.11812146
000360 6e 08 08 b8 c6 db 3c 39 fc 06 77 38 c0 00 33 b7
       -3.2432778e-05 0.00018010949 5.8895894e-05 -1.0669406e-05
000370 9a 94 6e 3f a7 bd 5a 39 c4 3a c1 38 aa c7 2e 3f
       0.931955 0.00020860751 9.213903e-05 0.68273413
000380 4d 6f b3 bf 2f 97 2d 3e a1 6b 85 bf 83 e6 f6 bc
       -1.4018341 0.16952203 -1.0423471 -0.030139213
000390 74 a5 6b 38 dd 84 1e 3f 07 99 39 b9 8c 56 1c 39
       5.6182456e-05 0.61921483 -0.00017699982 0.0001490956
0003a0 e6 66 59 b8 cc b6 dc 38 f2 d1 c9 3e a9 0d ec be
       -5.1832663e-05 0.00010524466 0.39417988 -0.46104172
0003b0 ad b8 87 be 81 0b 6f b9 b4 03 96 3e d8 bc 8f b8
       -0.26508084 -0.00022797102 0.292997 -6.853946e-05
0003c0 00 2c fd 3e 9c 60 81 b9 8a f0 ce 38 66 65 0d 3f
       0.49447632 -0.00024676777 9.867649e-05 0.55232847
0003d0 4d 92 56 bf e9 c5 2b be a0 89 5d 38 47 71 c1 b9
       -0.8381699 -0.16774715 5.281868e-05 -0.00036896227
0003e0 83 82 c8 3e 28 40 eb b8 c8 ab ee 37 f4 7e 19 39
       0.39162073 -0.00011217623 2.8451803e-05 0.00014638511
0003f0 1c d2 88 38 ca 88 60 b9 a4 7b fa b8 88 10 ef be
       6.524121e-05 -0.00021413263 -0.00011943959 -0.466923

bias f4 [252]
000000 fb b8 75 39 5a fd 2a 38 e3 38 29 3f 8c 07 d2 b8
       0.00023433931 4.076711e-05 0.6610243 -0.00010014986
000010 d0 58 0e 39 a9 5e d9 ba 38 83 0e b8 f8 2a 5a 39
       0.0001357526 -0.0016583997 -3.3977645e-05 0.00020806107
000020 7f 03 8f 39 08 90 e7 37 21 f6 88 b9 ab 78 7a 3f
       0.0002727769 2.7604416e-05 -0.00026123322 0.97840375
000030 c4 82 2e 3d 3c 1b de b7 d4 65 11 b9 a9 8e 0e 39
       0.042605177 -2.6477144e-05 -0.00013866212 0.0001359532
000040 e4 14 34 b9 89 dd 23 3d 5f c9 46 3e a0 48 4b 39
       -0.0001717392 0.040006194 0.19412754 0.00019386644
000050 e6 ce 4c b9 a4 ae d6 b8 80 16 72 b7 30 7b ff 38
       -0.00019532032 -0.000102368445 -1.4429563e-05 0.00012182293
000060 05 5e 07 b9 a7 59 12 3d af 34 0f 39 4a fa a2 b9
       -0.00012909628 0.03573003 0.00013657169 -0.00031085528
000070 96 0a 8c 38 ea 37 58 3d 79 b3 30 b9 7a a0 4c 39
       6.677692e-05 0.0527877 -0.00016851527 0.00019514738
000080 69 9d 41 3f 72 2f 98 b9 88 38 b9 38 94 a8 85 38
       0.75630814 -0.0002902705 8.832017e-05 6.373334e-05
000090 68 48 94 b9 f0 26 0c 3f a2 3f 93 38 fd 1a 30 b9
       -0.00028282707 0.54746914 7.021359e-05 -0.00016794722
0000a0 ad cb aa b8 9d 7a f8 3f 40 d7 8d b5 7e 85 e2 b8
       -8.144169e-05 1.9412419 -1.0567965e-06 -0.000108013846
0000b0 60 27 99 b7 48 32 de 3e 02 d1 86 b9 e5 57 90 3d
       -1.8257357e-05 0.43397737 -0.00025714195 0.070480146
0000c0 00 09 dd 37 34 ca 08 3e 18 f3 bb b8 6a 74 0b 3e
       2.6349444e-05 0.13358384 -8.9621346e-05 0.13618627
0000d0 88 8e 3b b9 aa d8 a6 38 00 ce 4c 38 c0 e4 ec b7
       -0.00017886807 7.955854e-05 4.8829243e-05 -2.8239912e-05
0000e0 d3 ff a0 3d 08 36 88 b9 60 c5 f5 b6 df 41 27 b9
       0.078612946 -0.00025980198 -7.3245465e-06 -0.000159509
0000f0 4d 93 3a b9 eb 80 7c 3d 53 c2 a1 3e 51 02 99 b9
       -0.00017793216 0.061646383 0.3159357 -0.0002918416
000100 d9 ff 23 b9 a2 ce ad bc 90 40 15 b9 68 03 9f b7
       -0.00015640202 -0.021216694 -0.00014233799 -1.8955863e-05
000110 74 be e6 b8 55 f0 87 3f 6a 15 f7 3e 4e 5f 92 b9
       -0.00011002729 1.0620219 0.48258525 -0.00027918298
000120 8a f0 9d b8 7f 92 01 3f 0c f0 90 b7 1e 43 b0 b9
       -7.531147e-05 0.5061416 -1.7277918e-05 -0.00033619342
000130 36 98 6c b8 70 04 53 b8 f5 30 c7 3e 6b 9d e5 b8
       -5.6408542e-05 -5.0310453e-05 0.3890454 -0.00010948892
000140 09 56 16 39 72 78 87 39 2c fd 61 b8 0c 88 49 b8
       0.00014337165 0.00025838945 -5.3879965e-05 -4.8048838e-05
000150 ce 3e 2f 39 9b 31 d2 b8 b4 90 5e 3e f8 38 02 3f
       0.00016712697 -0.0001002282 0.21734887 0.5086818
000160 df 55 95 b9 89 19 48 3e e8 10 b9 b7 0f 21 b7 b8
       -0.00028483474 0.19540991 -2.2061591e-05 -8.732278e-05
000170 9a a9 51 40 13 ad 8a b9 7a 19 d8 38 ce e9 ca b8
       3.2759767 -0.00026450361 0.00010304428 -9.67566e-05
000180 54 42 0f 38 7e 0d 30 38 66 4d 44 b8 56 37 b1 b8
       3.415563e-05 4.1974236e-05 -4.6802124e-05 -8.450325e-05
000190 7a 85 7b 39 0d 5a 20 b9 b7 29 a8 b9 2e 84 3c b8
       0.00023986949 -0.00015292336 -0.00032074537 -4.4945795e-05
0001a0 da 3d 18 b8 98 5d aa b9 b0 d9 3c 37 84 c7 98 b9
       -3.6297228e-05 -0.0003249466 1.12563575e-05 -0.0002914035
0001b0 0c 39 b1 b8 be f8 46 b9 8d e0 84 b8 b2 8c f5 38
       -8.4506435e-05 -0.00018975415 -6.336076e-05 0.00011708717
0001c0 c9 1b 46 b9 9c 87 3c 39 0c c6 55 38 aa e2 8b 38
       -0.00018893102 0.00017979596 5.0967603e-05 6.670256e-05
0001d0 43 1e 32 39 7c 8a 1e 39 4a a7 fe b8 7a f7 07 39
       0.00016986676 0.00015119644 -0.00012142824 0.00012966795
0001e0 32 54 05 b9 3f df 59 39 97 c5 74 39 ae 75 b8 3e
       -0.00012715234 0.00020777898 0.00023343261 0.36027282
0001f0 88 8d 5e b8 d1 2c e9 3d 0f 03 4c 3e b2 8b be 3f
       -5.3060736e-05 0.11385501 0.19923042 1.4886382
000200 29 49 3f 3f d0 8c 09 38 54 3d 9e b8 60 89 06 ba
       0.7472101 3.2794487e-05 -7.54545e-05 -0.0005132165
000210 47 e8 10 39 d0 ae 25 3f 3c 2f 0b 40 04 8e d7 b8
       0.0001381944 0.6471987 2.174758 -0.000102784514
000220 78 3d 80 b8 f4 1c c0 38 73 d0 84 39 0a 6e 8b 39
       -6.114965e-05 9.1606664e-05 0.0002533231 0.00026594131
000230 28 27 2a 3e 4f 35 3b b9 96 59 9f b8 a5 e7 22 39
       0.166165 -0.00017853569 -7.5983975e-05 0.00015535818
000240 d8 de a4 38 40 a4 1c b6 e6 97 24 b9 5f 93 1b b9
       7.861637e-05 -2.3341418e-06 -0.00015696845 -0.00014836852
000250 4b dd d9 b8 e8 d0 b1 b8 8c 68 d4 b7 fc 7c 78 b9
       -0.00010388585 -8.4789295e-05 -2.5321053e-05 -0.00023697683
000260 78 d4 74 b8 53 ff 62 39 03 08 0b 3f a8 73 0b 3f
       -5.837201e-05 0.00021648155 0.543091 0.5447335
000270 f6 fa 60 39 5b 05 52 b9 a6 b9 2a 39 e1 76 ac 39
       0.00021455795 -0.00020029156 0.00016281623 0.00032894968
000280 77 cb aa 3e 2c 5e b2 b8 7a 39 c0 39 50 92 89 36
       0.33358356 -8.505242e-05 0.00036663917 4.099951e-06
000290 e9 51 4b b9 58 1e 3d b8 e4 a7 9b b8 20 01 40 b8
       -0.00019390103 -4.508937e-05 -7.422248e-05 -4.5777415e-05
0002a0 b7 ba 5a b9 e8 57 68 37 8c 61 3d b9 6a 99 1c b9
       -0.00020859657 1.3848745e-05 -0.00018060784 -0.0001493447
0002b0 e6 86 ed 38 13 92 ad b8 5f 2c 46 40 4e 59 84 39
       0.000113261674 -8.276491e-05 3.0964582 0.0002524354
0002c0 28 dd fc b7 2a e6 81 38 f4 7e 69 b8 88 84 85 b7
       -3.0143725e-05 6.194071e-05 -5.5669763e-05 -1.591655e-05
0002d0 3a ec 09 b9 ae 1f e4 b8 54 6f 92 38 48 cf 1a 38
       -0.0001315334 -0.00010877788 6.982559e-05 3.6909507e-05
0002e0 b0 dc 75 37 ec 5f 99 bb 6c 97 96 37 bd 15 13 39
       1.4654521e-05 -0.004680624 1.7951905e-05 0.0001402711
0002f0 26 39 54 b9 0a 89 6e b9 1f bb b5 3f e2 f5 d2 b8
       -0.00020239185 -0.000227485 1.419773 -0.000100593796
000300 fe 0d a1 3e 5f b0 99 39 7b 58 ea 3d dc f3 1b 39
       0.31455988 0.0002931384 0.114426576 0.00014872797
000310 99 63 87 3d 67 71 70 b9 f3 92 6d b9 ba ab f2 b8
       0.066107936 -0.00022930429 -0.00022656824 -0.00011571446
000320 0a da e6 3d 8b 88 18 39 8b 20 01 3f e0 fa 84 37
       0.112720564 0.00014546716 0.5044028 1.5852449e-05
000330 b7 28 3d b9 dc bc 2a b9 4d 76 65 b9 c0 39 1e 36
       -0.00018039612 -0.00016282819 -0.00021883212 2.357745e-06
000340 a0 eb 54 b6 17 07 b1 b9 26 c1 73 b9 db f5 55 3d
       -3.1727614e-06 -0.00033765353 -0.0002324624 0.05223642
000350 f1 7f a5 b9 50 c9 26 3f fa 46 01 b9 f2 b9 cd 38
       -0.00031566576 0.6515093 -0.0001232884 9.809797e-05
000360 b5 b6 a2 3f 02 b0 8e 38 ae 51 75 b9 23 4b 0c b9
       1.2712008 6.803872e-05 -0.00023395449 -0.00013379431
000370 a4 58 74 38 be 17 d3 b8 c7 e3 df b8 05 95 40 b9
       5.8256686e-05 -0.000100656864 -0.000106758955 -0.00018366061
000380 40 75 01 39 95 49 6e b9 5c bb 70 b9 b8 2d 87 3f
       0.00012346078 -0.0002272486 -0.0002295798 1.0560827
000390 bc 2b 0e 3a f8 de 2d b8 86 18 cb 3d 5e 89 ae 38
       0.0005423387 -4.145407e-05 0.09916787 8.322553e-05
0003a0 6f 0a cb b8 ab 44 89 b9 e1 f3 71 b9 81 b6 43 3e
       -9.681738e-05 -0.00026181838 -0.00023074403 0.19112588
0003b0 78 2a a9 3d d2 d8 a0 3e 20 e1 d1 3e ba 3b b3 b9
       0.082600534 0.3141542 0.4099207 -0.0003418604
0003c0 52 15 0d 3e 36 ed 07 40 a0 72 0d b7 b4 41 75 39
       0.13777664 2.1238532 -8.430943e-06 0.00023389497
0003d0 08 7c 29 b8 f4 2a a2 b9 78 c4 b7 b8 32 34 0b 38
       -4.0408253e-05 -0.0003093105 -8.762715e-05 3.3188793e-05
0003e0 94 f3 a3 37 4a d8 a3 b8 07 f1 2c 39 de eb e8 b8
       1.954454e-05 -7.812733e-05 0.00016492988 -0.00011106556
