RECAP_clustering_breast_cancer/results_trainings/K_4/cluster_2/training_results/cluster_1_model.pt (torch, 18831 bytes, 4 tensors)

weight f4 [5, 381]
-0.00021582001 2.2456661e-05 -0.00016934077 0.00016939874 0.00014281204 -0.00010542513 0.00016241452 -0.00018197125
-2.4278605e-05 0.00012390276 0.00020718701 -7.225225e-05 0.88008267 0.00017647093 8.57641e-05 9.293191e-05
-6.4165084e-05 0.00021278777 -3.608474e-05 0.294178 0.00018976821 0.00012051799 -6.350872e-05 -0.00015104847
3.5842822e-06 0.00012067694 0.00012142889 4.040329e-05 0.00018505445 -8.369757e-05 0.00021476758 0.00013291746
-0.00016154513 4.8894624e-05 -0.000198509 0.00018103591 0.00014186105 -8.623564e-05 0.0001730515 0.00010003823
-2.615241e-06 0.8162317 -8.442774e-06 -2.8461014e-05 0.00017503492 0.00014389475 -8.895242e-05 -0.00016709046
-0.00017090848 0.00016555036 1.0466354 1.3739016e-05 -7.3515184e-05 4.2769825e-05 -0.00013146232 0.00018579116
0.00022703514 -0.00013701747 -6.672062e-05 3.455057e-05 0.00015342612 8.4440166e-05 -2.0392574e-05 4.5000852e-05
-0.000106637075 -0.00020596918 0.00023552513 0.00023357602 0.00015007642 0.00015938995 0.00020021976 -1.0464428e-05
3.360145e-05 -0.000108855194 3.1927688e-05 -1.006134e-05 -0.00017098042 0.00025160864 4.291332e-05 0.00019052972
-6.862938e-05 0.00012975385 0.000104864564 3.1064526e-05 8.351619e-05 0.00021155948 0.34788516 0.00015769692
-0.00013905579 0.00011671615 0.00011297921 8.427605e-05 0.00016255003 4.1178093e-05 7.74346e-05 0.68888074
8.6322325e-05 -7.222165e-05 -7.9233025e-05 0.00013152635 0.0001962858 -4.6520385e-05 -0.00015926785 6.2399486e-06
0.00012161289 -1.105167e-05 0.00018317995 0.000101048456 -8.846489e-05 3.4839308e-05 5.8507707e-05 0.00010929209
-9.281872e-05 -3.115971e-05 -1.4428719e-05 0.5294802 0.00013408261 2.8876399e-05 0.00027788949 0.0001112434
8.172357e-05 0.00020445725 -2.9376912e-05 1.4428358 -0.00014473301 4.8235073e-05 -4.896849e-05 -3.760644e-05
-0.00010477406 -0.0001598804 -2.8193172e-06 9.5244395e-05 0.00016666167 -2.4362787e-05 0.00022797559 -0.0001748652
0.00010815644 3.958546e-05 9.363596e-05 6.690454e-05 0.00019691886 0.00011897867 0.00011765283 8.622362e-05
-0.00017415186 -0.00026830283 -3.2492768e-05 -7.6170225e-05 -0.00014440712 0.000105836094 6.809828e-05 -0.00013637896
6.995634e-05 -0.00014691116 -4.6629662e-05 0.0001422634 0.000104219 0.00010749025 0.00011073543 -0.00018947512
0.000121479476 -6.8722366e-05 -0.00017594839 -8.9970636e-05 -0.00014636021 0.00016463213 2.7330127e-05 -0.00014680074
-2.5531757e-05 -0.000107660206 2.975935e-05 -6.860506e-05 -3.281515e-06 -4.679808e-05 -0.00018016504 9.232518e-05
1.6902792e-05 -7.147755e-05 0.0001473796 -0.00010993499 1.0986009 -4.0850617e-05 -0.000120841636 0.0001668112
0.00014042042 0.00012545285 -3.6872894e-05 -9.00896e-05 -9.453227e-05 0.71200866 2.125723 -3.422986e-05
0.00017796013 0.00019383863 3.7475533e-05 0.00019826602 -3.508026e-05 2.4048233e-05 6.838728e-05 9.030664e-05
8.328963e-05 -3.6491212e-05 0.09355814 3.5361707e-05 -9.4438336e-05 0.0002536108 5.296724e-05 -0.00014234098
1.0151707e-06 0.00016472224 0.00017978485 -0.00011229885 -3.799863e-05 2.3948087e-05 0.5031456 7.223719e-05
-0.000112512265 0.00012050038 -0.00014901678 -3.4819503e-05 6.0636637e-05 -0.00021265993 -2.9702933e-06 -0.00011846387
-0.000105241925 0.00010776674 -5.2791685e-05 0.0001919311 8.6531654e-05 0.00015762587 0.00019235646 5.991052e-05
-0.00010889917 0.00016948563 0.0001735081 0.00019727647 -7.061669e-05 0.00014969436 4.067752e-05 -2.6496258e-05
0.00014344696 -0.00013245152 7.863557e-05 -0.00018900285 0.00023508543 -6.997908e-05 4.400775 9.349485e-05
4.2194006e-05 -9.236511e-05 0.00010704996 -0.00017296853 0.00023460703 -0.00012362366 -1.3881654e-06 -0.00030032708
00000000: be4d 62b9 5061 bc37 1191 31b9 a1a0 3139
00000010: d1bf 1539 b017 ddb8 d14d 2a39 89cf 3eb9
00000020: e8a9 cbb7 e5eb 0139 5740 5939 2286 97b8
00000030: 194d 613f 0e0b 3939 40dc b338 70e4 c238
00000040: 5e90 86b8 c81f 5f39 b259 17b8 809e 963e
00000050: 84fc 4639 9abe fc38 fc2f 85b8 c462 1eb9
00000060: 8089 7036 f013 fd38 a4a7 fe38 b476 2938
00000070: 2d0b 4239 ca86 afb8 3c33 6139 c25f 0b39
00000080: 7164 29b9 3414 4d38 db26 50b9 75d4 3d39
00000090: 89c0 1439 68d9 b4b8 2975 3539 9ecb d138
000000a0: 8081 2fb6 90f4 503f 70a5 0db7 90bf eeb7
000000b0: 9489 3739 74e2 1639 f88b bab8 0135 2fb9
000000c0: e535 33b9 9697 2d39 26f8 853f a080 6637
000000d0: 2a2c 9ab8 c063 3338 26d9 09b9 efd0 4239
000000e0: 4810 6e39 59ac 0fb9 5cec 8bb8 64ea 1038
000000f0: 03e1 2039 7815 b138 b810 abb7 4cbf 3c38
00000100: 58a2 dfb8 6ef9 57b9 4cf7 7639 16ec 7439
00000110: d55d 1d39 ea21 2739 15f2 5139 6090 2fb7
00000120: 48ef 0c38 3049 e4b8 18ea 0538 20cd 28b7
00000130: 3549 33b9 57ea 8339 d4fd 3338 efc8 4739
00000140: 1eed 8fb8 890e 0839 bcea db38 484b 0238
00000150: 6a25 af38 11d6 5d39 011e b23e 725b 2539
00000160: 81cf 11b9 82c5 f438 40ef ec38 5cbd b038
00000170: 3172 2a39 a4b6 2c38 6264 a238 7d5a 303f
00000180: f207 b538 b475 97b8 e829 a6b8 56ea 0939
00000190: 11d2 4d39 e21e 43b8 2301 27b9 c060 d136
000001a0: 6c0a ff38 906a 39b7 fe13 4039 fae9 d338
000001b0: 3a86 b9b8 6c20 1238 2c66 7538 be33 e538
000001c0: aca7 c2b8 7cb1 02b8 e012 72b7 048c 073f
000001d0: 8798 0c39 983b f237 b2b1 9139 584b e938
000001e0: 0263 ab38 9363 5639 706e f6b7 d8ae b83f
000001f0: 79c3 17b9 0450 4a38 8463 4db8 9cbb 1db8
00000200: 25ba dbb8 91a5 27b9 8033 3db6 f2bd c738
00000210: e7c1 2e39 b05e ccb7 bb0c 6f39 055c 37b9
00000220: 0cd2 e238 9008 2638 6c5e c438 1a4f 8c38
00000230: 017c 4e39 3084 f938 62bc f638 f4d2 b438
00000240: 899c 36b9 ffaa 8cb9 d848 08b8 94bd 9fb8
00000250: fe6b 17b9 52f4 dd38 fccf 8e38 f300 0fb9
00000260: 86b5 9238 2a0c 1ab9 3894 43b8 8a2c 1539
00000270: 2690 da38 636c e138 a23a e838 d7ad 46b9
00000280: ccc2 fe38 0a1f 90b8 c97e 38b9 9eae bcb8
00000290: 4578 19b9 1aa1 2c39 0043 e537 86ee 19b9
000002a0: 082d d6b7 a2c7 e1b8 b8a3 f937 10e0 8fb8
000002b0: 0038 5cb6 0e49 44b8 afea 3cb9 b49e c138
000002c0: 78ca 8d37 38e6 95b8 e989 1a39 e68c e6b8
000002d0: f49e 8c3f 0457 2bb8 5c6c fdb8 0aea 2e39
000002e0: d23d 1339 fe8b 0339 f8a7 1ab8 7cee bcb8
000002f0: a03f c6b8 3346 363f d80b 0840 0892 0fb8
00000300: cf9a 3a39 2941 4b39 0c2f 1d38 a1e5 4f39
00000310: 2423 13b8 30bb c937 246b 8f38 0263 bd38
00000320: c8ab ae38 240e 19b8 699b bf3d 5851 1438
00000330: 320d c6b8 11f7 8439 2429 5e38 5e41 15b9
00000340: 0041 8835 4ab9 2c39 a184 3c39 fc81 ebb8
00000350: b860 1fb8 20e4 c837 26ce 003f 0c7e 9738
00000360: 90f4 ebb8 26b5 fc38 6341 1cb9 280b 12b8
00000370: 1854 7e38 77fd 5eb9 4055 47b6 ce6f f8b8
00000380: 54b5 dcb8 d400 e238 a46c 5db8 1d41 4939
00000390: 5478 b538 5f48 2539 4bb3 4939 6e48 7b38
000003a0: cc60 e4b8 f4b7 3139 baef 3539 00dc 4e39
000003b0: 0c18 94b8 46f7 1c39 289d 2a38 4844 deb7
000003c0: 406a 1639 afe2 0ab9 26e9 a438 112f 46b9
000003d0: 4481 7639 bcc1 92b8 26d3 8c40 aa12 c438
000003e0: 78f9 3038 24b4 c1b8 0280 e038 e35e 35b9
000003f0: d800 7639 f9a0 01b9 0051 bab5 3875 9db9

bias f4 [5]
1.0864003 -2.3047435 -0.9361801 -2.5184093 0.18970259
00000000: 2a0f 8b3f eb80 13c0 80a9 6fbf 9e2d 21c0
00000010: 6541 423e

weight f4 [361, 5]
0.00010299239 -0.00015352778 -4.7858208e-05 -8.695191e-06 -0.00011327311 2.491023e-05 0.00011295326 -4.9644543e-05
-0.0001318876 -0.00010067361 -0.00012147367 -1.845631e-05 -9.75712e-05 0.00018961828 -0.00010623477 -0.00025657692
1.1090255e-05 2.3055487e-05 -1.2280085e-05 8.147494e-05 -9.21544e-05 2.4172492e-05 -2.5565576e-05 0.000109686574
-7.2385796e-05 0.20065074 -1.6164871e-05 9.2339e-05 1.6618185e-05 -4.9220806e-05 -6.62894e-05 0.00021192299
9.1887996e-05 -0.000119056305 -2.7618618e-05 2.2317137e-05 -3.8071856e-05 0.00011056833 -5.7721045e-06 -0.0001303702
0.27238846 -6.20879e-05 -0.0003550685 3.0367737e-05 0.0001923077 0.00010006833 -3.7191465e-05 -0.00012903742
3.272004e-05 -0.00018016383 0.2996298 -0.00030531734 0.00026947242 -0.0003667581 -0.00010722669 -0.116302244
0.00013644784 -6.375511e-05 -0.00012120443 8.744578e-05 -0.15172079 -0.7683488 -1.1134805e-05 -0.75477386
-0.32539946 -3.5474237e-05 -0.0001616048 -0.00023103297 0.0001288712 -0.00014010572 0.49640855 -0.12940672
-0.00012453362 -0.016965091 -3.6361e-05 0.0001532368 0.00011642525 0.00021114766 -0.00013218465 -3.746376e-05
-5.2118572e-05 -0.0001538856 -1.8533545e-05 -0.0004160971 0.00012116994 -0.10621862 -0.022525668 -0.076118626
-7.5378295e-05 6.658312e-05 -5.2982505e-06 -0.46036896 -0.00015613352 -0.4245028 0.00011677509 0.94442403
-0.3613361 -0.00026899885 -0.107945584 0.0709607 0.00016297246 -0.00014603992 -0.00012773531 9.29285e-05
-0.00015250218 5.4740303e-05 -4.894944e-06 0.000110842164 0.00015534999 6.8782974e-06 0.0001549799 -5.3219264e-05
-9.81017e-05 -0.00010228348 8.804619e-05 5.7164725e-06 -0.00015732092 0.00014139645 -9.984797e-07 5.7883226e-05
-1.871708e-05 -0.00010926182 0.00015870889 -5.342513e-05 5.629183e-05 0.00015128095 -0.0001646124 -0.00023280238
-0.0003386563 -2.3749075e-05 -5.031198e-05 -0.10553865 0.00023452072 -0.17778619 0.00025935986 2.8676674e-05
-1.4965728e-05 -0.00020759148 0.00016079866 -0.0001931873 -0.0002005435 0.0001330736 0.0002082695 0.094465345
9.079039e-05 0.00014872765 -9.400943e-05 4.0118524e-05 0.00014137571 -3.9949446e-05 0.69890445 -0.00036645078
-8.1040314e-05 -0.0025415935 -0.00026072707 0.00016373681 -7.200187e-05 -0.00014929568 -0.00014919374 -0.0001784916
0.1893334 -0.00048001087 4.65629e-05 -0.0007317811 0.000121099234 0.61083245 -5.0112423e-05 -0.00015954819
-0.070171565 -9.456166e-05 0.11731373 -0.00014397394 0.00022450161 -0.00028056098 -7.4344644e-06 9.246252e-05
-0.00033066177 -0.09618763 -0.00026061462 2.4774534e-05 -0.0002049321 0.034784123 0.00020738358 0.00019267702
-7.4205105e-05 0.3657852 -8.771571e-05 -0.00019613847 -2.0156709e-05 -0.00022982749 0.00021297745 -8.8233064e-05
-2.7077534e-05 1.7758153e-05 0.00014162651 -6.5872024e-05 -8.482511e-05 7.2255934e-05 2.372505e-05 1.1986056e-05
4.7202324e-05 0.0003356834 5.5315904e-06 4.190101e-05 -0.00018475924 -0.89009243 -0.68500924 -0.00017027688
-0.9596959 -0.00031805687 0.00019108776 -6.0885402e-05 -9.6359494e-05 0.00015407786 9.104813e-06 -1.887606e-05
6.291746e-05 -2.3095781e-06 0.00024002897 -0.00025770447 0.0001967848 -2.71709e-06 0.00015399262 0.00011426966
-0.00018706825 -6.195776e-05 -8.883848e-05 -0.00017982081 -9.216624e-05 8.7215376e-05 -7.1105766e-05 5.7151905e-05
-4.3717737e-05 -7.633376e-05 0.00012509302 -9.297898e-05 0.0003034683 0.00011650786 0.00028864792 3.0729716e-05
-4.7060632e-05 0.059429225 0.00016384221 0.00029460603 4.2610045e-06 0.0002694829 -9.630836e-06 4.186557e-06
-6.758241e-05 -0.0001133363 -0.9238929 -0.056395806 -0.64709234 -1.479147 0.2905427 4.659136e-05
00000000: 9efd d738 4dfc 20b9 5cbb 48b8 90e1 11b7
00000010: 0a8d edb8 50f6 d037 52e1 ec38 6c39 50b8
00000020: 4f4b 0ab9 bc20 d3b8 aebf feb8 a0d2 9ab7
00000030: 249f ccb8 45d4 4639 5cca deb8 2c85 86b9
00000040: 4810 3a37 4867 c137 9006 4eb7 86dd aa38
00000050: 0443 c1b8 08c6 ca37 a875 d6b7 8807 e638
00000060: d4cd 97b8 6377 4d3e cc99 87b7 20a6 c138
00000070: 4867 8b37 7072 4eb8 da04 8bb8 a537 5e39
00000080: feb3 c038 dead f9b8 88ae e7b7 b035 bb37
00000090: 58af 1fb8 ece0 e738 00ae c1b6 fcb3 08b9
000000a0: 8076 8b3e 3035 82b8 7d28 bab9 38be fe37
000000b0: 35a6 4939 c7db d138 08fe 1bb8 384e 07b9
000000c0: e03c 0938 5cea 3cb9 1469 993e 0013 a0b9
000000d0: fa47 8d39 7049 c0b9 e4de e0b8 df2f eebd
000000e0: 7013 0f39 44b4 85b8 222f feb8 1863 b738
000000f0: b25c 1bbe 82b2 44bf a0cf 3ab7 dc38 41bf
00000100: c29a a6be 2cca 14b8 7574 29b9 7141 72b9
00000110: 9921 0739 58e9 12b9 4329 fe3e 3283 04be
00000120: 3d95 02b9 60fa 8abc 5482 18b8 31ae 2039
00000130: 5529 f438 8567 5d39 0c9b 0ab9 6822 1db8
00000140: e499 5ab8 5a5c 21b9 7c78 9bb7 9b27 dab9
00000150: 9e1c fe38 2689 d9bd c087 b8bc 15e4 9bbd
00000160: 6a14 9eb8 8aa2 8b38 a0c7 b1b6 7bb5 ebbe
00000170: c6b7 23b9 6e58 d9be 26e5 f438 c6c5 713f
00000180: 0c01 b9be 6a08 8db9 9312 ddbd d853 913d
00000190: 96e3 2a39 4b22 19b9 b0f0 05b9 9ce2 c238
000001a0: fee8 1fb9 f498 6538 403f a4b6 ef73 e838
000001b0: 72e5 2239 20cc e636 1a82 2239 c037 5fb8
000001c0: f3bb cdb8 0681 d6b8 70a5 b838 20d0 bf36
000001d0: 83f6 24b9 d243 1439 8003 86b5 a4c7 7238
000001e0: a002 9db7 7e23 e5b8 186b 2639 cc14 60b8
000001f0: e41a 6c38 2ca1 1e39 ce9b 2cb9 6a1c 74b9
00000200: ae8d b1b9 c038 c7b7 1406 53b8 a624 d8bd
00000210: ade9 7539 950d 36be b1fa 8739 b08e f037
00000220: 5015 7bb7 eaac 59b9 109c 2839 5292 4ab9
00000230: fc48 52b9 ac89 0b39 eb62 5a39 0c77 c13d
00000240: b866 be38 c6f3 1b39 ee26 c5b8 f044 2838
00000250: 413e 1439 648f 27b8 67eb 323f 3120 c0b9
00000260: 30f4 a9b8 dd90 26bb 32b2 88b9 c4b0 2b39
00000270: b6ff 96b8 418c 1cb9 e470 1cb9 7929 3bb9
00000280: 9de0 413e f8a9 fbb9 884c 4338 00d5 3fba
00000290: a8f6 fd38 845f 1c3f ce2f 52b8 644c 27b9
000002a0: 1cb6 8fbd 684f c6b8 2e42 f03d b6f7 16b9
000002b0: 3168 6b39 4218 93b9 9075 f9b6 70e8 c138
000002c0: ac5c adb9 05fe c4bd 1aa3 88b9 e8d2 cf37
000002d0: 0be3 56b9 cc79 0e3d 1b75 5939 5809 4a39
000002e0: 909e 9bb8 3348 bb3e 03f4 b7b8 85aa 4db9
000002f0: 3416 a9b7 d9fd 70b9 b352 5f39 c409 b9b8
00000300: 9024 e3b7 58f7 9437 9481 1439 c624 8ab8
00000310: 22e4 b1b8 1c88 9738 2805 c737 b817 4937
00000320: 1cfb 4538 aafe af39 009c b936 debe 2f38
00000330: eebb 41b9 19dd 63bf c45c 2fbf 5a8c 32b9
00000340: a1ae 75bf dfc0 a6b9 bb5e 4839 345f 7fb8
00000350: 9c14 cab8 f68f 2139 e0c0 1837 0858 9eb7
00000360: 8ef2 8338 40fe 1ab6 49b0 7b39 821c 87b9
00000370: 0458 4e39 4057 36b6 1479 2139 0ea4 ef38
00000380: c027 44b9 52ef 81b8 cc4e bab8 488e 3cb9
00000390: 6049 c1b8 66e7 b638 9e1e 95b8 64b6 6f38
000003a0: 905d 37b8 6015 a0b8 672b 0339 b6fd c2b8
000003b0: d31a 9f39 ae55 f438 ab55 9739 c8e3 0038
000003c0: f862 45b8 0f6c 733d 0fcd 2b39 5a75 9a39
000003d0: c0f9 8e36 6249 8d39 2094 21b7 407a 8c36
000003e0: 08bb 8db8 f6ae edb8 3f84 6cbf 4aff 66bd
000003f0: d8a7 25bf b054 bdbf 03c2 943e 186b 4338

bias f4 [361]
-3.8251397e-05 -9.953903e-05 -0.00014704165 -0.00034600362 3.5920617e-05 0.00027270167 -0.00016348083 -0.0002087247
0.00028564772 0.0002927371 0.00035805642 -4.6222514e-05 1.1387161 0.00019621439 0.02527251 -9.5195275e-05
0.00031590226 0.0003550653 0.42067543 0.20520821 -0.000115917486 -0.00020831883 7.9200734e-05 1.1512573e-05
5.291839e-05 8.127072e-05 0.121955425 0.00014365796 -0.00019137654 -0.00024163547 0.0038449552 2.8138209e-05
0.00065465155 0.05550661 0.018015895 0.000120388395 -0.00021022272 6.807995e-05 0.00022314326 1.006278e-05
-0.090952665 1.3085073 -7.703222e-05 0.00014201927 -5.9547747e-06 -5.7715457e-05 -3.347604e-05 -0.00023207461
-0.00029401263 0.00014938654 2.0984223 0.000101098674 0.00010505704 -0.00023049163 -0.00012598892 0.3792321
-2.4277775e-05 -0.00027475512 -0.00015260979 0.0002704414 0.044179954 -0.00015319724 -0.00016048235 0.00013496139
0.49810478 0.000109714136 0.00017687255 0.00015099459 -0.00010439724 -0.00022116829 0.000117739175 1.4610519e-05
-8.2190425e-05 0.00020987871 0.00013018958 2.6074369e-05 -0.0003583129 0.11670257 5.668393e-06 0.10640314
-6.858293e-05 -0.0014744101 1.2651217e-05 0.0002802514 -0.00020038431 0.00029314816 0.7273586 0.012655998
-0.00017652429 -9.746567e-05 -0.0001497259 -0.00016075044 -0.056398403 3.39087e-05 -7.142668e-05 0.7362088
-4.9792587e-05 -7.419604e-05 -0.00017448336 -0.00021249335 -9.763364e-05 0.46777034 -0.0002506222 -0.00028721377
-8.217526e-05 2.7628615e-05 -0.00013638001 0.00011359709 0.00013664697 2.3601577e-05 7.5978125e-05 -0.00015801465
-0.00024542367 1.3505691e-05 0.23083922 1.1301839 0.00011222009 -4.9805807e-05 0.0003833496 3.4709694e-05
-9.266337e-05 1.7480008e-05 -3.075e-05 1.5978134 -0.00026809372 -0.041649763 -0.00018866823 0.016496876
0.00037973234 1.760538e-06 -0.00014637152 -0.00019128589 -0.0002446264 7.464137e-05 0.0004733548 -0.06404955
-9.386837e-05 -0.00017487508 0.00011721956 -0.00012280341 -2.9182207e-05 9.9426674e-05 -3.374245e-05 2.2797569e-05
-0.00016005611 0.00013898745 1.1023098e-05 4.2275788e-05 -0.10510179 2.6533493e-05 -1.7611714e-05 -0.0002456084
3.312863e-05 -8.736034e-05 -0.00017759451 -3.2284308e-05 -0.00025471946 3.3676304e-05 -0.00014128571 -0.0003041071
-0.0002476644 0.32687554 -0.00017734716 2.0088948e-05 0.00025148547 -6.0427083e-05 0.00014921534 0.000103382394
0.00017843516 4.5483233e-05 -0.0001593936 0.00014832047 5.7809215e-05 0.024554892 4.1507068e-05 0.00019832116
-0.00014134773 0.00011972358 -0.00011228668 0.00012603168 1.2566937 0.09477146 1.6140366e-05 0.021817721
0.0001479797 -9.6266245e-05 -0.00020696924 -9.6460324e-05 -4.196279e-05 0.99137926 1.9984963 -7.3111325e-05
-0.097186096 -9.9647885e-05 -0.00011071164 -0.00035222017 0.00019727407 5.5719327e-05 0.08920075 0.00014264723
0.00040732606 -0.06064455 0.45077577 0.00020769618 -0.00015160347 0.00033701488 -0.087907575 5.9068378e-05
0.1099669 -6.275982e-05 -0.00019619717 -4.94736e-06 -0.03613858 6.4142514e-05 0.8810356 -0.00016202735
0.28662667 -9.758561e-05 0.00012142629 7.3338815e-06 -0.00022915506 0.00021070962 -8.270741e-06 0.00016397369
0.13095874 0.0002547853 -0.097022235 0.0002574317 0.00015730613 -5.9263853e-05 -0.00022746407 0.04945941
-0.00025913058 0.00025080677 5.7883983e-05 0.0001870946 1.7678805e-05 -9.8983226e-05 3.9742736e-06 -0.00032757444
-0.00019842274 0.00013129022 -8.5680105e-05 -0.087302744 0.00024203927 -6.629148e-05 4.687573 -6.2193576e-05
-0.00027362016 2.699874e-05 -0.00031319022 -0.00014902404 -9.073022e-05 -0.04187721 -0.00021441447 0.0001449463
00000000: 2070 20b8 9cbf d0b8 312f 1ab9 d267 b5b9
00000010: 78a9 1638 66f9 8e39 0d6c 2bb9 1cdd 5ab9
00000020: fdc2 9539 827a 9939 85b9 bb39 0cdf 41b8
00000030: 73c1 913f e6be 4d39 4b08 cf3c 93a3 c7b8
00000040: af9f a539 0f28 ba39 c562 d73e 1a22 523e
00000050: ba18 f3b8 2970 5ab9 9218 a638 2026 4137
00000060: b0f4 5d38 e36f aa38 c4c3 f93d e4a2 1639
00000070: 40ac 48b9 875f 7db9 a5fb 7b3b 580a ec37
00000080: ec9c 2b3a e65a 633d 1296 933c 0779 fc38
00000090: 3b6f 5cb9 25c6 8e38 90fb 6939 50d3 2837
000000a0: 6445 babd 2b7d a73f 5c8c a1b8 02eb 1439
000000b0: 20cf c7b6 8013 72b8 a068 0cb8 0e59 73b9
000000c0: b525 9ab9 a5a4 1c39 8d4c 0640 f004 d438
000000d0: 1252 dc38 20b0 71b9 e51b 04b9 b62a c23e
000000e0: 20a8 cbb7 020d 90b9 e105 20b9 08ca 8d39
000000f0: 0af6 343d 92a3 20b9 2747 28b9 6c84 0d39
00000100: 9707 ff3e 5416 e638 dd76 3939 4d54 1e39
00000110: d7ef dab8 69e9 67b9 bdea f638 b41f 7537
00000120: a65d acb8 e312 5c39 8083 0839 48ba da37
00000130: f1db bbb9 c201 ef3d 2033 be36 e4e9 d93d
00000140: 2ed4 8fb8 fe40 c1ba 9040 5437 b5ee 9239
00000150: 411e 52b9 aeb1 9939 2c34 3a3f 1a5b 4f3c
00000160: 6119 39b9 7c66 ccb8 beff 1cb9 1e8f 28b9
00000170: 0302 67bd 3039 0e38 e8ca 95b8 2e78 3c3f
00000180: 62d8 50b8 b299 9bb8 85f5 36b9 c0d0 5eb9
00000190: a9c0 ccb8 987f ef3e f165 83b9 2e95 96b9
000001a0: 8255 acb8 00c4 e737 3b01 0fb9 f93a ee38
000001b0: e448 0f39 00fc c537 7256 9f38 bcb0 25b9
000001c0: 35ac 80b9 8096 6237 1e61 6c3e dea9 903f
000001d0: b457 eb38 94e6 50b8 50fc c839 4095 1138
000001e0: 4554 c2b8 08a2 9237 90f9 00b8 2685 cc3f
000001f0: ee8e 8cb9 f198 2abd 3ed5 45b9 7524 873c
00000200: d016 c739 a04b ec35 4e7b 19b9 ea93 48b9
00000210: 3341 80b9 c888 9c38 9b2c f839 692c 83bd
00000220: 33db c4b8 ac5e 37b9 c6d3 f538 cac4 00b9
00000230: 50cc f4b7 4a83 d038 ae86 0db8 683d bf37
00000240: bcd4 27b9 29bd 1139 d8ef 3837 4851 3138
00000250: 9b3f d7bd 3e94 de37 debc 93b7 00c5 80b9
00000260: 98f3 0a38 3a35 b7b8 aa38 3ab9 0369 07b8
00000270: de8b 85b9 a83f 0d38 1826 14b9 9070 9fb9
00000280: f4d8 81b9 3b5c a73e 44f6 39b9 b084 a837
00000290: cfd9 8339 1673 7db8 b076 1c39 00cf d838
000002a0: 531a 3b39 40c5 3e38 e522 27b9 7986 1b39
000002b0: 2c78 7238 5727 c93c e017 2e38 6ef4 4f39
000002c0: be36 14b9 1c14 fb38 747b ebb8 5f27 0439
000002d0: 57db a03f 8a17 c23d 2c65 8737 14bb b23c
000002e0: 002b 1b39 8ce2 c9b8 e205 59b9 be4a cab8
000002f0: 3401 30b8 08cb 7d3f bace ff3f 5853 99b8
00000300: 8109 c7bd 0dfa d0b8 dc2d e8b8 31aa b8b9
00000310: 5bdb 4e39 2cb4 6938 e2ae b63d 9393 1539
00000320: 618e d539 6b66 78bd 15cc e63e 05c9 5939
00000330: bff7 1eb9 5fb1 b039 e308 b4bd 30c0 7738
00000340: 5336 e13d ec9d 83b8 47ba 4db9 8001 a6b6
00000350: 0c06 14bd 4084 8638 8d8b 613f e3e5 29b9
00000360: bbc0 923e e0a6 ccb8 3ea6 fe38 9015 f636
00000370: 5849 70b9 eff1 5c39 90c2 0ab7 5af0 2b39
00000380: 0c1a 063e b494 8539 98b3 c6bd e6f7 8639
00000390: 8bf2 2439 1492 78b8 6c83 6eb9 f395 4a3d
000003a0: ebdb 87b9 b77e 8339 74c8 7238 d32e 4439
000003b0: f24c 9437 3795 cfb8 c05a 8536 4cbe abb9
000003c0: b30f 50b9 f3aa 0939 28af b3b8 c8cb b2bd
000003d0: eccb 7d39 f805 8bb8 9900 9640 ec6d 82b8
000003e0: ad74 8fb9 5a7b e237 ae33 a4b9 5643 1cb9
000003f0: 6a46 beb8 7087 2bbd 72d4 60b9 bafc 1739
