iterative_k_clustering_breast_cancer/training_on_clusterings/K_1/cluster_1/training_results/cluster_0_model.pt (torch, 20815 bytes, 4 tensors)

weight f4 [5, 426]
0.00018471392 -0.00016770962 -0.000102782025 -0.00010117906 0.00014598013 -1.461136e-05 4.7149588e-05 9.871165e-05
8.590621e-06 8.0702375e-05 7.9319594e-05 -0.0001766596 0.4636511 0.00012959768 9.053881e-05 -8.9878915e-05
-0.000120400495 7.079315e-05 -1.2463541e-05 5.0369163e-05 -0.00013464228 -5.475529e-05 -9.6890464e-05 8.270156e-05
-0.00011486375 -0.00012578946 -4.3852895e-05 0.00017775146 -8.764517e-05 -8.085137e-05 -0.00017860536 0.00018524154
0.00020821042 4.1601583e-05 -2.6423717e-05 5.826805e-05 0.00011548048 0.00020175938 -4.4327302e-05 0.000101899655
4.957772e-05 -0.0001553362 -0.00016505718 -3.354215e-05 0.10550803 3.8363636e-05 6.28479e-05 6.412287e-06
0.00013903591 -0.00014436517 9.394238e-05 -0.00012162245 -3.6662677e-05 0.00016226101 0.00011101269 1.3754153
4.9485505e-05 -4.0211322e-05 0.00016630207 0.00021901497 -0.00013176072 6.573755e-06 -5.879115e-05 -0.00013843099
1.9642204e-05 4.3486973e-05 6.5249886e-05 0.00015263214 0.00017420232 -4.0998857e-06 1.6042039e-05 -0.00018056686
0.0001434419 -5.0921633e-05 0.00022247038 0.00018991606 9.233138e-05 7.904052e-05 -7.289498e-05 -0.00011751843
0.00019233536 -9.125679e-05 -2.8660143e-05 -4.1632346e-05 -0.00012326497 -0.00014987723 -0.00011589154 9.158018e-05
6.245558e-05 0.00013433602 0.00016033427 -3.550829e-05 0.00016048412 -2.2681736e-05 0.00010417256 -9.392429e-05
9.956084e-05 -3.146613e-05 0.0001383753 7.32138e-05 -5.3222204e-05 9.87932e-05 6.203751e-05 7.445749e-05
5.1639727e-05 0.57396084 6.0866587e-05 -0.00011981283 -0.00010513197 0.00018206505 -9.7849625e-05 0.00014794874
-0.000115894465 -8.7681125e-05 0.00017192439 -0.00017457757 -2.536591e-05 -5.532203e-05 2.8513125e-05 4.1774503e-05
5.9207232e-05 0.00012427484 -0.0001304711 -4.2320855e-05 0.00013978194 0.00018070306 -5.4804346e-05 -1.2679782e-05
-6.0524777e-05 8.119241e-07 3.4591358e-07 1.2856719e-05 0.00010918075 1.1484545 0.00020514618 -5.9425918e-05
2.8082082e-05 7.8219455e-06 -8.5704814e-05 -0.00015751438 -5.4890217e-05 0.0001285554 -0.00018885497 2.5058602e-05
3.9974868e-05 5.267502e-07 8.70434e-05 -9.9071636e-05 -2.7527101e-05 -2.704715e-05 -0.00019245598 5.5680794e-05
-0.00012458711 -1.8474922e-05 -0.00011851371 7.6768e-05 -0.00011953263 0.00019835298 5.090247e-05 0.00018353041
8.510961e-05 -0.00012927754 -0.00016310492 8.017004e-05 0.00017597147 0.00020337391 -1.8051651e-06 -8.4815416e-05
-6.935766e-05 2.527477e-05 -0.00017852524 -1.1100186e-05 0.00017683386 0.0001913986 -0.000117350675 0.00015620816
-0.00012472211 -0.00014990626 6.217341e-05 -0.00016981285 -0.00013303882 -4.6550733e-05 -0.00014549775 -0.00010822146
-7.5513104e-05 9.734354e-05 6.0533857e-05 -0.00015098718 0.00014781837 0.00013450453 -1.1225726e-05 -6.634071e-05
0.000121381774 6.880607e-05 0.00013161493 2.436836e-05 0.00012353715 0.5025231 0.0002537368 0.0001755563
-2.120297e-05 9.397854e-05 -0.00014511176 -6.2818144e-06 0.00017957338 0.00012783808 0.26933843 0.9886395
-0.00011286017 -0.00010010216 5.9003374e-05 -6.5192275e-05 0.000120341836 -4.2175234e-06 -0.00017424763 8.31786e-06
4.6173678e-05 -5.164329e-07 0.00010144751 0.00010329703 0.0001877644 1.1819036e-05 -0.0001610193 -0.000104550534
1.0687363e-06 0.00021567254 -0.000119218006 -0.0001402518 -0.00012732724 5.3534415e-05 -3.4194556e-05 8.693198e-05
-7.255454e-06 0.00021295229 7.856176e-05 -3.5538702e-05 -0.00011394861 2.565005e-05 0.00011220151 0.309722
-0.00018769085 0.00023635027 -5.748647e-06 4.48942e-05 -0.0001625946 9.013564e-05 5.7039302e-05 -0.00016945653
0.00022833716 0.00020635025 8.41241e-05 5.8677833e-05 6.56114e-05 0.00011932927 -3.8085185e-05 -0.00010404609
00000000: c4af 4139 35db 2fb9 ae8c d7b8 1830 d4b8
00000010: 3e12 1939 5023 75b7 7cc2 4538 6a03 cf38
00000020: 7020 1037 c23e a938 6258 a638 b33d 39b9
00000030: ad63 ed3e 9de4 0739 a7df bd38 607d bcb8
00000040: 867f fcb8 c876 9438 801a 51b7 7a43 5338
00000050: c32e 0db9 0ca9 65b8 ac31 cbb8 1070 ad38
00000060: 02e3 f0b8 5ae6 03b9 b0ee 37b8 cb62 3a39
00000070: 24ce b7b8 c08e a9b8 0348 3bb9 663d 4239
00000080: 0f53 5a39 5c7d 2e38 80a8 ddb7 d864 7438
00000090: 1c2e f238 5f8f 5339 14ec 39b8 f6b2 d538
000000a0: acf1 4f38 bee1 22b9 3313 2db9 9caf 0cb8
000000b0: 9814 d83d a4e8 2038 36cd 8338 2029 d736
000000c0: 2bca 1139 bb60 17b9 ee02 c538 8e0f ffb8
000000d0: 40c6 19b8 9c24 2a39 7ccf e838 9c0d b03f
000000e0: a88e 4f38 94a8 28b8 5f61 2e39 62a7 6539
000000f0: 4029 0ab9 2094 dc36 8496 76b8 c927 11b9
00000100: 50c5 a437 c865 3638 c4d6 8838 e10b 2039
00000110: 14aa 3639 c091 89b6 0492 8637 8c56 3db9
00000120: e468 1639 b094 55b8 f046 6939 3424 4739
00000130: 08a2 c138 8ec2 a538 32df 98b8 3a74 f6b8
00000140: a1ad 4939 1e61 bfb8 306b f0b7 649e 2eb8
00000150: b040 01b9 5d28 1db9 cc0a f3b8 bc0e c038
00000160: 96fa 8238 8ddc 0c39 671f 2839 bcee 14b8
00000170: a147 2839 a844 beb7 3877 da38 38f9 c4b8
00000180: 52cb d038 80fa 03b8 d618 1139 5c8a 9938
00000190: e83a 5fb8 322f cf38 221a 8238 1026 9c38
000001a0: bc97 5838 19ef 123f 004b 7f38 0644 fbb8
000001b0: 4c7a dcb8 b7e8 3e39 9e34 cdb8 b022 1b39
000001c0: 5e0c f3b8 72e1 b7b8 9a46 3439 cf0e 37b9
000001d0: e0c8 d4b7 9409 68b8 782f ef37 0837 2f38
000001e0: 4855 7838 c64f 0239 12cf 08b9 ac81 31b8
000001f0: 6e92 1239 1c7b 3d39 b8dd 65b8 40bb 54b7
00000200: fcdb 7db8 00f3 5935 00b6 b934 30b3 5737
00000210: f8f7 e438 8f00 933f 821c 5739 1840 79b8
00000220: d091 eb37 003b 0337 6cbc b3b8 722a 25b9
00000230: ec39 66b8 d4cc 0639 5f07 46b9 f034 d237
00000240: b0aa 2738 0066 0d35 128b b638 aec4 cfb8
00000250: 00ea e6b7 50e3 e2b7 02ce 49b9 cc8a 6938
00000260: 99a3 02b9 98fa 9ab7 908a f8b8 82fe a038
00000270: 98ad fab8 f9fc 4f39 1c80 5538 1272 4039
00000280: e07c b238 ad8e 07b9 2507 2bb9 f620 a838
00000290: fb84 3839 c540 5539 0049 f2b5 eede b1b8
000002a0: 1c74 91b8 2805 d437 8132 3bb9 f03a 3ab7
000002b0: 7a6c 3939 2cb2 4839 2a1a f6b8 cfcb 2339
000002c0: d6c7 02b9 2830 1db9 1863 8238 ca0f 32b9
000002d0: 5680 0bb9 783f 43b8 c190 18b9 f4f4 e2b8
000002e0: ca5c 9eb8 ea24 cc38 bce5 7d38 5052 1eb9
000002f0: b1ff 1a39 c909 0d39 2056 3cb7 6620 8bb8
00000300: 588e fe38 fa4b 9038 1d02 0a39 a86a cc37
00000310: c089 0139 5ba5 003f fa07 8539 8915 3839
00000320: 08dd b1b7 5816 c538 2429 18b9 60c8 d2b6
00000330: dd4b 3c39 460c 0639 bae6 893e 7a17 7d3f
00000340: 58af ecb8 f0ed d1b8 647a 7738 d6b7 88b8
00000350: 0860 fc38 4084 8db6 3eb6 36b9 f08c 0b37
00000360: 9caa 4138 00a1 0ab5 38c0 d438 2ca1 d838
00000370: 9fe2 4439 604a 4637 4ad7 28b9 2442 dbb8
00000380: 8071 8f35 2826 6239 ae04 fab8 8e10 13b9
00000390: 2583 05b9 248a 6038 206c 0fb8 404f b638
000003a0: e073 f3b6 f24b 5f39 86c1 a438 640f 15b8
000003b0: b2f7 eeb8 102b d737 ba4d eb38 e293 9e3e
000003c0: e1ce 44b9 cbd4 7739 80e4 c0b6 c84c 3c38
000003d0: 287e 2ab9 3407 bd38 7c3d 6f38 24b0 31b9
000003e0: ca6d 6f39 b95f 5839 c86b b038 d81c 7638
000003f0: da98 8938 6a40 fa38 a8bd 1fb8 5233 dab8

bias f4 [5]
0.63649905 -2.2803216 -2.4961588 -0.50472164 -1.3547664
00000000: 9af1 223f caf0 11c0 11c1 1fc0 7035 01bf
00000010: fc68 adbf

weight f4 [406, 5]
0.0001269269 1.7349055e-05 3.4787576e-05 0.00017638781 -1.5271828e-05 -2.837993e-05 3.315443e-05 6.2207226e-05
0.00018979385 0.00020535677 -0.8794552 -0.2755978 -0.85109085 1.0594304e-05 -0.13692448 0.00011560839
0.00012218174 0.00018231942 -0.00010404528 0.00022313367 2.2512133e-05 -7.2594994e-06 0.00019753276 -4.469359e-06
-0.00016585829 0.00027464156 -0.00034156247 -8.449889e-05 -0.000174578 6.551537e-05 -5.2275936e-05 -8.697489e-05
-0.00018013368 1.8964609e-05 0.0001480871 2.8646107e-05 2.5180736e-05 0.00015800136 -5.232208e-05 -0.00022308604
1.1900425e-05 -2.1281367e-05 -0.00027321262 -2.3492117e-05 0.00010648444 8.414149e-05 5.7003417e-06 -0.00024410785
-9.0430796e-05 1.2113684e-05 0.00029106945 -6.135953e-05 -9.460423e-05 5.6795354e-05 0.00022307332 -1.7771818e-06
8.63709e-05 -6.8148875e-05 4.6103174e-05 -1.0574586e-05 0.00012791916 -0.37956223 -0.719321 -0.00027226968
-0.4680084 -0.0001635674 -0.00037580417 -0.00016800345 -0.00015454688 -0.00011032502 0.00020202844 -0.44810227
-0.08461221 9.917188e-06 -1.5052356e-05 -6.6514403e-06 2.227968e-05 8.832596e-05 -3.272231e-05 6.0888313e-05
1.786415e-05 -5.0508417e-05 -0.00025492982 -8.2626604e-05 -3.884807e-05 5.851788e-05 -0.0001240172 -1.39601325e-05
4.507399e-05 -0.00020848667 -0.00010225846 -0.5315498 -0.20481174 5.901994e-05 -0.023918131 0.17885688
-0.28362215 -0.034629002 3.2628974e-05 0.000113531074 0.00017360134 -0.00016401781 4.09162e-06 -0.0001314901
0.000116389565 -0.00012102573 0.00027455532 3.602625e-06 0.00013273394 -3.6989586e-05 -0.00018153751 -6.4935084e-05
-0.0001044898 7.4413285e-05 -5.679218e-05 -0.00017081988 -5.0774164e-05 -5.935834e-05 -4.2656582e-05 0.000119583216
-8.814334e-05 0.00014157682 -0.0001549759 5.75732e-07 0.00017627729 0.0001330043 8.359106e-05 1.1201977e-05
0.00015811289 -0.00014059318 -3.8381157e-05 0.00021029335 9.7583485e-05 -0.00011982069 6.9897826e-05 0.00014372164
-0.00011499121 5.1674637e-05 -1.8698236e-05 -0.00014288354 0.00027478184 -0.00013465798 -0.00024151908 0.00010511633
0.00020295249 -4.602995e-05 6.243773e-05 -0.000103081264 0.0001411857 7.075265e-05 8.486721e-06 0.00018632278
0.00017376512 -7.18277e-05 9.3447554e-05 -8.551081e-05 -7.942211e-05 -8.634743e-06 0.00022104412 0.00012631166
0.000210051 -5.507595e-05 6.326476e-05 -5.1403185e-06 -5.5952027e-05 6.6033856e-05 -5.5528173e-05 0.00020837027
0.00021732504 -0.00011190136 0.00017612978 -8.4558575e-05 0.00016945707 0.0001383487 7.777188e-05 -8.0749574e-05
2.9938776e-05 4.7015477e-05 -9.3901515e-05 0.00015692419 7.799032e-05 -6.166898e-05 -0.00020230586 8.670207e-05
3.3077522e-06 -4.0610263e-05 -0.17844567 -0.14831007 -0.00027224302 -6.590098e-05 -3.701415e-05 0.00012699602
0.00021226662 -7.938617e-05 -6.825148e-05 9.170343e-05 -0.000113566464 -0.00012230547 -6.301595e-05 1.0080461e-05
0.0001447536 -0.00013062556 0.00013825436 9.153524e-05 -1.582576e-05 -0.00018497201 -4.9787603e-05 0.00021071246
3.826656e-05 0.000258338 0.00015858156 0.00011953064 2.1490589e-05 -0.00015000532 -0.00016626183 4.5612076e-05
-3.5127618e-05 0.00024685083 0.00017774127 0.00012262963 -0.71398884 -0.68982744 -0.44288602 -0.00020721041
-0.59452784 -2.284722e-05 -0.00010114425 6.325447e-05 1.6868595e-05 0.00017914917 9.311756e-06 -0.00012432247
-0.00014465199 0.00019973703 -2.5417597e-05 9.4423216e-05 -2.4575333e-05 0.00024354173 -0.00016446668 0.00012891438
0.000116685114 1.4537363e-06 0.0001795425 -3.2548414e-05 0.00016143636 0.00015737722 -1.957384e-05 0.00011680614
0.00017838478 0.00018949276 -0.00016893462 -0.00013323456 0.00013942519 -0.00014479313 0.00020310245 -2.8483439e-05
00000000: ae17 0539 d088 9137 e0e8 1138 bef4 3839
00000010: 001c 80b7 7011 eeb7 4c0f 0b38 4075 8238
00000020: 6603 4739 0a55 5739 fa23 61bf 281b 8dbe
00000030: 17e1 59bf 30be 3137 ee35 0cbe c872 f238
00000040: e91d 0039 ff2c 3f39 e232 dab8 fdf8 6939
00000050: 70d8 bc37 a096 f3b6 cc20 4f39 80f7 95b6
00000060: 3fea 2db9 c4fd 8f39 bd13 b3b9 ff34 b1b8
00000070: ed0e 37b9 4c65 8938 dc42 5bb8 4a66 b6b8
00000080: 44e2 3cb9 3016 9f37 d447 1b39 0c4d f037
00000090: 383b d337 2bad 2539 6874 5bb8 34ec 69b9
000000a0: f0a7 4737 6385 b2b7 fa3d 8fb9 f010 c5b7
000000b0: 6650 df38 1e75 b038 9045 bf36 34f7 7fb9
000000c0: aaa5 bdb8 e03b 4b37 ae9a 9839 26ae 80b8
000000d0: 4266 c6b8 8c37 6e38 cae8 6939 8087 eeb5
000000e0: 0622 b538 26eb 8eb8 e85e 4138 8069 31b7
000000f0: 0a22 0639 fb55 c2be 6c25 38bf 6bbf 8eb9
00000100: cc9e efbe 4a83 2bb9 9507 c5b9 152a 30b9
00000110: dd0d 22b9 4b5e e7b8 99d7 5339 a96d e5be
00000120: 2b49 adbd 0062 2637 6089 7cb7 702f dfb6
00000130: 40e5 ba37 a43b b938 503f 09b8 5462 7f38
00000140: f8da 9537 00d9 53b8 1aa8 85b9 d247 adb8
00000150: ccf0 22b8 1871 7538 9d0a 02b9 5036 6ab7
00000160: d40d 3d38 379d 5ab9 9873 d6b8 a613 08bf
00000170: 2bba 51be 2e8c 7738 f5ef c3bc 4226 373e
00000180: ec36 91be 24d7 0dbd 18db 0838 8817 ee38
00000190: c108 3639 32fc 2bb9 c04a 8936 9be0 09b9
000001a0: 2c16 f438 32cf fdb8 31f2 8f39 a0c4 7136
000001b0: 7f2e 0b39 4425 1bb8 1b5b 3eb9 c22d 88b8
000001c0: 8921 dbb8 540e 9c38 2434 6eb8 1d1e 33b9
000001d0: 58f6 54b8 88f7 78b8 28ea 32b8 c0c8 fa38
000001e0: 98d9 b8b8 3d74 1439 0781 22b9 008c 1a35
000001f0: 13d7 3839 1277 0b39 9c4d af38 20f0 3b37
00000200: 1bcb 2539 326c 13b9 74fb 20b8 3182 5c39
00000210: bca5 cc38 3e48 fbb8 1c96 9238 fcb3 1639
00000220: 7027 f1b8 38bd 5838 28da 9cb7 02d3 15b9
00000230: 9810 9039 fa32 0db9 4940 7db9 e671 dc38
00000240: a5cf 5439 4810 41b8 00f1 8238 552d d8b8
00000250: 3f0b 1439 0a61 9438 3062 0e37 a45f 4339
00000260: b834 3639 34a2 96b8 46f9 c338 4454 b3b8
00000270: 6c8f a6b8 f0dd 10b7 14c8 6739 8772 0439
00000280: 2341 5c39 5a01 67b8 02ad 8438 007b acb6
00000290: 08ae 6ab8 a87b 8a38 ece6 68b8 f87d 5a39
000002a0: bfe1 6339 96ac eab8 7aaf 3839 0a55 b1b8
000002b0: 49b0 3139 b211 1139 7619 a338 1958 a9b8
000002c0: 0825 fb37 7c32 4538 feec c4b8 048c 2439
000002d0: bc8e a338 4854 81b8 1122 54b9 d2d3 b538
000002e0: c0fa 5d36 f054 2ab8 76ba 36be 98de 17be
000002f0: d7bb 8eb9 5234 8ab8 a43f 1bb8 3c2a 0539
00000300: e393 5e39 207c a6b8 3c22 8fb8 e750 c038
00000310: 882a eeb8 203f 00b9 6e27 84b8 401f 2937
00000320: 00c9 1739 88f8 08b9 5ff8 1039 9cf6 bf38
00000330: 90c1 84b7 0cf5 41b9 08d3 50b8 b2f2 5c39
00000340: 6880 2038 8a71 8739 ea48 2639 86ac fa38
00000350: b046 b437 bf4a 1db9 9256 2eb9 984f 3f38
00000360: fe55 13b8 c26b 8139 0f60 3a39 2496 0039
00000370: f9c7 36bf 8898 30bf f5c1 e2be 9f46 59b9
00000380: fa32 18bf 08a8 bfb7 681d d4b8 7ca7 8438
00000390: 0881 8d37 fdd9 3b39 b039 1c37 8f5c 02b9
000003a0: b9ad 17b9 8070 5139 e037 d5b7 1405 c638
000003b0: 2027 ceb7 3c5f 7f39 b074 2cb9 312d 0739
000003c0: d8b4 f438 001e c335 9343 3c39 9884 08b8
000003d0: 3e47 2939 a005 2539 8032 a4b7 d2f5 f438
000003e0: cd0c 3b39 93b2 4639 0b24 31b9 e1b4 0bb9
000003f0: aa32 1239 9cd3 17b9 e6f7 5439 b8ef eeb7

bias f4 [406]
-2.6153692e-05 6.82027e-05 0.57746655 -0.00023626843 -0.00017764853 7.3127696e-05 -7.606832e-05 9.027439e-05
0.20724392 0.00018121241 -4.2986823e-05 -0.00015632126 1.0012773 0.07274917 0.12701403 0.00016935867
0.00016891779 0.00022715866 0.52389497 0.048977323 0.000104996805 -0.00022550471 -0.00013375937 1.1358206e-05
-5.754309e-05 0.00020624879 1.6697872e-05 1.5363701e-05 -2.0138505e-05 -2.7521208e-05 -2.8193608e-05 -1.009991e-05
0.00021741856 -4.5162305e-05 -1.554616e-05 0.00013463653 1.3866287e-05 0.6376851 -4.2274754e-05 0.0001806626
2.3782952e-05 -0.00018028393 8.270786e-05 9.05942e-05 0.50075936 -4.21266e-05 0.00017706804 -0.00011034192
-0.00025644054 -2.1738902e-05 -0.000102531005 -1.8613428e-06 -4.4769615e-05 -1.1114193e-05 0.00015244282 1.2970049
-7.523206e-05 -0.00022719028 -0.00014788413 -8.210479e-05 0.0001453585 0.029885074 3.749105e-05 -8.736539e-05
-2.1031621e-05 0.00028516736 0.14390808 -0.00018643137 -8.762712e-06 -4.532424e-05 0.00017963482 -6.7936635e-06
-0.00011980093 -0.00016158712 -0.00018801131 -4.2654545e-05 -0.000101844606 -8.927751e-05 -8.976669e-05 8.390733e-05
0.00010194087 -2.6318594e-05 -2.1119675e-05 6.924948e-05 2.9791452e-05 -0.00011095775 0.00010974784 0.00014805398
-0.000107079584 0.0058760275 -5.8096943e-05 1.2942895e-05 0.00015086964 0.036667183 2.0465246e-05 -5.4063843e-05
0.39159405 0.20085447 0.00018402553 -0.00023011361 -8.041745e-05 -0.00015346822 -6.571939e-05 -8.6236396e-05
-0.00020747079 1.1187447 3.825128e-05 0.00011231395 -0.00016903126 8.673228e-05 9.256498e-05 0.6911906
0.00012114308 -0.00013092803 -0.0002427614 3.362594e-05 -0.00014887452 3.0731564e-05 -8.1781764e-07 9.665328e-05
0.000110479625 -0.00011130297 8.620256e-05 4.6725574e-05 0.09007821 1.0098354 -0.00015874779 -0.00018126082
-9.933693e-05 3.7891732e-05 7.6788594e-05 6.9987305e-05 -0.00025827676 1.0955515 -5.365719e-05 -0.00021344138
-0.00020722333 0.00014103076 -0.00013274289 3.9271486e-05 -0.00022949347 -0.00021375439 -0.00014357167 0.00010857375
0.00011107516 3.575007e-05 -0.00017975368 4.2334606e-05 7.02313e-05 6.158895e-05 -5.775482e-05 -0.00017992935
-4.7146896e-05 -5.7317797e-05 -4.7427457e-05 -0.00014874585 4.915381e-05 -0.00017632355 3.0764175e-05 -0.00022004037
0.0002257343 -0.0001204283 -0.00021639834 -7.595418e-05 -0.00015206302 6.701247e-05 8.7427885e-05 3.89684e-05
-0.00018321928 0.0002990404 -0.000251005 0.00013307761 -0.00019242617 -0.00015767694 -0.00020795573 6.2775296e-05
6.804576e-05 0.0001407675 9.6958756e-05 -2.407709e-05 2.1266242e-05 0.0001363486 4.6618385e-05 -4.3283813e-05
0.00025565556 1.6320351e-05 -3.434546e-05 0.00017400527 -2.7244532e-05 0.0002539382 0.00034230534 -0.00010441446
-0.0001738573 0.00011476567 5.8597783e-05 8.234622e-05 -0.0001177863 0.9049676 0.75554127 -9.968283e-05
5.017304e-05 5.3495343e-05 2.7781934e-05 -0.00017231693 0.00024038389 -5.3389667e-05 0.55186623 0.83631253
0.00012766861 -5.215082e-05 -0.00024692828 0.00014361374 -0.00016128157 1.1364915e-05 -0.00011764116 -0.0001533477
-4.819967e-05 -8.988427e-05 0.00014340677 9.3597075e-05 -6.287139e-05 -3.6802157e-05 -2.1187938e-05 8.589e-05
-7.341837e-05 -0.00020193646 -2.7431131e-05 -0.00012457535 -6.308935e-05 -3.7053505e-05 8.40078e-05 -7.334485e-05
-0.00014337109 -0.00013749285 -9.824456e-05 7.949211e-05 0.00011447389 0.00015250625 -0.00021632871 0.64204323
-0.00028414387 0.5130555 7.7298464e-05 0.00014742844 7.662451e-05 1.5634287e-05 -0.00013304326 0.0003170313
0.115627594 0.0001812839 0.0002857515 2.646989e-05 -6.283583e-05 0.10568565 -0.0002272379 0.00010423544
00000000: a064 dbb7 0c08 8f38 d9d4 133f d3be 77b9
00000010: 2a47 3ab9 225c 9938 de86 9fb8 b251 bd38
00000020: c037 543e d603 3e39 c04c 34b8 2bea 23b9
00000030: db29 803f 84fd 943d f70f 023e df95 3139
00000040: 861f 3139 7031 6e39 fb1d 063f 729c 483d
00000050: bb31 dc38 7675 6cb9 c241 0cb9 208f 3e37
00000060: 6c5a 71b8 7d44 5839 6812 8c37 4ce1 8037
00000070: 1cef a8b7 58dd e6b7 5081 ecb7 c872 29b7
00000080: dafa 6339 a86c 3db8 2069 82b7 382d 0d39
00000090: 40a3 6837 553f 233f 2c50 31b8 3f70 3d39
000000a0: 8081 c737 990a 3db9 7273 ad38 64fd bd38
000000b0: c431 003f 18b1 30b8 57ab 3939 5e67 e7b8
000000c0: de72 86b9 f05b b6b7 ea05 d7b8 40d3 f9b5
000000d0: 02c7 3bb8 1877 3ab7 0fd9 1f39 4204 a63f
000000e0: e8c5 9db8 ed39 6eb9 5811 1bb9 ac2f acb8
000000f0: 606b 1839 8bd1 f43c b53f 1d38 f037 b7b8
00000100: 106d b0b7 8482 9539 a45c 133e ca7c 43b9
00000110: 9003 13b7 881a 3eb8 5b5c 3c39 20f5 e3b6
00000120: a23d fbb8 b66f 29b9 e724 45b9 f8e7 32b8
00000130: 6895 d5b8 803a bbb8 2041 bcb8 68f7 af38
00000140: 16c9 d538 c0c6 dcb7 282a b1b7 083a 9138
00000150: a8e8 f937 fdb1 e8b8 6c28 e638 f03e 1b39
00000160: ea8f e0b8 b18b c03b 1ead 73b8 5025 5937
00000170: c332 1e39 5430 163d c8ac ab37 9cc2 62b8
00000180: 047f c83e cbac 4d3e faf6 4039 a74a 71b9
00000190: caa5 a8b8 50ec 20b9 d4d2 89b8 d0d9 b4b8
000001a0: 848c 59b9 0733 8f3f 0070 2038 188a eb38
000001b0: fc3d 31b9 0ae4 b538 721f c238 def1 303f
000001c0: 320e fe38 ba49 09b9 c48d 7eb9 9409 0d38
000001d0: 331b 1cb9 c4e5 0038 0088 5bb5 56b2 ca38
000001e0: 4cb1 e738 546b e9b8 a6c7 b438 34fb 4338
000001f0: ed7a b83d 4942 813f 8975 26b9 d510 3eb9
00000200: 1c53 d0b8 f0ed 1e38 9009 a138 26c6 9238
00000210: 5269 87b9 083b 8c3f f80d 61b8 3ccf 5fb9
00000220: 174a 59b9 a8e1 1339 e630 0bb9 70b7 2438
00000230: 2fa4 70b9 4223 60b9 ba8b 16b9 17b2 e338
00000240: 06f1 e838 58f2 1538 437c 3cb9 7090 3138
00000250: 2449 9338 5129 8138 c43d 72b8 6bab 3cb9
00000260: 98bf 45b8 8468 70b8 d8ec 46b8 a9f8 1bb9
00000270: 802a 4e38 7ee3 38b9 c808 0138 a3ba 66b9
00000280: 17b3 6c39 748e fcb8 fde8 62b9 9749 9fb8
00000290: 1b73 1fb9 0c89 8c38 7d59 b738 0072 2338
000002a0: 8d1e 40b9 86c8 9c39 5299 83b9 c08a 0b39
000002b0: 02c6 49b9 1556 25b9 b10e 5ab9 3ba6 8338
000002c0: cab3 8e38 fd9a 1339 5656 cb38 28f9 c9b7
000002d0: e864 b237 ccf8 0e39 1c88 4338 a48b 35b8
000002e0: 8209 8639 b0e7 8837 280e 10b8 2f75 3639
000002f0: 308b e4b7 0223 8539 7277 b339 16f9 dab8
00000300: 774d 36b9 5aae f038 e4c6 7538 4ab1 ac38
00000310: 0a04 f7b8 f5ab 673f 276b 413f d00c d1b8
00000320: e470 5238 3060 6038 400d e937 f9af 34b9
00000330: 8f0f 7c39 b8ee 5fb8 1b47 0d3f 9418 563f
00000340: c8de 0539 84bc 5ab8 2776 81b9 0597 1639
00000350: b11d 29b9 f0ab 3e37 1eb6 f6b8 f6cb 20b9
00000360: 002a 4ab8 4080 bcb8 765f 1639 8c49 c438
00000370: d2d9 83b8 045c 1ab8 c0bc b1b7 d81f b438
00000380: 30f8 99b8 e8be 53b9 e81b e6b7 71a0 02b9
00000390: d64e 84b8 e669 1bb8 582d b038 b7d0 99b8
000003a0: e255 16b9 f52b 10b9 a608 ceb8 00b5 a638
000003b0: b411 f038 16ea 1f39 4cd6 62b9 f25c 243f
000003c0: 25f9 94b9 9b57 033f 4c1b a238 0597 1a39
000003d0: 78b1 a038 6026 8337 8781 0bb9 3937 a639
000003e0: 29ce ec3d 0717 3e39 ebd0 9539 a80b de37
000003f0: bbc6 83b8 b871 d83d b646 6eb9 fa98 da38
