iterative_k_clustering_AML/training_on_clusterings/K_4/cluster_2/training_results/cluster_1_model.pt (torch, 3727 bytes, 4 tensors)

weight f4 [5, 37]
-0.002265354 -0.003630937 -0.003019019 0.0035552 0.0009910446 -0.0029868472 0.0011354093 -0.0004513271
-0.00091343856 0.000116897085 -2.9378836e-05 -1.1529498 -0.509789 9.2874085e-05 -0.00081290054 0.00014261671
1.6681333 0.0038571146 -0.0047061644 2.0387409 -0.0019787226 0.0038204798 -0.0008263563 0.00078214455
0.0029673958 -0.0005582397 0.0038158426 -0.0024810238 -0.0019237204 0.0013228068 0.0029606011 -0.004175627
-0.000928921 -0.0006920819 -0.0010549177 -0.0039222846 -0.0038241623 0.0036358067 0.00252979 0.0019701242
-0.0034626515 -0.002174206 -0.00085207494 0.00064880896 0.00076809275 2.3040664 -0.00359196 0.0035898306
-0.0035720787 0.0035634465 0.0043475265 0.0016082684 -0.0018195505 -0.0006368326 -1.1395694 2.060401e-05
0.1280436 0.00065918016 0.0035514394 0.0008249705 -0.002766763 0.0001427506 -0.0038206289 -0.0033446858
-0.0013169078 0.0030137459 -0.00047467396 0.0003937085 0.0039196173 -0.0009499018 -0.00018066801 0.003583149
-0.00021873675 -0.0026073167 -0.00053098967 0.0037471035 -0.0032402626 -0.0028086016 -0.0032293557 -0.001925128
0.00081829104 -0.00037492884 0.0007673729 -0.00089873123 0.0043021785 -0.0013130648 -0.0034065335 0.0009288912
5.3446665e-06 -0.0016724376 -0.0018582296 -0.003427041 -0.002350802 -0.0041037113 0.0039987946 -0.0028536667
-0.0019485811 -0.0007351463 -0.00087412196 0.003662304 -0.0034809464 0.0016538699 -0.00063790876 0.0009534781
0.0038300762 -0.0028836445 -0.0038302848 -0.0010521647 -0.0009829525 0.00093494105 -0.0035109231 0.0012000138
0.0024190668 0.0016520045 0.0034792402 -0.002858623 -0.4711152 0.0001862918 -0.002167211 0.0010954018
0.00011819861 0.0030928354 0.00053363835 0.0014880197 0.0023306916 -0.00042044956 0.0007094322 -0.0018917837
0.0011474153 -0.002532458 0.0022160003 -0.0035747 -0.00064109016 -0.003519795 -0.0006366347 -0.003451855
0.0036212185 -0.0009227221 1.9041163e-05 0.0019545713 0.00063590455 -0.0030121068 -0.0038977573 -0.0019024024
-0.0023480086 -0.0015678231 0.002875871 -0.00058834004 0.00025338007 8.896858e-05 0.00024242385 0.000597698
0.004243656 -0.0023549597 -0.0010961299 -0.0006820211 0.0029066827 -0.0035497556 -0.0022834432 -0.0027187238
0.00013998189 0.00091972324 0.0035938332 -0.0004858888 0.001917258 -0.0047331084 -0.0012098326 -0.7069162
-0.003096612 -0.0039256075 0.002247763 -0.0026637365 0.00060401607 0.002372821 0.004172408 -0.0012622972
-0.00082016084 0.0036038472 0.0033253408 0.0018782499 0.0031496258 0.0018109768 0.00078740064 0.004309125
-0.0009984197
00000000: 5576 14bb 04f5 6dbb bcda 45bb 5cfe 683b
00000010: f0e5 813a fbbe 43bb 04d2 943a 19a0 ecb9
00000020: d373 6fba a526 f538 9272 f6b7 dc93 93bf
00000030: 8881 02bf 65c5 c238 d518 55ba 628b 1539
00000040: 6485 d53f a5c7 7c3b 2b36 9abb bb7a 0240
00000050: 75ad 01bb 0461 7a3b d59f 58ba d508 4d3a
00000060: a478 423b d556 12ba 3713 7a3b ac98 22bb
00000070: 5825 fcba 0862 ad3a a506 423b b3d3 88bb
00000080: d582 73ba d56c 35ba 2a45 8aba 8286 80bb
00000090: cc9e 7abb b746 6e3b d5ca 253b 331d 013b
000000a0: a7ed 62bb 207d 0ebb c85d 5fba d514 2a3a
000000b0: d559 493a d375 1340 1767 6bbb 5d43 6b3b
000000c0: 8919 6abb b688 693b b275 8e3b 88cc d23a
000000d0: fc7d eeba 1df1 26ba 69dd 91bf c6d6 ac37
000000e0: dd1d 033e d5cc 2c3a 44bf 683b d542 583a
000000f0: 9552 35bb 53af 1539 8463 7abb 8432 5bbb
00000100: 189c acba 4482 453b a9dd f8b9 a96a ce39
00000110: 2270 803b d502 79ba b371 3db9 44d3 6a3b
00000120: b35c 65b9 84df 2abb 1d32 0bba f791 753b
00000130: 965a 54bb 8410 38bb 99a3 53bb 9454 fcba
00000140: 9582 563a 1992 c4b9 8629 493a d598 6bba
00000150: 4af9 8c3b 251b acba 2640 5fbb d580 733a
00000160: 5656 b336 b235 dbba d78f f3ba 3598 60bb
00000170: ea0f 1abb 6d78 86bb 5208 833b 9504 3bbb
00000180: 8867 ffba d5b6 40ba 5525 65ba 4403 703b
00000190: 9720 64bb aac6 d83a 5539 27ba d5f2 793a
000001a0: 0402 7b3b 87fb 3cbb 8405 7bbb cae8 89ba
000001b0: 6ad6 80ba d516 753a 8417 66bb c849 9d3a
000001c0: 3589 1e3b 1388 d83a f703 643b bc57 3bbb
000001d0: 0336 f1be 5357 4339 c407 0ebb 9693 8f3a
000001e0: 65e1 f738 2bb1 4a3b dde3 0b3a a809 c33a
000001f0: 84be 183b c96f dcb9 30f9 393a baf5 f7ba
00000200: de64 963a 98f7 25bb 513a 113b 8445 6abb
00000210: d50e 28ba 5cac 66bb d5e3 26ba 8438 62bb
00000220: f751 6d3b d5e2 71ba 96ba 9f37 4418 003b
00000230: d5b2 263a c466 45bb 8471 7fbb 085a f9ba
00000240: 0ce1 19bb 6a7f cdba 1c79 3c3b d53a 1aba
00000250: 19d8 8439 a594 ba38 2833 7e39 d5ae 1c3a
00000260: 5e0e 8b3b ab55 1abb 04ac 8fba a9c9 32ba
00000270: 0b7e 3e3b 04a3 68bb d2a5 15bb 9e2c 32bb
00000280: 1ac8 1239 9519 713a 8486 6b3b e4be feb9
00000290: 814c fb3a 3118 9bbb 3f93 9eba 76f8 34bf
000002a0: 87f0 4abb 62a2 80bb 354f 133b 1592 2ebb
000002b0: d556 1e3a 5581 1b3b b2b8 883b aa73 a5ba
000002c0: 1000 57ba 862e 6c3b f6ed 593b 9c2f f63a
000002d0: f469 4e3b 4c5e ed3a 9069 4e3a 8f33 8d3b
000002e0: 68dd 82ba

bias f4 [5]
-0.42044812 -0.8248212 -1.4433216 0.34997743 -0.67034304
00000000: fa44 d7be 7b27 53bf c3be b8bf 3e30 b33e
00000010: 9a9b 2bbf

weight f4 [17, 5]
-0.0016968105 0.00097179424 0.0015272783 0.0035764195 -0.0012469655 0.0005105611 0.0034380476 0.5187911
-0.002381669 0.00037202315 0.0036996491 -0.0019679707 0.0015692773 0.000630848 -0.0012544673 0.001485999
0.4976914 0.6260141 -0.0009567948 0.0023978374 0.7485094 0.00024213373 0.0018402396 0.00062828534
-0.2765911 0.0060362644 0.002922307 -0.5393506 -0.00020141134 -0.22765286 -0.0043235403 0.0011872893
0.0024046006 -0.0020840715 0.35703072 -0.0041806046 0.5535282 0.6066244 -0.0026599825 0.0038190428
0.0025071788 -1.2502228 -0.0033248046 0.26290035 -0.0012828012 0.0012376474 0.3768818 0.004149013
0.0008375957 -0.0034914936 1.2724692 0.0029808804 -0.002234958 0.0032759723 -0.0012079382 -0.002515243
-1.1200707 -0.30696094 -0.0015393823 0.0037071824 0.001064052 -0.21498705 0.004840332 -0.0030365693
0.00030722798 0.00049779256 2.702739 -0.46503678 -0.00431389 -1.0007666 -0.004251258 0.0015248057
0.7147679 0.0021871799 0.52411985 -0.0034553315 2.891444 -0.0017572963 0.0030228016 0.0022351807
-0.0017858506 -0.4031505 -5.3537544e-05 -0.42038625 -0.6727787
00000000: 8367 deba 02c0 7e3a f52e c83a 5d62 6a3b
00000010: 3871 a3ba 2dd7 053a de50 613b 7ecf 043f
00000020: c615 1cbb 1a0c c339 d075 723b 12f9 00bb
00000030: 35b0 cd3a 7e5f 253a f06c a4ba dac5 c23a
00000040: 68d1 fe3e 7642 203f 69d1 7aba 0925 1d3b
00000050: 509e 3f3f 47e5 7d39 3234 f13a 84b3 243a
00000060: 599d 8dbe dbcb c53b 2d84 3f3b e212 0abf
00000070: f231 53b9 d51d 69be 7cac 8dbb d19e 9b3a
00000080: 8196 1d3b eb94 08bb bbcc b63e 74fd 88bb
00000090: 06b4 0d3f bd4b 1b3f 1a53 2ebb e848 7a3b
000000a0: 7b4f 243b 4d07 a0bf f7e4 59bb e09a 863e
000000b0: aa23 a8ba 8e38 a23a a7f6 c03e 72f4 873b
000000c0: 1992 5b3a 8bd1 64bb 45e0 a23f e05a 433b
000000d0: 6078 12bb b2b1 563b ae53 9eba c6d6 24bb
000000e0: 7a5e 8fbf fc29 9dbe 19c5 c9ba 33f4 723b
000000f0: a977 8b3a 9125 5cbe a69b 9e3b 2e01 47bb
00000100: 7113 a139 4b7e 023a adf9 2c40 4d19 eebe
00000110: 885b 8dbb 1f19 80bf 234e 8bbb fddb c73a
00000120: 07fb 363f ca56 0f3b b82c 063f d872 62bb
00000130: 6b0d 3940 1455 e6ba 321a 463b 1c7c 123b
00000140: 3413 eaba be69 cebe 808d 60b8 de3c d7be
00000150: 3a3b 2cbf

bias f4 [17]
-1.0675331 -0.87451744 0.0039705643 -0.0035126812 0.47565943 -0.0029413435 -0.9309095 0.00090026256
-0.00083842163 -0.96818924 -0.0024502592 0.00019975104 -0.0012971512 0.00019890818 -0.0011446291 1.4519676
0.58147264
00000000: eda4 88bf 60e0 5fbf 821b 823b 0335 66bb
00000010: a289 f33e 8ec3 40bb 1650 6ebf 99ff 6b3a
00000020: 86c9 5bba 40db 77bf 8794 20bb 4374 5139
00000030: 2c05 aaba 0292 5039 6107 96ba 13da b93f
00000040: 64db 143f
