iterative_k_clustering_breast_cancer/training_on_clusterings/K_2/cluster_1/training_results/cluster_0_model.pt (torch, 16719 bytes, 4 tensors)

weight f4 [5, 333]
-0.000102504404 -1.491695 -0.00011892743 5.9888218e-05 2.3151893e-05 2.5483328e-05 1.7006561e-05 7.9391655e-05
-0.00013917744 -0.00014068707 1.1998369 -2.2932276e-05 -0.0001500575 -0.0001431188 -3.5856705e-05 1.4871184e-06
-0.73057264 0.00014902986 7.033683e-05 -0.00013617998 6.062303e-05 -0.00014598599 0.00016626106 0.00011236963
-0.00019748947 -6.141329e-05 0.00012325346 0.000117462725 0.00018240589 0.00013079857 8.6648244e-05 -0.00013121952
8.287403e-06 5.33492e-05 -0.00012167533 6.433377e-05 2.8609444e-05 0.42907226 0.00011857365 7.479635e-05
3.018984e-05 -0.00010028588 -0.0001469224 -8.781123e-05 -0.80291736 -4.753658e-05 -0.00010154316 0.000169047
-6.248496e-05 0.000114291295 0.00015949395 -6.660308e-05 -0.00016763569 -0.00019883599 0.00010673035 -0.00018527485
0.00017280526 0.00015416359 -0.00019505458 -0.00012310556 -8.561091e-05 0.0001824946 -0.00019107004 9.9910554e-05
0.00014529367 -0.00014710202 0.00017308783 0.00013653854 3.3605058e-05 0.00017657071 -0.00013733361 0.00014985864
0.00015010127 0.00012587455 8.7732464e-05 0.00010819711 -4.653026e-05 9.887143e-05 -0.00015882096 9.8945195e-05
-6.648085e-05 2.6688213e-08 6.10453e-05 -0.00017132064 0.000113901464 0.41536653 -9.056846e-05 7.597727e-05
0.00017431374 -0.00013184921 -8.294286e-05 -8.8608955e-05 -6.228019e-05 -2.998035e-05 0.00010431858 0.0001368914
-3.161098e-05 7.515507e-05 -0.0001604013 7.1861636e-05 5.371272e-05 -1.4455e-06 -8.444194e-05 4.4498564e-05
-6.760041e-05 0.00019516046 -0.00015702088 -2.1139189e-05 0.45338872 -0.00011481109 -0.00019717157 1.9488987e-05
8.654293e-05 -2.2862194e-05 -7.185935e-05 0.00017410827 -0.00013663396 0.00013266804 -0.0001651066 -3.491927e-05
0.00012691751 3.082605e-05 -5.080471e-05 0.00016147703 7.242328e-06 -0.00012319662 0.00017268963 0.00019115962
1.875995e-05 7.656199e-06 9.548025e-05 -2.9012153e-07 -5.767119e-05 -2.7228758e-05 0.00014175138 6.757685e-05
0.000119710356 -0.00015323098 8.231391e-05 4.281479e-05 5.2905845e-05 -0.0001604265 -0.0001674765 -0.0001676343
7.925468e-06 0.00017253387 -0.00018410235 -0.00013786556 0.00011357969 0.00015473305 -0.00013088944 -0.00011504951
-7.4014664e-05 8.289552e-05 -4.5287743e-05 3.4548313e-05 -0.81553227 -4.9784867e-05 0.00013724902 -2.2363645e-05
0.00012571937 0.00014693664 -0.00011535999 -5.1656258e-05 1.197634 0.25764418 -4.0233426e-06 6.0654565e-05
0.00018914523 9.639327e-05 -0.00015128976 0.0001622647 0.00013299474 -6.224724e-05 -0.94425136 -0.00014542277
-7.768496e-05 0.0001554781 2.7300412e-05 0.00015643991 -1.8577412e-05 2.7438888e-05 -5.5349752e-05 -5.0482893e-05
-0.0001371981 -9.359428e-05 -7.202415e-05 4.5107692e-05 0.009713898 0.00014009021 -8.32854e-05 -0.00016974648
0.00010440625 6.531921e-05 6.366287e-05 0.000157038 5.8315083e-05 -3.9375256e-05 -0.000144565 -9.605115e-05
-0.00012919618 -0.00012828644 -5.535783e-05 -0.00012744278 -5.598305e-05 -0.000108183216 9.089835e-05 -2.384247e-05
-9.835229e-05 0.00016306642 -7.998188e-05 0.00015358694 -5.2113057e-05 0.00015196939 0.7790213 -9.806448e-06
-9.973267e-05 0.0001726479 -0.00019079378 -4.6188492e-05 0.00014776051 -0.00013443748 -4.0023908e-05 2.1266897e-05
2.8590875e-05 -0.00012826684 6.891854e-05 -4.505666e-05 0.0001851729 -0.0001557211 9.067623e-05 0.00013166109
-0.00012123723 -0.0001330136 0.00011068476 -0.00019523194 -0.000102972626 -4.166746e-05 0.35378477 -0.00015396475
-5.419922e-05 -2.1595188e-05 -0.000181105 7.305668e-05 0.00015077365 0.00019187319 0.0001314557 6.330818e-05
0.00016304113 -5.8043763e-05 0.0001153662 8.813957e-05 0.0001011125 -0.00010742617 0.0001819202 -9.5364885e-05
00000000: a2f7 d6b8 ddef bebf ae68 f9b8 7c30 7b38
00000010: 5036 c237 08c5 d537 50a9 8e37 127f a638
00000020: 29f0 11b9 6685 13b9 4194 993f b05e c0b7
00000030: c158 1db9 2912 16b9 d864 16b8 0099 c735
00000040: cf06 3bbf e644 1c39 cc81 9338 89cb 0eb9
00000050: 7c45 7e38 d113 19b9 5d56 2e39 fca7 eb38
00000060: 2d15 4fb9 02cb 80b8 993d 0139 5256 f638
00000070: 3544 3f39 f926 0939 ecb6 b538 f997 09b9
00000080: 200a 0b37 44c3 5f38 f22b ffb8 eeea 8638
00000090: 50fe ef37 5caf db3e beaa f838 fcdb 9c38
000000a0: 3040 fd37 9250 d2b8 2e0f 1ab9 4c27 b8b8
000000b0: fe8b 4dbf 0462 47b8 92f3 d4b8 3542 3139
000000c0: 5c0a 83b8 acaf ef38 d53d 2739 42ad 8bb8
000000d0: 5dc7 2fb9 a17e 50b9 6cd4 df38 5746 42b9
000000e0: 0f33 3539 f9a6 2139 9187 4cb9 e615 01b9
000000f0: 028a b3b8 055c 3f39 f959 48b9 1287 d138
00000100: f959 1839 663f 1ab9 e97e 3539 c92b 0f39
00000110: 28f3 0c38 d725 3939 3601 10b9 5f23 1d39
00000120: 8164 1d39 31fd 0339 02fd b738 e2e7 e238
00000130: 7c29 43b8 3259 cf38 2d89 26b9 cc80 cf38
00000140: a26b 8bb8 0040 e532 7205 8038 89a4 33b9
00000150: 62de ee38 ecaa d43e 92ef bdb8 fc55 9f38
00000160: fdc7 3639 0141 0ab9 9cf1 adb8 92d3 b9b8
00000170: 6c9c 82b8 507e fbb7 9cc5 da38 818a 0f39
00000180: 0896 04b8 929c 9d38 6531 28b9 6cb4 9638
00000190: 9849 6138 0003 c2b5 6c16 b1b8 f8a3 3a38
000001a0: b2c4 8db8 fda3 4c39 f9a5 24b9 1054 b1b7
000001b0: 9122 e83e bcc6 f0b8 d7bf 4eb9 487c a337
000001c0: 627e b538 30c8 bfb7 32b3 96b8 d590 3639
000001d0: 6645 0fb9 ce1c 0b39 7720 2db9 4876 12b8
000001e0: 2915 0539 384b 0138 2417 55b8 2952 2939
000001f0: 2003 f336 572e 01b9 0514 3539 0572 4839
00000200: b05e 9d37 2073 0037 923c c838 00c2 9bb4
00000210: f8e3 71b8 5069 e4b7 19a3 1439 0cb8 8d38
00000220: 020d fb38 a1ac 20b9 f29f ac38 0894 3338
00000230: 38e7 5d38 2938 28b9 a19c 2fb9 fdc6 2fb9
00000240: a0f7 0437 35ea 3439 990b 41b9 0190 10b9
00000250: a231 ee38 d63f 2239 5e3f 09b9 bc46 f1b8
00000260: 5238 9bb8 32d8 ad38 58f3 3db8 f8e7 1038
00000270: b9c6 50bf 18d0 50b8 81ea 0f39 9099 bbb7
00000280: 89d3 0339 0113 1a39 6ced f1b8 7ca9 58b8
00000290: 124c 993f f0e9 833e 4000 87b6 5867 7e38
000002a0: 4955 4639 be26 ca38 89a3 1eb9 9925 2a39
000002b0: 8174 0b39 bc8a 82b8 75ba 71bf a17c 18b9
000002c0: ccea a2b8 d607 2339 3003 e537 050a 2439
000002d0: b0d6 9bb7 902c e637 5827 68b8 98bd 53b8
000002e0: d6dc 0fb9 0c48 c4b8 ac0b 97b8 0432 3d38
000002f0: 0b27 1f3c 2ee5 1239 82a9 aeb8 f9fd 31b9
00000300: aef4 da38 fcfb 8838 be82 8538 91aa 2439
00000310: 5897 7438 dc26 25b8 5f96 17b9 126f c9b8
00000320: d678 07b9 a184 06b9 0430 68b8 29a2 05b9
00000330: 58cf 6ab8 6ce0 e2b8 aea0 be38 5001 c8b7
00000340: 7c42 ceb8 cffc 2a39 f2bb a7b8 2e0c 2139
00000350: f893 5ab8 f959 1f39 f16d 473f 6086 24b7
00000360: 9227 d1b8 d108 3539 d10f 48b9 84ba 41b8
00000370: 29f0 1a39 c9f7 0cb9 58df 27b8 5066 b237
00000380: 70d6 ef37 5e7f 06b9 5c88 9038 38fb 3cb8
00000390: f92a 4239 1149 23b9 6e29 be38 810e 0a39
000003a0: be40 feb8 9179 0bb9 6e1f e838 2db7 4cb9
000003b0: 02f3 d7b8 18c4 2eb8 4723 b53e 9971 21b9
000003c0: f853 63b8 5027 b5b7 01e7 3db9 0236 9938
000003d0: fe18 1e39 9131 4939 5fd7 0939 52c4 8438
000003e0: 05f6 2a39 0474 73b8 c2f0 f138 92d7 b838
000003f0: 5c0c d438 fc49 e1b8 d5c1 3e39 a2fe c7b8

bias f4 [5]
-1.2143716 -0.38334206 -1.2782671 3.3777866 -3.1350398
00000000: 8770 9bbf 6945 c4be 429e a3bf a82d 5840
00000010: 7ea4 48c0

weight f4 [313, 5]
-0.00014913404 -0.00017895174 -0.00017292242 0.00016324576 0.00012474717 -1.9216857 -0.12124349 -1.4436914
1.2620376 -0.35027635 8.517863e-05 -3.241877e-05 -1.97927e-05 0.00018266043 0.0001673691 0.00012603689
0.00020209438 0.000116696305 -8.703777e-06 3.4148834e-05 0.00014894786 9.254014e-06 -1.0983364e-05 1.461088e-05
-1.9911371e-05 -6.503606e-05 3.2773678e-06 -5.8391946e-05 -3.3011645e-05 0.00014141748 7.922751e-05 0.00018701119
8.4111496e-05 -9.882395e-05 -0.00013166516 -6.3084735e-05 -0.00012689951 -9.2507165e-05 -0.00017542174 -0.00015515262
0.00010352647 -0.00010624781 0.00018573795 -0.00012120341 0.00013615964 0.00020367988 -0.00014771486 0.00016821243
0.0001125932 0.00014253584 -1.1761043 -2.4379878 -0.22678886 1.1722019 -1.097566 0.00017884302
-3.6408514e-05 -0.0001932869 -0.0002051232 1.6005215e-05 6.07493e-05 -9.443305e-05 4.5920635e-05 -0.00018200508
6.579343e-05 2.015024e-05 2.0595151e-05 0.0001799456 0.00015027953 -0.00014781934 -0.00012773233 0.00019670412
3.742987e-05 -0.00014470248 -1.2773598e-05 0.00018578781 1.9585263e-05 0.00017944962 0.00011440717 0.00015519734
-1.096748 -0.082227334 -1.4289494 0.9779913 -0.61826944 8.4489744e-05 2.9748771e-05 -0.00012775356
0.00012375554 0.00017509017 -5.037486e-05 0.00015335406 -8.649331e-05 -4.5503577e-05 0.00010465628 0.000110049106
0.00017137028 -7.7366494e-05 -7.3036455e-05 -7.667126e-05 2.8938477e-05 -0.00016938838 1.8701729e-05 -0.0002123426
0.00019177863 0.00016092227 -0.00011510223 6.199663e-05 0.000106378095 -4.155819e-05 4.988983e-05 0.00018785721
-1.2121367e-05 -9.273966e-05 0.00015295313 0.00018865734 -7.417136e-05 0.00016505923 4.4521643e-05 -0.00013488573
8.529125e-06 -8.485606e-05 7.126191e-05 -2.770478e-05 7.0336246e-05 0.00014503651 0.00019727662 -6.465257e-05
-1.2116201e-05 -8.517591e-05 0.00018792195 -5.4307806e-05 -0.00015242012 -0.000104016726 7.713679e-07 -0.00017290631
-0.000115337476 -1.7091224e-07 8.889519e-05 0.00013484241 3.4544515e-05 0.0001948519 -9.3126e-05 -4.968283e-05
-8.800847e-05 -0.000109367626 -5.6595134e-05 -3.4551776e-05 0.00010536777 -9.566442e-05 -8.373792e-05 9.30048e-05
-0.00015440727 -0.00011259233 8.6268614e-05 0.00010699312 -9.507869e-05 -0.00017341548 1.3705532e-05 -0.00012500487
5.391636e-05 -2.85571e-05 0.00013603568 -0.00021604863 -0.00016031643 0.000115159855 -0.0001361176 6.725572e-05
0.00016631735 6.959778e-05 8.753536e-05 -6.843923e-05 3.369068e-05 -5.718731e-05 -0.000107072265 0.00011829227
-0.00017455009 6.584985e-05 -8.779578e-05 -0.000100590754 -0.000135277 -0.00017261493 0.00012515186 -4.941605e-05
1.7274142e-05 -1.8947469 -3.0017042 -0.2402683 1.0042415 -0.14966302 0.00013649778 5.150224e-05
0.00019266158 0.00016363864 -0.000109046756 -0.00011398543 -0.000110650595 -0.00011631218 -0.0001764226 0.000119329256
-9.266961e-05 -0.00019153794 0.00013899883 -0.00018110228 -0.00016593013 -9.1468566e-05 -0.0001671005 -0.00016540174
-3.670508e-05 0.00012805278 6.899107e-05 -0.0001155823 0.00011293286 0.00013311073 -0.00017271948 -2.870815e-05
5.0059753e-06 1.6171442e-05 7.0263384e-05 2.0823529e-05 -1.8612205 -2.7955067 0.11045085 1.1573421
-0.20040764 -0.00014154808 0.000115773 -7.078248e-05 -0.00011653171 7.443763e-05 0.00013065006 4.5966575e-05
-0.00016354842 0.0001746231 0.00017979281 0.00015700904 0.00017012595 -8.292531e-05 -6.662113e-05 7.3086703e-06
1.3535678 -1.7181143 1.1426966 0.6364685 -0.8283527 1.4743042 1.5016017 1.2021499
0.84336776 -0.5566493 0.00014507366 -0.00012376893 7.393223e-05 -0.000106943495 1.1041222e-05 -2.0237974e-05
00000000: dd60 1cb9 fea4 3bb9 8252 35b9 f32c 2b39
00000010: 90ce 0239 ccf9 f5bf 824e f8bd e1ca b8bf
00000020: 738a a13f 6c57 b3be eea1 b238 64f9 07b8
00000030: 8008 a6b7 8988 3f39 cd7f 2f39 c528 0439
00000040: 4ce9 5339 daba f438 7006 12b7 083b 0f38
00000050: e32e 1c39 b041 1b37 3045 38b7 4021 7537
00000060: 5807 a7b7 f863 88b8 c0f0 5b36 e0e9 74b8
00000070: fc75 0ab8 7749 1439 f226 a638 6f18 4439
00000080: 0465 b038 b43f cfb8 990f 0ab9 5c4c 84b8
00000090: 5410 05b9 6800 c2b8 6af1 37b9 77b0 22b9
000000a0: 5a1c d938 5cd1 deb8 a7c2 4239 962e feb8
000000b0: 13c6 0e39 e792 5539 e8e3 1ab9 2e62 3039
000000c0: 0420 ec38 ac75 1539 968a 96bf fe07 1cc0
000000d0: 573b 68be b60a 963f 0b7d 8cbf cf87 3b39
000000e0: 58b5 18b8 0fad 4ab9 5716 57b9 f042 8637
000000f0: 10cd 7e38 5c0a c6b8 e89a 4038 9ed8 3eb9
00000100: 94fa 8938 5008 a937 c0c3 ac37 c7af 3c39
00000110: 5b94 1d39 f4ff 1ab9 e3ef 05b9 5c42 4e39
00000120: 04fe 1c38 47bb 17b9 304e 56b7 09d0 4239
00000130: 084b a437 a42a 3c39 e2ed ef38 78bc 2239
00000140: 3d62 8cbf ce66 a8bd d0e7 b6bf a35d 7a3f
00000150: e846 1ebf 1630 b138 008d f937 96f5 05b9
00000160: 60c4 0139 6998 3739 9849 53b8 abcd 2039
00000170: be63 b5b8 18db 3eb8 ea7a db38 2aca e638
00000180: dcb1 3339 d23f a2b8 262b 99b8 92ca a0b8
00000190: e8c0 f237 d99d 31b9 a8e1 9c37 48a8 5eb9
000001a0: 2f18 4939 3ebd 2839 0a63 f1b8 3004 8238
000001b0: 4e17 df38 c44e 2eb8 cc40 5138 89fb 4439
000001c0: e05c 4bb7 3a7d c2b8 0b62 2039 52d2 4539
000001d0: 728c 9bb8 c013 2d39 c0bc 3a38 1d70 0db9
000001e0: 5018 0f37 c0f4 b1b8 7272 9538 9067 e8b7
000001f0: 7c81 9338 f114 1839 0adc 4e39 1696 87b8
00000200: b046 4bb7 78a0 b2b8 ea0c 4539 90c8 63b8
00000210: f7d2 1fb9 8e23 dab8 0010 4f35 2f4e 35b9
00000220: 56e1 f1b8 0084 37b4 3e6d ba38 7c64 0d39
00000230: e4e3 1038 2951 4c39 a44c c3b8 8862 50b8
00000240: 3091 b8b8 4c5c e5b8 9060 6db8 b0eb 10b8
00000250: e4f8 dc38 729f c8b8 749c afb8 920b c338
00000260: 63e8 21b9 8c1f ecb8 1ceb b438 7e61 e038
00000270: fc64 c7b8 ddd6 35b9 d0f0 6537 bd13 03b9
00000280: 4024 6238 e88d efb7 cda4 0e39 1d8b 62b9
00000290: 9d1a 28b9 fa81 f138 caba 0eb9 a40b 8d38
000002a0: 7965 2e39 06f5 9138 3093 b738 0887 8fb8
000002b0: 184f 0d38 68dc 6fb8 fc8b e0b8 ae13 f838
000002c0: 6f07 37b9 de18 8a38 001f b8b8 40f4 d2b8
000002d0: 25d9 0db9 f8ff 34b9 323b 0339 1444 4fb8
000002e0: f0e7 9037 1187 f2bf ec1b 40c0 e508 76be
000002f0: fc8a 803f 4341 19be d820 0f39 1c04 5838
00000300: 3305 4a39 6a96 2b39 08b0 e4b8 760b efb8
00000310: 160d e8b8 a0ec f3b8 15fe 38b9 6840 fa38
00000320: 9e57 c2b8 93d7 48b9 37c0 1139 46e6 3db9
00000330: 88fd 2db9 d0d2 bfb8 b337 2fb9 b16f 2db9
00000340: c8f3 19b8 e845 0639 4caf 9038 c664 f2b8
00000350: 5ed6 ec38 a493 0b39 081c 35b9 48d2 f0b7
00000360: 00f9 a736 e8a7 8737 5e5a 9338 30ae ae37
00000370: 793c eebf 95e9 32c0 0e34 e23d c923 943f
00000380: a937 4dbe 866c 14b9 28cb f238 0e71 94b8
00000390: 7c62 f4b8 661b 9c38 1cff 0839 3ccc 4038
000003a0: 327e 2bb9 081b 3739 c486 3c39 cba2 2439
000003b0: d663 3239 30e8 adb8 f2b6 8bb8 003d f536
000003c0: b641 ad3f 2beb dbbf e243 923f 9aef 223f
000003d0: ec0e 54bf 00b6 bc3f 7c34 c03f 0ce0 993f
000003e0: f3e6 573f 9280 0ebf ea1e 1839 f8c7 01b9
000003f0: 100c 9b38 da46 e0b8 b03d 3937 b8c4 a9b7

bias f4 [313]
-0.00020494347 1.2067485 -8.599847e-06 -4.628724e-05 -0.00012735669 0.00011342036 -0.00020439761 -0.00018828455
0.000100811594 2.1304819e-05 1.0048469 0.00010532596 -1.4883597e-05 0.00011427823 0.00017387199 -0.000110544104
0.8514745 -3.569617e-05 -0.00013895259 -4.8907386e-05 -0.00019727461 0.00016683199 -7.4954994e-05 0.0001354088
-0.00010861555 0.00017145353 -0.00018973442 -3.522115e-05 -0.00019996495 3.060921e-05 -2.540082e-05 2.5736692e-05
-7.340468e-05 9.1231355e-05 7.716124e-06 0.00017868794 -0.00014722206 2.1668432 4.9181166e-05 -1.6342674e-05
-2.2684952e-05 1.1353157e-05 0.00016954272 9.090264e-05 3.7865553 0.00014072984 -9.9941986e-05 -0.00021230038
1.3211364 0.97356766 3.4431316e-05 -8.543933e-05 1.717567e-05 3.3729113e-05 -0.00011484545 3.1083342e-05
4.7970316e-05 -9.133454e-05 -0.00020163508 0.00016150837 -2.5117944e-05 6.947901e-05 -0.000109685236 5.6193938e-05
-4.4196917e-05 6.0306164e-05 -0.000118968106 0.00016625853 4.7582842e-05 0.00011642602 0.00012409677 -1.4751931e-05
-0.00016926501 6.7700195e-05 -7.17846e-07 -4.9098016e-05 1.2906938e-05 -6.299025e-05 -0.0001524898 -7.891965e-05
-1.6328326e-05 0.0001533522 -8.28769e-05 -0.00014794094 0.00014160211 2.4292705 4.7912312e-05 -0.00017399121
2.7360613e-05 -0.00013614433 0.00014206668 -7.0631344e-05 4.268058e-05 -2.6788912e-06 3.9986233e-05 -7.9270525e-05
1.9906787e-05 0.00017781653 3.723461e-05 -0.00014015086 -0.00016132502 -0.0001637425 -3.786187e-05 -4.0224448e-05
1.6360427e-06 0.00015209649 0.00012290112 0.00012662272 4.8808937 0.00012894961 -2.8097958e-05 8.0931364e-05
0.00012785848 0.00012309533 -9.5514086e-05 -6.5800996e-06 0.0001589435 -4.680798e-05 0.00011959583 -6.0694743e-05
-2.6130947e-05 4.3014108e-05 0.000109233384 -0.0002033959 5.3557567e-05 -0.0001940656 9.119336e-06 -0.00018187746
0.00015223422 -0.00018342715 8.193997e-05 0.0001827072 -0.00020979163 -0.00019758396 0.00011977719 -6.408752e-05
-9.0044894e-05 5.2076648e-05 0.00017258603 -0.00014109818 -7.1897724e-05 -1.5891972e-05 -4.843218e-05 7.809751e-06
-1.0027288e-05 0.0001282738 -0.00011441481 -0.00021487198 0.8616395 -0.0001846572 -2.0126812e-05 1.0084928e-05
-5.1202835e-05 -0.00012508851 5.6423625e-05 -0.00013188364 1.5256264 -2.9856703e-05 2.6348425e-05 -0.00017500533
0.00016025575 -1.9683284e-05 0.00013572289 -7.644952e-05 0.9212304 2.4760184 -0.00012588037 0.00017268266
-5.283604e-05 -3.7394115e-05 -0.00020925245 -0.00021452025 -0.00015381843 -0.0001422022 1.0937637 -7.04969e-06
-4.4911576e-05 -0.00019902793 -0.0001558551 0.0001783666 0.00014076257 0.00015518369 6.4454944e-05 8.259216e-05
-4.707981e-06 -0.00011585285 0.62165904 -0.00016077992 2.5632122 -0.0001357166 6.0085236e-05 -7.339475e-05
-0.00019819937 -0.00019788441 0.00016845197 0.000112984984 6.8217836e-05 0.00017618958 -0.000100519595 -0.00019586371
-0.00012526674 8.587225e-05 -5.4354387e-05 -9.057198e-05 -0.00016307924 -2.282024e-05 -0.00020487478 6.3940315e-05
-0.00019525012 -5.773094e-06 6.125517e-05 -0.00013724038 -0.00011816004 2.0925421e-05 3.6553473 0.71922356
-8.233197e-06 -9.514889e-05 -0.00019374577 0.90000856 -0.00012800925 -0.00020219853 -1.0252188e-05 -0.00016395
9.105404e-05 -4.21289e-05 0.00014925638 -0.00013940976 0.00014632999 7.66686e-05 -0.00019682356 -0.000138346
2.3004817e-05 -9.539406e-05 0.00016175603 -0.00012353252 -0.00011894107 -0.00018998867 2.812157 0.000112570095
-5.769354e-05 -4.8529633e-05 0.00011191411 0.000105667365 -0.00017610264 0.0001749833 0.00015914303 -0.00010567521
9.3826384e-05 1.7072962e-05 3.0249634e-05 0.9024252 0.00012298787 -5.064151e-05 3.423255e-05 -9.930736e-05
00000000: 18e6 56b9 bc76 9a3f 1048 10b7 8c24 42b8
00000010: 0d8b 05b9 18dc ed38 9153 56b9 406e 45b9
00000020: d06a d338 c0b7 b237 d39e 803f 72e2 dc38
00000030: 90b4 79b7 a8a8 ef38 6851 3639 ead3 e7b8
00000040: 3cfa 593f 78b8 15b8 cdb3 11b9 e821 4db8
00000050: 80db 4eb9 9fef 2e39 2831 9db8 86fc 0d39
00000060: 88c8 e3b8 35c8 3339 72f3 46b9 6cba 13b8
00000070: afad 51b9 6462 0038 d813 d5b7 20e5 d737
00000080: d6f0 99b8 7653 bf38 8074 0137 2e5e 3b39
00000090: 9f5f 1ab9 8fad 0a40 e047 4e38 a017 89b7
000000a0: 904b beb7 7079 3e37 47c7 3139 fca2 be38
000000b0: ec56 7240 e190 1339 f297 d1b8 f39c 5eb9
000000c0: ff1a a93f bb3b 793f 586a 1038 e42d b3b8
000000d0: 7814 9037 5c78 0d38 2ed9 f0b8 7c5f 0238
000000e0: bc33 4938 dc8a bfb8 016e 53b9 935a 2939
000000f0: 60b4 d2b7 42b5 9138 d006 e6b8 c8b1 6b38
00000100: 1460 39b8 40f1 7c38 847e f9b8 af55 2e39
00000110: b093 4738 be29 f438 f91f 0239 107f 77b7
00000120: bb7c 31b9 44fa 8d38 00b2 40b5 98ee 4db8
00000130: e08a 5837 a219 84b8 abe5 1fb9 aa81 a5b8
00000140: d0f8 88b7 2bcd 2039 32ce adb8 9820 1bb9
00000150: 077b 1439 2b79 1b40 74f5 4838 6971 36b9
00000160: 7884 e537 f7c1 0eb9 bcf7 1439 ea1f 94b8
00000170: ec03 3338 00c7 33b6 e4b6 2738 0a3e a6b8
00000180: 80fd a637 4374 3a39 5c2c 1c38 76f5 12b9
00000190: 5b29 29b9 4bb2 2bb9 e0cd 1eb8 acb6 28b8
000001a0: 0096 db35 177c 1f39 05df 0039 07c6 0439
000001b0: 4830 9c40 a636 0739 e8b3 ebb7 b2b9 a938
000001c0: c011 0639 2713 0139 bc4e c8b8 a0ca dcb6
000001d0: 12aa 2639 b053 44b8 86cf fa38 7c92 7eb8
000001e0: c833 dbb7 0c6a 3438 3a14 e538 ac46 55b9
000001f0: 00a3 6038 167e 4bb9 40ff 1837 5cb6 3eb9
00000200: 10a1 1f39 5a56 40b9 30d7 ab38 1795 3f39
00000210: 83fb 5bb9 8a2e 4fb9 e430 fb38 ba66 86b8
00000220: 7cd6 bcb8 e06c 5a38 36f8 3439 c1f3 13b9
00000230: ccc7 96b8 c04f 85b7 a823 4bb8 a006 0337
00000240: e03a 28b7 3c81 0639 fcf1 efb8 424f 61b9
00000250: 6894 5c3f 8aa0 41b9 00d6 a8b7 7032 2937
00000260: a0c2 56b8 312a 03b9 68a8 6c38 3f4a 0ab9
00000270: ba47 c33f c874 fab7 d006 dd37 a381 37b9
00000280: 530a 2839 881d a5b7 d650 0e39 8653 a0b8
00000290: c1d5 6b3f 1677 1e40 c1fe 03b9 2612 3539
000002a0: 449c 5db8 a0d7 1cb8 c76a 5bb9 d7f0 60b9
000002b0: 524a 21b9 1d1c 15b9 7300 8c3f 608c ecb6
000002c0: 705f 3cb8 27b2 50b9 096d 23b9 eb07 3b39
000002d0: aa99 1339 ceb8 2239 fc2b 8738 5435 ad38
000002e0: 40f9 9db6 06f6 f2b8 0c25 1f3f 0897 28b9
000002f0: ab0b 2440 264f 0eb9 0804 7c38 82eb 99b8
00000300: bdd3 4fb9 317f 4fb9 7ba2 3039 5af2 ec38
00000310: 2c10 8f38 88bf 3839 0cce d2b8 c460 4db9
00000320: 095a 03b9 5016 b438 94fa 63b8 76f1 bdb8
00000330: 4000 2bb9 186e bfb7 a8d3 56b9 b217 8638
00000340: 0ebc 4cb9 80b6 c1b6 1e76 8038 2fe8 0fb9
00000350: b0cc f7b8 0089 af37 36f1 6940 091f 383f
00000360: 5021 0ab7 ac8a c7b8 3c28 4bb9 f666 663f
00000370: 393a 06b9 4105 54b9 d000 2cb7 fee9 2bb9
00000380: 44f4 be38 90b3 30b8 b481 1c39 862e 12b9
00000390: 2870 1939 24c9 a038 6c62 4eb9 f910 11b9
000003a0: 78fa c037 4c0e c8b8 0e9d 2939 8288 01b9
000003b0: 0070 f9b8 b237 47b9 61fa 3340 9c13 ec38
000003c0: f8fb 71b8 4c8c 4bb8 6eb3 ea38 bc99 dd38
000003d0: 31a8 38b9 b97b 3739 a2df 2639 f29d ddb8
000003e0: a8c4 c438 e837 8f37 98c0 fd37 5705 673f
000003f0: 4ef6 0039 e867 54b8 ec94 0f38 3c43 d0b8
