iterative_k_clustering_breast_cancer/first_algorithm_results/K_3/training_results/initial_model.pt (torch, 19587 bytes, 4 tensors)

weight f4 [5, 399]
00000000: 8b32 22b9 5dd9 47b9 0bfb 7539 fcdc 4fb8
00000010: a247 d838 ecea 7b38 e23c 11b9 41c7 1fb9
00000020: 17c5 46b9 a49d 9fb8 e220 9938 6c6a bfb8
00000030: c8dd d53e 8c3d 1838 b46a 08b8 3f6d 5839
00000040: 3052 2fb8 dc60 f038 4647 f538 d0f6 0e39
00000050: 2b26 5c39 0c0a 1e38 12c7 8cb8 6035 b237
00000060: 1c5a 2d38 e724 6e39 573a 1cb9 4013 3339
00000070: dad7 06b9 1a6e 85b8 b88b fab7 2782 56b9
00000080: 2adb 07b9 6412 1f38 6aa2 ee38 7040 1837
00000090: 4388 3439 2c44 6c39 669d 8eb8 b0fa 6bb7
000000a0: 9f01 00b9 2218 53b9 7420 4eb8 09b4 c43d
000000b0: ac95 ad38 f782 04b9 aa9f 1d39 a0c6 bbb7
000000c0: f81b eeb8 02d6 edb8 3343 38b9 ee40 a638
000000d0: 4283 f538 ce60 1d39 58be 963f b8f3 2439
000000e0: 0265 f4b8 62ba d638 cc63 93b8 84c9 6238
000000f0: ec48 1939 6fea 1ab9 ee8c ba38 a099 bbb8
00000100: 885d 9eb7 c62c 98b8 8d3c 2eb9 6663 1f39
00000110: 340e 4bb8 5721 8138 40de 28b9 1767 25b9
00000120: 90d6 0338 a061 49b8 60c4 1e38 16e5 0239
00000130: c0fe 82b7 6ad2 ed38 bb95 1db9 0888 c6b7
00000140: fc0d c4b8 fd2f 29b9 0001 f0b7 870d 0439
00000150: fcae b8b8 c00b 2239 3c8e 23b9 002d 4836
00000160: eca3 9e38 0444 9f38 8c8a ad38 d6bd 3d39
00000170: 3e1b 2339 d7c5 5a39 4819 3d38 505d 4f39
00000180: 68ff f2b7 eab6 3539 d18f 1339 6485 5e38
00000190: 004d e935 4f9d 1f39 6aa1 c5b8 5eb7 243f
000001a0: ca8a 0139 30df 4bb9 857a 1539 0773 4639
000001b0: c0b0 2bb9 42fe 0639 a091 bb37 56a1 f2b8
000001c0: e0ec 0db7 84ef e2b8 a809 86b8 c7ba 4339
000001d0: f42e c038 0a57 8a38 1a85 85b8 0038 40b4
000001e0: c8ac eeb7 66ce f6b8 9b05 aeb8 7722 39b9
000001f0: 9cfc ff38 0865 e0b7 2a65 3f39 22fa 5539
00000200: 8029 0db8 3855 0938 5bf6 8d3f 1c28 9cb8
00000210: c0b9 94b6 65d1 2139 c0e1 3e39 74a0 1d39
00000220: a091 7bb8 e6ed fc38 f0aa b0b7 aec4 a038
00000230: 0008 55b9 4c98 90b8 c412 2d39 9c84 6eb8
00000240: 9eef 2939 d89f feb8 fe05 e738 815e 1939
00000250: 080a ef38 04d7 8838 c63d 9638 981f 9bb8
00000260: 4007 6737 190b 31b9 0e87 bab8 c00f ba38
00000270: d834 a1b7 e450 79b8 9079 a4b7 971c 4039
00000280: 0ca2 d738 fc2e 1c38 ab51 4fb9 9c25 f1b8
00000290: 5cae 3039 f67e f1b8 4cba 8b38 48c9 1bb9
000002a0: 78b5 6438 fc5b 4338 6066 a037 e478 5538
000002b0: 8038 abb5 9769 2f39 3455 d9b8 4c3f 3ab8
000002c0: e0f0 96b6 fc82 93b8 7012 8d38 34f4 4138
000002d0: 8af4 9f38 968a 4439 7888 f538 f4d7 d2b8
000002e0: c6b7 e5b8 4ca8 7639 788a 7438 99d2 143f
000002f0: 92a6 90b8 50e0 54b7 662c 19b9 f37d 3db9
00000300: ae75 83b8 462a 1fb9 a88f 11b8 0ee3 273e
00000310: 1ab3 803f 988d 3bb8 4c0b 0fb9 5222 39b9
00000320: 28cc 4f38 cc98 4e38 a410 6e38 fa96 2b39
00000330: 7ef6 1eb9 1012 4fb7 11a3 2b39 0436 0638
00000340: ea06 3d39 c0d5 c7b6 6c01 c438 327a ab38
00000350: 728c bab8 2289 10b9 4edc ae38 84ba 36b8
00000360: 9748 7839 68b4 47b8 0092 24b5 a0e0 9536
00000370: 586c f737 5205 e038 020f 8b38 781a a038
00000380: 0029 6c35 848d 9eb8 9617 81b8 b2f1 22b9
00000390: 07a3 8a3e c093 2c39 7cdf 2938 d0ca 97b8
000003a0: 80c9 0936 a85f fe38 b480 5739 2e9a 3e39
000003b0: 4029 96b6 7f42 1a39 5463 4f39 b276 8eb8
000003c0: 58fd d938 502d 5eb8 6498 1ab9 308e e4b7
000003d0: 2805 6cb8 843f 5b38 a4a7 6738 1891 b0b7
000003e0: 4c66 d9b8 5aa7 a838 10fc d838 60e8 1db9
000003f0: 24ee 3d39 8d14 4a39 1385 28b9 d82e 7638
-0.00015468353 -0.00019059093 0.00023458542 -4.9558454e-05 0.00010313025 6.006185e-05 -0.00013850958 -0.0001523765
-0.00018956173 -7.611074e-05 7.3017334e-05 -9.127412e-05 0.41770768 3.6296944e-05 -3.25243e-05 0.00020640063
-4.1799794e-05 0.00011462133 0.00011695786 0.0001363412 0.00020995054 3.7679492e-05 -6.7128e-05 2.1244108e-05
4.1330335e-05 0.00022711196 -0.00014899053 0.00017077941 -0.00012859647 -6.362442e-05 -2.9867384e-05 -0.00020457116
-0.00012956248 3.792568e-05 0.00011378976 9.074909e-06 0.00017216899 0.0002253211 -6.8004054e-05 -1.4065459e-05
-0.00012207635 -0.00020131518 -4.914445e-05 0.096046515 8.2771614e-05 -0.00012637289 0.00015032166 -2.238463e-05
-0.00011353934 -0.00011340903 -0.00017572641 7.927591e-05 0.00011706959 0.0001500875 1.1776838 0.00015731051
-0.00011653641 0.00010239032 -7.028095e-05 5.4070275e-05 0.00014618383 -0.00014773918 8.895421e-05 -8.94547e-05
-1.8878622e-05 -7.2562645e-05 -0.0001661649 0.0001520045 -4.84122e-05 6.1574094e-05 -0.00016104523 -0.0001577403
3.143266e-05 -4.8013055e-05 3.7853024e-05 0.00012483107 -1.5615835e-05 0.00011340233 -0.00015028466 -2.3666784e-05
-9.348613e-05 -0.00016134973 -2.8610695e-05 0.0001259354 -8.806397e-05 0.00015453901 -0.00015597878 2.9828516e-06
7.56456e-05 7.59438e-05 8.275089e-05 0.00018095164 0.0001555504 0.00020863801 4.5084656e-05 0.0001977582
-2.896758e-05 0.00017329646 0.00014072588 5.3053154e-05 1.7382263e-06 0.00015222024 -9.423758e-05 0.64342296
0.00012354102 -0.00019442732 0.0001425539 0.00018925602 -0.00016373675 0.00012873954 2.2359949e-05 -0.000115695104
-8.459407e-06 -0.00010821133 -6.3914165e-05 0.00018666229 9.164019e-05 6.596565e-05 -6.366726e-05 -1.7901766e-07
-2.8452268e-05 -0.00011768639 -8.298011e-05 -0.00017655814 0.000122064 -2.6749927e-05 0.00018252866 0.00020406445
-3.365567e-05 3.274271e-05 1.1090807 -7.4461306e-05 -4.432368e-06 0.00015432162 0.0001820391 0.0001503246
-5.9978687e-05 0.000120606084 -2.1060434e-05 7.666029e-05 -0.00020316243 -6.8948226e-05 0.00016505556 -5.6867124e-05
0.0001620636 -0.00012141437 0.000110160545 0.00014626422 0.000113982765 6.525035e-05 7.1640636e-05 -7.396861e-05
1.3770361e-05 -0.0001688417 -8.894327e-05 8.872105e-05 -1.9217303e-05 -5.944156e-05 -1.960693e-05 0.00018321197
0.000102821825 3.7237056e-05 -0.00019771482 -0.00011498781 0.00016849622 -0.00011515424 6.662737e-05 -0.00014856935
5.4528442e-05 4.657729e-05 1.9121158e-05 5.0895746e-05 -1.2756936e-06 0.00016728636 -0.00010363237 -4.4404806e-05
-4.49839e-06 -7.033904e-05 6.726838e-05 4.6242218e-05 7.62726e-05 0.00018743644 0.0001170793 -0.00010053805
-0.000109538014 0.00023523084 5.8303092e-05 0.58133847 -6.897481e-05 -1.26884115e-05 -0.00014607757 -0.00018071364
-6.268486e-05 -0.0001517917 -3.4704484e-05 0.16395208 1.0054657 -4.4716144e-05 -0.00013641751 -0.0001765576
4.954278e-05 4.925653e-05 5.675912e-05 0.00016364074 -0.0001515988 -1.2342367e-05 0.00016368578 3.1998396e-05
0.0001802702 -5.955546e-06 9.346273e-05 8.176676e-05 -8.895331e-05 -0.00013783996 8.3380015e-05 -4.3565888e-05
0.00023678165 -4.7613314e-05 -6.130722e-07 4.466696e-06 2.9495146e-05 0.00010682143 6.630832e-05 7.634325e-05
8.7976514e-07 -7.5603864e-05 -6.1555926e-05 -0.00015539562 0.27077505 0.0001645824 4.0500876e-05 -7.238018e-05
2.053188e-06 0.00012129481 0.00020551943 0.00018177248 -4.4751505e-06 0.00014711356 0.00019778061 -6.7931964e-05
0.00010394555 -5.2971125e-05 -0.00014743354 -2.724593e-05 -5.6271587e-05 5.2272822e-05 5.523082e-05 -2.10484e-05
-0.000103664206 8.042036e-05 0.00010346633 -0.00015059253 0.00018113159 0.00019271877 -0.00016071303 5.8694597e-05

bias f4 [5]
00000000: 227a da3d 9379 1740 a8d0 c5bf f56d f7bf
00000010: 7599 12c0
0.10667826 2.3667953 -1.5454302 -1.9330431 -2.2906163

weight f4 [379, 5]
00000000: 8174 3939 c4d3 14b9 f8ac e9b8 5137 2939
00000010: c81e 92b7 f069 c837 80cc 1337 6004 5c39
00000020: 3085 8d37 ab91 8a39 3408 27bf 0a39 153f
00000030: a255 08bf 8dfc c4be f87b aebd 9aa0 5639
00000040: 34f0 82b9 e8e0 8db7 2800 d2b8 6ca9 bf38
00000050: 6296 ee38 4497 21b9 1693 a138 0d7c e6b8
00000060: 9030 91b7 ba86 4139 ecaa 3839 981e b0b8
00000070: fbe3 9fb9 4f73 8fb9 ee0e b338 1e86 cb38
00000080: 3060 4f37 7189 3939 8022 54b6 d89d 00b9
00000090: c141 59b9 dbe9 33b9 9491 0cb8 e5f0 33b9
000000a0: c4e7 7938 6501 4d39 3a87 2bb9 9808 48b8
000000b0: bfab f6bd e04e 6e38 d24c 66b8 36a3 0a39
000000c0: 66be 3738 7c03 0ab9 da03 8339 80e1 0337
000000d0: d283 8838 e028 b836 2818 5039 4087 45b7
000000e0: a18b 5939 c0e0 72b8 2eb3 b138 8f12 2939
000000f0: e8a7 db37 fd4e 2f3f c8f2 e4be 4a75 57bd
00000100: 4e02 02bf c0f3 ddb6 a579 c43c a863 bd37
00000110: 214b 8ab9 3892 24b9 8047 03b6 cecf f73d
00000120: 48cd 2339 bfd0 b9b9 cf82 e5be 7ce4 5bb8
00000130: d561 09b9 d644 a9b8 1c65 7f38 8782 0cb9
00000140: b4e0 e538 d9c7 c1b8 0024 0bb5 3ecf a738
00000150: ec57 93b8 48d2 6bb8 a846 d3b8 08bf 4bb8
00000160: 25ef 36b9 ef56 8238 1289 0239 a229 c43e
00000170: 1d01 25be d64e e0bc a2a5 a2bd 585f 4039
00000180: 208d 043d 1cd3 84b9 beab 3ebb efb0 67be
00000190: e3a3 8c38 3a73 7c39 040e 5bb8 b05d cf36
000001a0: e4ea 5cb9 46bc f638 95b6 83b9 bc32 6339
000001b0: f21b 1639 fda2 6639 66fc b838 7aea 82b9
000001c0: 9e3a 4e39 c938 beb8 d018 7638 9a73 aab8
000001d0: 38b7 2439 9a0b b7b8 2529 5ab9 2b1a 3ab9
000001e0: 0ce3 dc38 c00c 9fb6 587d 45b8 5b5e 0eb9
000001f0: 256f 4cb9 b495 37b8 f716 06b9 cb42 c038
00000200: b025 1fb7 2080 f838 007c 18b4 78ef 19b9
00000210: 5e6e f6b8 b8ec d7b8 8b1d 6239 c0d8 ac37
00000220: c88c aa39 8166 0f39 dd06 53b9 d23f e6b8
00000230: 06dc e9b8 b82d c937 93e2 7939 fb4d 2eb9
00000240: 1817 de38 eb2b 0db9 8891 8f37 4098 dbb7
00000250: 2a33 e038 8c03 84b8 0c00 3d39 bec9 4cb9
00000260: cb53 4539 41bc d3b8 6ab8 1c39 3661 2fb9
00000270: 8c70 11b9 06dc e338 6cb8 6939 9894 e2b7
00000280: 28bd b9b7 52fa cb38 3366 49b9 d6bb d838
00000290: ae65 c438 afa6 1839 f620 bcb8 8027 13b6
000002a0: de15 9ab8 a2cf 6f38 af64 42b9 2427 0e38
000002b0: e0f0 0139 2885 edb8 6660 e8b8 1059 eeb7
000002c0: f638 8b38 dfe6 3eb9 a460 bcb8 7496 24b8
000002d0: 0ba3 12b9 ac90 7a38 1748 31b9 6df7 50b9
000002e0: 083e c7b8 5ae9 1839 aeb4 5c3e cb19 9dbd
000002f0: 2d7d 9dbd 775e c5bd 888c f237 40ef afb8
00000300: 2843 b237 0e33 4039 f524 5739 62c2 4539
00000310: 6694 b2b8 7a89 1d39 aad9 8ab8 be6d f9b8
00000320: aff2 0439 cc69 54b8 c8e8 eb38 7cd8 59b8
00000330: b44d c0b8 e0fe 14b9 51c3 57b9 603e d237
00000340: 9c4f a2b8 95f4 3839 3822 40b8 99ea 4ab9
00000350: c3ff 2e39 e000 8f36 86d9 d938 0746 15bf
00000360: ca6a b139 4a18 64bf f33f e2be c252 37bd
00000370: 547f 3239 33c1 17b9 1d83 5c39 20db b6b8
00000380: b408 acb8 bc5e 6bb8 7484 f938 e865 6938
00000390: b7fe 5039 40c7 5939 6055 5cb8 fe1f 9338
000003a0: 6cde 4739 0013 4136 b0db 72b8 803e 9b37
000003b0: cc3d 2138 884f 1339 e2ff d938 8e31 da38
000003c0: 6441 6d39 4c63 f538 80d5 76b6 631e 9038
000003d0: 20af 79b7 a049 8b38 e1e4 1239 5245 9db8
000003e0: 98c3 9237 2cab b8b8 29d6 1139 f41a 5ab9
000003f0: 1996 0939 465e 8039 3ef1 85b8 a8a0 7a38
0.00017686376 -0.00014193269 -0.00011142524 0.00016137703 -1.741889e-05 2.3891189e-05 8.809497e-06 0.00020982465
1.687053e-05 0.00026429942 -0.6524689 0.5829016 -0.53255665 -0.3847393 -0.08519739 0.00020468459
-0.00024974498 -1.691324e-05 -0.000100136094 9.139147e-05 0.00011376735 -0.00015410507 7.704475e-05 -0.00010990361
-1.730796e-05 0.00018456104 0.00017611281 -8.3980325e-05 -0.00030496702 -0.00027360997 8.538166e-05 9.7047756e-05
1.2360557e-05 0.00017694176 -3.1610543e-06 -0.00012265833 -0.00020719228 -0.00017157888 -3.351418e-05 -0.0001716051
5.9582075e-05 0.00019550843 -0.00016358207 -4.769172e-05 -0.12044477 5.681708e-05 -5.4907818e-05 0.00013221506
4.3807922e-05 -0.00013162004 0.00024989137 7.860712e-06 6.509539e-05 5.488386e-06 0.00019845425 -1.1773605e-05
0.00020746748 -5.790661e-05 8.4733925e-05 0.0001612401 2.6185022e-05 0.684799 -0.44716477 -0.05260209
-0.50784767 -6.6146895e-06 0.023983786 2.2576962e-05 -0.00026377387 -0.0001569473 -1.956214e-06 0.121001825
0.00015621365 -0.00035441478 -0.44826362 -5.242646e-05 -0.00013101783 -8.07137e-05 6.0890903e-05 -0.00013400066
0.00010961425 -9.240182e-05 -5.183392e-07 8.0017824e-05 -7.025883e-05 -5.6224206e-05 -0.00010074425 -4.8576883e-05
-0.00017445961 6.215076e-05 0.00012448829 0.38313013 -0.16113706 -0.027381342 -0.07941748 0.00018346065
0.03236115 -0.0002533429 -0.0029094066 -0.22626089 6.7062465e-05 0.00024075518 -5.2226722e-05 6.1799874e-06
-0.00021068339 0.00011765263 -0.000251223 0.00021667307 0.00014315525 0.00021995227 8.8208166e-05 -0.0002497023
0.00019667528 -9.070483e-05 5.867408e-05 -8.127764e-05 0.00015708513 -8.728281e-05 -0.00020805428 -0.0001774809
0.00010532708 -4.7400536e-06 -4.7085196e-05 -0.00013577325 -0.0001949636 -4.3770022e-05 -0.00012787791 9.1677146e-05
-9.485913e-06 0.00011849427 -1.4201214e-07 -0.00014680426 -0.000117507516 -0.00010296091 0.00021564045 2.060493e-05
0.00032529817 0.00013675728 -0.00020125085 -0.00010979142 -0.00011151288 2.3982357e-05 0.00023830896 -0.00016622983
0.000105900865 -0.00013463169 1.7114697e-05 -2.6177731e-05 0.000106906824 -6.294911e-05 0.00018024462 -0.00019530111
0.000188186 -0.00010096329 0.00014946019 -0.00016725514 -0.00013870205 0.00010865186 0.00022289314 -2.7010494e-05
-2.2141801e-05 9.72642e-05 -0.00019206926 0.0001033467 9.3649476e-05 0.00014557944 -8.970678e-05 -2.19277e-06
-7.347365e-05 5.7175414e-05 -0.0001853879 3.389189e-05 0.00012392132 -0.00011325843 -0.00011080578 -2.8413284e-05
6.638646e-05 -0.00018205818 -8.982539e-05 -3.9240767e-05 -0.00013984383 5.973938e-05 -0.00016906891 -0.00019928599
-9.500614e-05 0.0001458278 0.21553299 -0.07670935 -0.07689891 -0.09637158 2.8914088e-05 -8.389214e-05
2.1250526e-05 0.00018329566 0.00020517765 0.00018859797 -8.515343e-05 0.00015023901 -6.620896e-05 -0.00011893686
0.00012678908 -5.064327e-05 0.00011249032 -5.193845e-05 -9.169747e-05 -0.00014209328 -0.00020576759 2.5062996e-05
-7.7395904e-05 0.00017638721 -4.5808236e-05 -0.00019351616 0.00016689212 4.261834e-06 0.00010387883 -0.5830998
0.00033839635 -0.8909956 -0.44189414 -0.04475666 0.00017022836 -0.00014472454 0.00021029678 -8.7192515e-05
-8.20322e-05 -5.6116594e-05 0.000118979166 5.5646437e-05 0.00019931314 0.00020768959 -5.25316e-05 7.015465e-05
0.00019060978 2.87703e-06 -5.7901896e-05 1.8506544e-05 3.8442944e-05 0.0001404864 0.00010395028 0.0001040428
0.00022626441 0.00011701006 -3.678113e-06 6.872115e-05 -1.4882331e-05 6.64175e-05 0.00014008909 -7.499255e-05
1.7495637e-05 -8.805687e-05 0.00013908058 -0.00020800141 0.00013121254 0.00024484302 -6.386869e-05 5.9754268e-05

bias f4 [379]
00000000: 84be c838 909f 10b7 4f31 6e3e 5ccc d4b8
00000010: 7b91 ae38 c092 b439 a883 36b9 c89e ad37
00000020: e509 b43a d4f8 c038 c8db 9338 d04a a138
00000030: 6d59 403f c1e0 d638 1044 733d 1425 7539
00000040: a4ca f7b7 909a 8039 b45d 0e3f a6be bb3d
00000050: bd22 8bb8 f9c7 a938 826e 10b9 1e4e 19b9
00000060: fa61 c1b8 60db ee38 08d1 a537 02a2 0b39
00000070: a04d 00b9 9851 21b9 2a7f b1b8 9004 8ab9
00000080: 18c9 4939 0037 97b9 8894 bc38 ae97 b038
00000090: f271 1739 e2ac d63e b4cc a638 0ce2 39b9
000000a0: 40bc 8eb6 2609 6ab9 3a01 4239 8b74 323f
000000b0: 5000 4fb7 7e35 8cb8 c8c9 81b9 9c99 5d38
000000c0: 97ac 8cb9 6dc1 06b9 7691 a9b8 5078 8bb8
000000d0: 6a02 e2b8 d40a 8bb8 a4ab 4c3f 10fd 73b7
000000e0: 2a7d 5cb9 4827 50b8 3057 04b7 40b6 12b9
000000f0: f22a 373e 6810 ea36 0881 18b9 045a 4e38
00000100: 0c38 9b39 5f16 453e 709b 5e38 9e33 3ab9
00000110: 050b e2b8 661a ce39 98c9 2ab8 4049 64b6
00000120: 1f34 80b9 79d2 91b9 21cb 4ab9 80f9 a238
00000130: cb8a 2439 0c7b dbb8 1ede e038 881f 7d39
00000140: 3129 17b9 10a1 6637 7843 dd38 3812 77b9
00000150: 187d c6b7 2a5b 153e 924b 85b9 481a 643d
00000160: 0043 b0b6 2096 ea36 8f17 1f39 9464 bb38
00000170: 68aa 4ab8 b769 8638 b880 2f3e 3368 8d3e
00000180: cca2 2638 2f93 5ab9 d351 78b9 4686 b438
00000190: 306b 63b7 68b5 2237 ad4f 27b9 adf6 213f
000001a0: 8b68 73b9 2870 a138 529b cf38 8eae 8a38
000001b0: 0cc2 3eb9 4647 093f ecc8 0d39 ddd6 1eb9
000001c0: 9834 4ab7 8c5e 9db8 6be3 1ab9 47ce 25b9
000001d0: 00a3 a9b7 98cd f8b7 3030 7c37 500c a437
000001e0: 7051 3fb9 d55b a43c a667 a63e 72d0 f638
000001f0: 23bf 3fb9 201b 3239 00b9 77b8 4aa9 33b9
00000200: 8077 48b8 00a0 4ab5 3e58 4a3f 0083 f336
00000210: 13a3 3339 5985 7739 447c 1338 b1ea bf39
00000220: 127a 35b9 1cc8 34b9 0691 34b8 68cd a537
00000230: 882e 8337 f81e 13b9 a16e 0cb9 2b81 d138
00000240: 5360 11b9 2172 8eb8 9e09 2bb9 fc27 2638
00000250: 8cfc 44b8 1f09 5ab9 8462 18b8 86a3 05b9
00000260: b058 d038 7d62 06b9 6037 3337 7c2c 4238
00000270: a783 e1b8 ea7a ce38 a0a6 9837 4067 7fb9
00000280: 90a1 69b8 e4ec 9737 00dc 2cb8 3676 ebb8
00000290: b87f d9b8 b068 60b7 e219 1eb9 b04b 4a38
000002a0: b8a0 ce38 9cbf 0138 20a5 5c37 88ba 6a39
000002b0: 96d8 ba38 70cc 6937 091c 4639 603c 27b8
000002c0: 7579 1c39 dd35 19b9 ecba 59b8 fc58 2538
000002d0: 9226 8139 07d4 27b9 2bde 0fb9 b031 16b9
000002e0: e663 3739 a638 233b 4f2b 1739 f3b2 4b3f
000002f0: 6154 ab3e 714c 7439 d8e7 ae38 0b9e 6139
00000300: f2a1 7db9 3cf5 cfb8 0f5f 6cb9 2ceb cb3e
00000310: 18f7 813f 88bd 93b7 38e2 3db9 a01a e236
00000320: 6a1c 9bb8 68c5 dbb7 d655 fb38 32f0 f9b8
00000330: d325 7db9 20ca 3039 8050 5736 01a5 0f3e
00000340: ae2b b0b8 ead6 86b8 4640 d538 9529 00b9
00000350: 9a6d 4bb9 7cc3 67b9 f0fc 2a38 c01a 0a37
00000360: 1404 c238 b036 a8b7 70d8 5db8 750a 0939
00000370: 8ab7 f938 90ee 41b9 2f6a 47b9 a6fb 96b8
00000380: 62a0 88b9 fe6f e2b8 c980 0db9 5421 55b9
00000390: d44e 433f e4bd 373f 5ac9 ee38 2445 1538
000003a0: 13c3 56b9 703b 71b9 5fe6 cc38 44ae 173e
000003b0: 4c2c b438 7c5e 87b8 98bf 62b9 b56c 3fb9
000003c0: 649f d73d 545b 5bb8 d4c3 2ab8 54c3 c2b8
000003d0: d0fa 8d38 31c6 16b9 9cb6 18b8 e02a d8b8
000003e0: 598d 05b9 c457 1cb8 8c4c 5238 6ce1 36b8
000003f0: 48a6 50b9 988f 81b8 1cf4 8738 08b1 28b9
9.5722295e-05 -8.62022e-06 0.23260997 -0.00010147013 8.3240644e-05 0.00034441613 -0.00017405918 2.0697145e-05
0.0013735859 9.201621e-05 7.050444e-05 7.691013e-05 0.7513645 0.00010246179 0.05939108 0.00023378833
-2.9539056e-05 0.0002452922 0.5561173 0.09167223 -6.634507e-05 8.095796e-05 -0.00013774078 -0.00014620318
-9.221207e-05 0.00011389586 1.976687e-05 0.00013316426 -0.00012235949 -0.00015384553 -8.463704e-05 -0.0002632481
0.00019243767 -0.00028841943 8.992205e-05 8.4205865e-05 0.0001444293 0.41928774 7.953626e-05 -0.00017727184
-4.253845e-06 -0.00022319387 0.00018501739 0.6970908 -1.2338234e-05 -6.685684e-05 -0.00024755136 5.2833566e-05
-0.0002683147 -0.00012851293 -8.085642e-05 -6.6504464e-05 -0.000107769694 -6.6300534e-05 0.799494 -1.4542849e-05
-0.00021027462 -4.9627648e-05 -7.888113e-06 -0.00013991538 0.17887476 6.9756534e-06 -0.00014543917 4.919806e-05
0.00029605662 0.19246815 5.3073687e-05 -0.00017757571 -0.00010778572 0.0003931105 -4.0718907e-05 -3.4017285e-06
-0.00024452896 -0.0002781337 -0.00019339893 7.771235e-05 0.00015691963 -0.00010465653 0.00010722525 0.00024139707
-0.00014415827 1.3746569e-05 0.00010550668 -0.00023562543 -2.366169e-05 0.14585558 -0.0002542404 0.055689126
-5.2530086e-06 6.9912203e-06 0.00015172198 8.935589e-05 -4.8319256e-05 6.409309e-05 0.17138946 0.2761856
3.97291e-05 -0.0002084493 -0.00023681605 8.608079e-05 -1.3555211e-05 9.698189e-06 -0.00015956043 0.6326702
-0.00023213231 7.697969e-05 9.89946e-05 6.612866e-05 -0.000181921 0.5362438 0.00013521657 -0.00015148097
-1.2052384e-05 -7.503954e-05 -0.00014771304 -0.0001581247 -2.0222273e-05 -2.965964e-05 1.503159e-05 1.9556057e-05
-0.00018245517 0.02006332 0.32500952 0.0001176902 -0.00018286383 0.00016985508 -5.9061684e-05 -0.00017133835
-4.779501e-05 -7.5483695e-07 0.79040897 7.2572147e-06 0.0001713152 0.00023605431 3.5163263e-05 0.00036605218
-0.0001730698 -0.00017240684 -4.3050408e-05 1.9765183e-05 1.5638085e-05 -0.00014030549 -0.00013392653 9.989956e-05
-0.00013864161 -6.792346e-05 -0.00016311413 3.9614722e-05 -4.6965244e-05 -0.00020793498 -3.6331374e-05 -0.00012744786
9.934732e-05 -0.00012815926 1.0682124e-05 4.6294634e-05 -0.00010753358 9.84574e-05 1.8197403e-05 -0.00024357159
-5.5701996e-05 1.8110914e-05 -4.1212887e-05 -0.00011227692 -0.00010371156 -1.3375815e-05 -0.00015077696 4.8231042e-05
9.852782e-05 3.0934447e-05 1.3151468e-05 0.00022385467 8.9095134e-05 1.3935482e-05 0.00018893195 -3.987213e-05
0.00014922566 -0.00014611283 -5.1910916e-05 3.942194e-05 0.00024633534 -0.00016005347 -0.00013720307 -0.00014323625
0.00017489455 0.0024905591 0.00014416616 0.7956993 0.33462813 0.0002329813 8.340151e-05 0.00021516548
-0.0002418829 -9.916208e-05 -0.00022542126 0.3982786 1.0153532 -1.7612023e-05 -0.00018108718 6.7384244e-06
-7.3962685e-05 -2.6198759e-05 0.00011984601 -0.00011917985 -0.00024142051 0.00016859965 3.2084354e-06 0.14027788
-8.40047e-05 -6.429649e-05 0.00010168603 -0.00012222522 -0.00019400418 -0.000221027 4.0766725e-05 8.231669e-06
9.2514005e-05 -2.0052626e-05 -5.289208e-05 0.00013069234 0.00011907432 -0.00018494786 -0.00019017675 -7.1994305e-05
-0.00026059436 -0.0001079738 -0.00013494784 -0.00020325679 0.7629216 0.71774125 0.00011386229 3.558876e-05
-0.00020481301 -0.00023005693 9.770388e-05 0.14812571 8.59132e-05 -6.454901e-05 -0.00021624414 -0.00018255676
0.10528448 -5.2298725e-05 -4.0713538e-05 -9.2870236e-05 6.7701214e-05 -0.00014378947 -3.6409692e-05 -0.00010307669
-0.00012736525 -3.7275036e-05 5.013919e-05 -4.3602122e-05 -0.0001989837 -6.177946e-05 6.4827706e-05 -0.00016087678
