RECAP_clustering_breast_cancer/results_trainings/K_3/cluster_1/training_results/cluster_0_model.pt (torch, 19023 bytes, 4 tensors)

weight f4 [5, 385]
0	0x38fb3262	0.00011977997
1	0x39296b87	0.00016157153
2	0x38800bb4	6.1056955e-05
3	0x390a62df	0.00013197538
4	0xb80de714	-3.3832228e-05
5	0xb8bf7456	-9.129259e-05
6	0xb8cc1f92	-9.7333585e-05
7	0x38927e84	6.985388e-05
8	0xb7d9b120	-2.5950896e-05
9	0xb8a36986	-7.792101e-05
10	0x3955d1cc	0.00020391418
11	0x38c9dd3f	9.625637e-05
12	0xb8bf7e83	-9.1311544e-05
13	0x390b441f	0.0001328145
14	0xb8813f84	-6.16303e-05
15	0x3941829e	0.00018454573
16	0x3880044e	6.1043174e-05
17	0xb8851f02	-6.34771e-05
18	0x391e8e39	0.00015121036
19	0x38415178	4.609066e-05
20	0x38532244	5.0338233e-05
21	0x3933c2d4	0.0001714335
22	0x38a3362c	7.782536e-05
23	0xb908a655	-0.00013031934
24	0x39592eea	0.0002071221
25	0x38f6aa1c	0.000117618794
26	0xb7d557f0	-2.5432528e-05
27	0x38b5f24e	8.675885e-05
28	0xb942135d	-0.00018508495
29	0xb9166ed9	-0.00014346409
30	0xb7f0b508	-2.8694529e-05
31	0x38ac695c	8.221224e-05
32	0xb81b34e4	-3.7004138e-05
33	0x39202b90	0.00015275017
34	0xb9490e1b	-0.00019174108
35	0x379d3690	1.8741266e-05
36	0xb7715380	-1.4384161e-05
37	0x388c2ebc	6.684425e-05
38	0x38010c68	3.076755e-05
39	0x39525eb0	0.00020062434
40	0xb9483dd7	-0.00019096523
41	0xb8eb2290	-0.00011212111
42	0xb8100518	-3.433702e-05
43	0x38c510f4	9.39685e-05
44	0x39041dce	0.00012599604
45	0x39271ade	0.0001593637
46	0x395997f2	0.00020751337
47	0xb9459fba	-0.00018846887
48	0xb8f07b12	-0.000114670154
49	0x372ccfa0	1.030034e-05
50	0x390f252e	0.00013651393
51	0xb8bd84ca	-9.036956e-05
52	0xb79f0f30	-1.896135e-05
53	0xb4cd6000	-3.8254075e-07
54	0xb8c292de	-9.277997e-05
55	0x38be4554	9.0728194e-05
56	0x3839b010	4.4271408e-05
57	0xb73c8d80	-1.1238619e-05
58	0xb8e3b34e	-0.000108576016
59	0xb846ff10	-4.7444424e-05
60	0xb8472014	-4.7475172e-05
61	0xb80ac7d4	-3.308787e-05
62	0x38d35122	0.00010076376
63	0x3934ba89	0.00017235627
64	0x39241a7b	0.00015650124
65	0xb8e88104	-0.00011086653
66	0xb89ae302	-7.385576e-05
67	0xb9015cd1	-0.00012336975
68	0x391a8699	0.00014736726
69	0xb910f1fd	-0.00013823058
70	0x388d07ac	6.724833e-05
71	0xb8464738	-4.7273206e-05
72	0x3686c760	4.0167215e-06
73	0x3910c589	0.00013806498
74	0xb76bc750	-1.4053498e-05
75	0x393b56c1	0.00017866028
76	0x37e6da30	2.7519738e-05
77	0x390d0de9	0.0001345199
78	0x3899e4ba	7.338212e-05
79	0xb8a76dbe	-7.9836216e-05
80	0xb8af0312	-8.345222e-05
81	0x384e00f8	4.911513e-05
82	0x393731cf	0.00017470795
83	0x379d1550	1.8725783e-05
84	0x35122c00	5.4453267e-07
85	0xb8937174	-7.0306385e-05
86	0xb8c8ceca	-9.5752606e-05
87	0x37e16db0	2.6873167e-05
88	0x382bc568	4.0953426e-05
89	0x392f62e9	0.00016726147
90	0xb876da6c	-5.885439e-05
91	0xb8987c62	-7.271093e-05
92	0x38fc0790	0.00012017705
93	0xb6b48be0	-5.3807016e-06
94	0xb90943db	-0.00013090616
95	0x37e16b68	2.6872105e-05
96	0xb8318800	-4.232675e-05
97	0x38a7e80c	8.006403e-05
98	0xb61e0fc0	-2.3553002e-06
99	0xb8d41730	-0.00010113267
100	0xb8cc9e36	-9.756947e-05
101	0xb8817f56	-6.1749175e-05
102	0xb830f8d8	-4.2193424e-05
103	0x39135ec1	0.00014054311
104	0xb9491b1a	-0.0001917895
105	0x36e18940	6.7215005e-06
106	0xb91630d3	-0.00014323303
107	0x370b7d60	8.314237e-06
108	0x383b6e48	4.468698e-05
109	0x3902e101	0.00012481587
110	0xb8ab894e	-8.1794904e-05
111	0xb91c3e66	-0.00014900565
112	0xb8deef92	-0.00010630408
113	0xb948a71e	-0.00019135742
114	0x397803aa	0.00023652488
115	0x38beb840	9.094225e-05
116	0x3944a719	0.00018754265
117	0x3790e690	1.7273502e-05
118	0xb93bbb05	-0.0001790338
119	0x38be5da2	9.0773465e-05
120	0x38a13dc0	7.68858e-05
121	0x39592987	0.00020710203
122	0x379c0be8	1.8602193e-05
123	0xb941d0a1	-0.00018483635
124	0x382ee07c	4.16939e-05
125	0x38e5d93a	0.000109600325
126	0x39163d45	0.0001432794
127	0x390d6418	0.00013484096
128	0x38664850	5.490362e-05
129	0x3950be65	0.00019907353
130	0x38c76712	9.508258e-05
131	0x3886a70c	6.420733e-05
132	0xb8c50778	-9.395083e-05
133	0x38fb1c3e	0.00011973873
134	0x39490a19	0.00019172615
135	0x38df65f2	0.000106524574
136	0x38a98ac6	8.0843965e-05
137	0x37d8c898	2.5842615e-05
138	0xb83fd95c	-4.574038e-05
139	0x395ff155	0.0002135684
140	0xb90fbc81	-0.00013707766
141	0xb91732d8	-0.00014419423
142	0xb954357e	-0.00020237823
143	0xb7089060	-8.139847e-06
144	0x37844d30	1.577157e-05
145	0xb883f0ae	-6.291397e-05
146	0x39257493	0.00015779054
147	0x36820100	3.8744183e-06
148	0xb8699f84	-5.570009e-05
149	0xb7e25c90	-2.6984402e-05
150	0xb918d32e	-0.0001457452
151	0x3917741d	0.00014443738
152	0xb8452f58	-4.7012552e-05
153	0xb8f0d344	-0.00011483443
154	0xb8a2d86c	-7.765074e-05
155	0xb9178ea1	-0.00014453616
156	0x38fc1116	0.00012019479
157	0x39209d5e	0.00015317413
158	0xb91d4f3e	-0.00015002207
159	0x38425c64	4.633925e-05
160	0x38c199c8	9.231601e-05
161	0x389da5d6	7.517233e-05
162	0x38eef6f0	0.0001139472
163	0x392cd92f	0.00016484105
164	0xb8c79606	-9.5170035e-05
165	0xb77fd820	-1.5249505e-05
166	0x3901cf6e	0.00012379672
167	0xb90d3c04	-0.00013469165
168	0xb64ea880	-3.0794472e-06
169	0xb82d5418	-4.1324733e-05
170	0x3868d818	5.5514363e-05
171	0xb812fc60	-3.5044155e-05
172	0x392bb73f	0.00016376095
173	0xb6c4bf40	-5.8635196e-06
174	0x3975a487	0.00023426312
175	0xb8b0bf42	-8.4279585e-05
176	0x388d7bec	6.746486e-05
177	0x3964d70b	0.00021823884
178	0xb90b2dd1	-0.00013273141
179	0x38b6990a	8.706942e-05
180	0x3e3ec4b2	0.18629721
181	0x390b9266	0.0001331061
182	0x39258bb9	0.00015787677
183	0x3885cc62	6.3800035e-05
184	0x385b9804	5.2355244e-05
185	0x38a5a466	7.898435e-05
186	0xb8db4efa	-0.00010457444
187	0x394456f2	0.00018724406
188	0x39aa1ec3	0.00032447846
189	0x394cd94a	0.00019535903
190	0x363c9e40	2.8106297e-06
191	0xb939ed57	-0.00017731391
192	0x37c95690	2.4001376e-05
193	0x38c6aec0	9.4739255e-05
194	0xb94864ab	-0.00019110988
195	0xb95ccb2c	-0.00021056522
196	0x38957830	7.12726e-05
197	0x39629ab4	0.00021610671
198	0x383993f8	4.4245244e-05
199	0xb826dd10	-3.9783365e-05
200	0xb8ff5e5a	-0.00012176922
201	0xb8f45cf0	-0.000116521376
202	0x3939063d	0.00017645299
203	0xb857b588	-5.142906e-05
204	0xb904cc1c	-0.00012664538
205	0x38dcbc52	0.00010525495
206	0x390a2a29	0.00013176411
207	0x3932d1b2	0.0001705352
208	0x37a63a48	1.9815881e-05
209	0xb77ddd60	-1.5131518e-05
210	0xb91269c7	-0.0001396305
211	0xb93291f9	-0.00017029782
212	0xb94a4d2d	-0.00019292971
213	0xb7d444d0	-2.5304413e-05
214	0x38dca121	0.0001052043
215	0xb93ef5d1	-0.00018211386
216	0x3e17f5c6	0.14839849
217	0xb923dd89	-0.0001562742
218	0xb9090f64	-0.00013071072
219	0xb94ca8d5	-0.00019517851
220	0xb8a78bc2	-7.9892125e-05
221	0xb8d67cae	-0.000102275386
222	0x36f21dc0	7.2156254e-06
223	0x39520664	0.00020029541
224	0xb90d18e3	-0.00013456079
225	0x38773a78	5.8943842e-05
226	0x38470dac	4.745803e-05
227	0xb8b7fa48	-8.7727385e-05
228	0xb81836ec	-3.6290774e-05
229	0x38fcf2ac	0.000120614975
230	0x394130d5	0.00018424106
231	0xb784fe50	-1.585405e-05
232	0xb8a8e332	-8.053183e-05
233	0x39498d10	0.00019221404
234	0x3911a7f7	0.0001389085
235	0xb94bb308	-0.00019426283
236	0xb923b47a	-0.00015612124
237	0x38fe77e0	0.00012133992
238	0xb929728b	-0.00016159767
239	0x39600a24	0.00021366082
240	0xb92b3f9e	-0.0001633153
241	0xb83bd0c0	-4.4778688e-05
242	0xb88dc59c	-6.7602115e-05
243	0xb40e9400	-1.3278623e-07
244	0x392bcea5	0.00016384812
245	0x3f09e38e	0.53862846
246	0x38b57636	8.652771e-05
247	0xb89d4142	-7.4984986e-05
248	0xb8af4894	-8.358169e-05
249	0xb8d67e27	-0.00010227813
250	0xb93fb244	-0.00018281589
251	0x3851bd20	5.000562e-05
252	0xb8c2d7d8	-9.290845e-05
253	0x385c3234	5.2498843e-05
254	0x3818f0d8	3.6463927e-05
255	0xb8fe31de	-0.00012120952

bias f4 [5]
0	0xbfce0986	-1.6096656
1	0xbf76c950	-0.9640093
2	0x40078f00	2.118103
3	0xbffc0499	-1.9688903
4	0xbfdb7d64	-1.7147641

weight f4 [365, 5]
0	0x38f17a9c	0.00011514613
1	0x38bfca3e	9.14526e-05
2	0xb8afa8b4	-8.376074e-05
3	0x392f87d8	0.00016739906
4	0x36a70fa0	4.978807e-06
5	0xbf8f107e	-1.1176908
6	0xb98b48d1	-0.00026566398
7	0x3dc738b7	0.097276144
8	0xbe7d787d	-0.24752994
9	0xbe339add	-0.17539544
10	0x388b5dec	6.645531e-05
11	0x390bc2cb	0.00013328639
12	0xb84f59fc	-4.943645e-05
13	0xb91fed40	-0.00015251804
14	0x37ef7cd8	2.8549155e-05
15	0x395989da	0.00020746086
16	0xb7ccdc60	-2.4421315e-05
17	0x393e5138	0.00018150068
18	0xb982c8e2	-0.00024945202
19	0xb98ccb04	-0.0002685414
20	0xb83f8284	-4.56595e-05
21	0x3906c35f	0.00012852017
22	0xb8222e74	-3.8667073e-05
23	0xb85e7458	-5.3037278e-05
24	0x38f88c50	0.00011851697
25	0xb8263284	-3.962453e-05
26	0x38aebe14	8.332371e-05
27	0x38be0828	9.061425e-05
28	0x396bb0c2	0.00022477194
29	0xb8f19f7a	-0.0001152148
30	0xb89d9455	-7.5139724e-05
31	0xb854dad2	-5.074853e-05
32	0x38d32b9c	0.00010069387
33	0xb95c0ee8	-0.00020986388
34	0xb983bd8d	-0.00025127493
35	0x391af223	0.00014776787
36	0x37ec0690	2.8136448e-05
37	0x3965f8d9	0.00021931845
38	0xb87bf9e8	-6.0075807e-05
39	0x39181be9	0.00014506247
40	0xb7dc3880	-2.6252354e-05
41	0x38d39a54	0.0001009001
42	0x39018608	0.00012352329
43	0x397dd851	0.00024208544
44	0x38bcc68e	9.001522e-05
45	0x36ce78e0	6.15335e-06
46	0x39204c61	0.00015287242
47	0x390aea12	0.00013247904
48	0xb9236d92	-0.0001558571
49	0x38178848	3.6128127e-05
50	0x3850d02c	4.978494e-05
51	0xb99c9fe1	-0.00029873758
52	0x3eaf5f32	0.34252316
53	0xbeb25022	-0.3482676
54	0xbd0f818f	-0.035035666
55	0xb94af9cd	-0.00019357279
56	0xb97440e8	-0.00023293833
57	0x3dbafebb	0.09130617
58	0xb998e37e	-0.00029161194
59	0xb980267f	-0.00024442744
60	0x38346c12	4.3015993e-05
61	0xb99501cc	-0.00028420833
62	0x37c8e344	2.3947687e-05
63	0xb937fefa	-0.00017547226
64	0x377b2fcc	1.4971894e-05
65	0xb9252bb8	-0.00015751913
66	0xb9057af8	-0.00012729678
67	0x39380c7f	0.00017552263
68	0xb583f780	-9.832293e-07
69	0xb9717127	-0.00023025704
70	0x397067b2	0.00022926813
71	0xb8e9fbc0	-0.00011157198
72	0xb916d43c	-0.00014384178
73	0x381c4270	3.7255173e-05
74	0xb9198026	-0.00014638956
75	0xb75e4d90	-1.325029e-05
76	0xb871b974	-5.7631594e-05
77	0x38b72014	8.732095e-05
78	0x385f9094	5.3301992e-05
79	0x38313efc	4.2258747e-05
80	0xb8fc91cf	-0.00012043455
81	0xb8a5b604	-7.901716e-05
82	0x382b5ddc	4.085699e-05
83	0xb92bd0ea	-0.00016385657
84	0xb8f6d09a	-0.00011769049
85	0x391d9191	0.00015026914
86	0xb98cd333	-0.00026860237
87	0x39830636	0.00024990895
88	0xb8f3dace	-0.000116278985
89	0xb925a957	-0.0001579871
90	0xb82fae85	-4.1885785e-05
91	0x374bcbb0	1.2147168e-05
92	0x37d6c2f0	2.5601563e-05
93	0x388134e5	6.161052e-05
94	0xb9867676	-0.00025646732
95	0xb88c38b8	-6.686285e-05
96	0xb9091402	-0.00013072792
97	0xb8e2cc9c	-0.00010814631
98	0xb7bf7938	-2.2825421e-05
99	0x379d2bb0	1.8736202e-05
100	0xb924be03	-0.00015711044
101	0xb84cd7d0	-4.883838e-05
102	0xb907fad1	-0.0001296804
103	0x393cbe2f	0.00017999926
104	0xb86b2f58	-5.607246e-05
105	0x39040185	0.00012589067
106	0x390dcbf3	0.00013522785
107	0xb8a8856c	-8.035716e-05
108	0xb96c9f2f	-0.00022566014
109	0x3833e9e4	4.2894753e-05
110	0x398b449e	0.0002656327
111	0xb7ecb500	-2.8217677e-05
112	0xb8e25420	-0.00010792189
113	0xb85306d8	-5.0312694e-05
114	0xb905cf2b	-0.00012761044
115	0x3909a3cd	0.00013126359
116	0x391b42ea	0.0001480688
117	0x38f7030a	0.00011778444
118	0x392e779d	0.00016638493
119	0xb8341158	-4.2931497e-05
120	0xb9090387	-0.00013066652
121	0xb6e963c0	-6.9555535e-06
122	0x398ade00	0.00026486814
123	0xb9751977	-0.00023374507
124	0xb8ad9b00	-8.278154e-05
125	0x3911c9d8	0.0001390347
126	0xb90fbe5c	-0.00013708457
127	0x3947014b	0.000189786
128	0xbd893ab0	-0.06700647
129	0x386c76b0	5.637732e-05
130	0x3925ca53	0.00015810998
131	0x37992d60	1.826015e-05
132	0x37e47218	2.7232847e-05
133	0xb8bc6928	-8.9841255e-05
134	0x397bce2e	0.00024014033
135	0xb90b68bb	-0.00013295088
136	0x38908db2	6.892848e-05
137	0x37ad1dd0	2.063709e-05
138	0xb8c312ee	-9.3018505e-05
139	0x394156df	0.00018438276
140	0x391b8094	0.00014829851
141	0x39095445	0.00013096731
142	0xb9360b03	-0.00017360975
143	0x39295b56	0.00016151121
144	0x360fa940	2.1407177e-06
145	0x3941b3db	0.00018472916
146	0x392fe53d	0.00016774698
147	0x38daf848	0.00010441296
148	0xb7a55c70	-1.9712577e-05
149	0xb88a0a94	-6.582323e-05
150	0x388e6854	6.79052e-05
151	0x395c07d1	0.00020983747
152	0x38930cea	7.011912e-05
153	0xb8a326c6	-7.779668e-05
154	0x3921216e	0.0001536661
155	0x387e13b0	6.0576655e-05
156	0x39156f65	0.00014251245
157	0xb909597a	-0.00013098671
158	0x3967bdfa	0.00022100648
159	0x382c7d34	4.11246e-05
160	0xb95ec520	-0.00021245005
161	0x388d8cfe	6.749666e-05
162	0x387abe88	5.978209e-05
163	0xb83f7160	-4.5643537e-05
164	0x3733e890	1.0723379e-05
165	0x387eec7c	6.0778562e-05
166	0xb9264cbe	-0.00015859582
167	0xb84f7954	-4.946564e-05
168	0x35f71b80	1.8410938e-06
169	0x391efe91	0.00015162888
170	0x391e5fe4	0.00015103776
171	0xb9ab5032	-0.00032675412
172	0x38947e5c	7.080726e-05
173	0xbd0aafaa	-0.033858933
174	0xbe26cfd5	-0.16290219
175	0x38f4f2fa	0.000116800846
176	0xb80caf58	-3.3541903e-05
177	0x3850b638	4.976077e-05
178	0x393a5298	0.00017769111
179	0xb8b876e8	-8.795952e-05
180	0x36896b60	4.0954183e-06
181	0xb829b340	-4.045968e-05
182	0x3858e41c	5.1710856e-05
183	0xb937c2c0	-0.0001752479
184	0xb7162280	-8.948729e-06
185	0x38c59eca	9.423269e-05
186	0x38cecea0	9.8613324e-05
187	0xb7cc0d40	-2.4324865e-05
188	0x389abcb0	7.378438e-05
189	0xb89571da	-7.12608e-05
190	0x392c4889	0.0001643022
191	0xb81930fc	-3.6523663e-05
192	0xb91e9c9c	-0.00015126396
193	0x394308ec	0.00018599973
194	0x37995d18	1.8282371e-05
195	0xb9196bbe	-0.00014631354
196	0x39478fe1	0.00019031718
197	0xb8d4c536	-0.00010145681
198	0xb8194c48	-3.6549085e-05
199	0xb8d304d0	-0.000100621604
200	0x39122004	0.00013935572
201	0xb8d8649a	-0.00010318421
202	0xb86fc058	-5.7161174e-05
203	0x38137e00	3.5164878e-05
204	0x393a3707	0.00017758842
205	0xb95863f8	-0.00020636606
206	0x3907e69a	0.00012960509
207	0xb85b30b8	-5.225904e-05
208	0xb8af91d4	-8.371813e-05
209	0xb686b9e0	-4.01515e-06
210	0x391c4313	0.00014902306
211	0x38748cd4	5.830529e-05
212	0xb9302982	-0.00016800131
213	0x3821b370	3.8552505e-05
214	0x38310d6c	4.221259e-05
215	0x37b10d98	2.1106374e-05
216	0x38aa9bae	8.135229e-05
217	0xb916291d	-0.0001432043
218	0x37d68fa0	2.5577669e-05
219	0x38ceac6a	9.85496e-05
220	0xb864e5d0	-5.4573466e-05
221	0xb8ef6826	-0.00011415807
222	0x38f3ed4c	0.00011631343
223	0xb7d84698	-2.578208e-05
224	0xb8713ad8	-5.751368e-05
225	0xb85d91c4	-5.282626e-05
226	0xb8a3e5d8	-7.8152574e-05
227	0xb892782a	-6.984205e-05
228	0x388e5950	6.7877234e-05
229	0x3794b5b8	1.7727594e-05
230	0xb84938ec	-4.7975147e-05
231	0xb8b2146a	-8.491504e-05
232	0xb8082850	-3.246247e-05
233	0x38cb619e	9.697977e-05
234	0x391eb21d	0.00015134407
235	0x38ba7e9e	8.8927554e-05
236	0x377e1570	1.5144571e-05
237	0x389a491a	7.3569085e-05
238	0xb8e082a6	-0.000107054875
239	0x38b65a6c	8.695279e-05
240	0x390abdd0	0.00013231416
241	0x376c3f00	1.40813645e-05
242	0x392733e9	0.00015945699
243	0x39579f33	0.00020563304
244	0x391fb692	0.00015231434
245	0xb8456a58	-4.70675e-05
246	0xb8c0b9b2	-9.189862e-05
247	0x374723a0	1.1869619e-05
248	0x389540ba	7.11693e-05
249	0xb904398f	-0.00012609943
250	0xbf4d3c02	-0.8016969
251	0xb933a3b4	-0.00017131754
252	0x3f02bb29	0.51066834
253	0xbec248d2	-0.37946182
254	0xbe87976f	-0.26482722
255	0x39043e33	0.00012611672

bias f4 [365]
0	0xb98cc9d4	-0.00026853255
1	0x3f110e88	0.566628
2	0xb833fc7c	-4.291207e-05
3	0x38135248	3.512416e-05
4	0xb9552463	-0.00020326818
5	0xb974b6d3	-0.0002333776
6	0x38e5cdb7	0.00010957888
7	0x3764b0e0	1.3631041e-05
8	0xb95112b2	-0.00019938758
9	0x3923e0c4	0.00015628623
10	0x3e757138	0.23968971
11	0x38f66c9c	0.00011750424
12	0x3ce67380	0.028131247
13	0xb8cb1688	-9.683991e-05
14	0xb90442b3	-0.00012613348
15	0x38654d10	5.4669625e-05
16	0x39571241	0.00020510798
17	0x3941df77	0.00018489161
18	0x37702354	1.431334e-05
19	0xb7b0a794	-2.105887e-05
20	0xb86acc78	-5.5980374e-05
21	0x38af7bf8	8.367741e-05
22	0xb8c9d9ca	-9.624993e-05
23	0xb9537673	-0.00020166654
24	0x3941c83a	0.00018480505
25	0x3985d8fc	0.00025529403
26	0xb9780e73	-0.00023656506
27	0x37cb7c58	2.4257388e-05
28	0xb9782eb5	-0.00023668523
29	0x389059a8	6.883155e-05
30	0xb89927dc	-7.303033e-05
31	0x37efe200	2.859626e-05
32	0xb84fcb5c	-4.954204e-05
33	0xb8d9ef0c	-0.00010391892
34	0x3989d0eb	0.00026286332
35	0x379e6334	1.8881263e-05
36	0x397cbdb3	0.00024103261
37	0xb9019422	-0.00012357582
38	0x38b6d7ec	8.718655e-05
39	0xb84ea2e8	-4.9265946e-05
40	0xb97ab528	-0.00023909344
41	0x389ffd66	7.62891e-05
42	0x363e46c0	2.8353388e-06
43	0xb76f5b90	-1.4266829e-05
44	0x372dc9d0	1.0358592e-05
45	0xb8b68760	-8.703652e-05
46	0xb852fb28	-5.030181e-05
47	0x384aedf8	4.838218e-05
48	0xb823dbc4	-3.90669e-05
49	0xb7e4bc78	-2.726748e-05
50	0x3e8b7c26	0.27243155
51	0xb9145b16	-0.00014148312
52	0x38c3d0ad	9.3371935e-05
53	0x385b2424	5.2247327e-05
54	0xb9406c1b	-0.0001835082
55	0x390f3c7a	0.00013660072
56	0x3e4b2819	0.19839515
57	0xb8886d68	-6.505364e-05
58	0x398de2f7	0.00027062718
59	0xb968d487	-0.00022204417
60	0x395926a4	0.00020709127
61	0xb9237512	-0.00015588503
62	0xb9497766	-0.00019213333
63	0xb892ac5e	-6.9939284e-05
64	0xb867162c	-5.509534e-05
65	0x37b29740	2.1289685e-05
66	0xb8b50469	-8.631574e-05
67	0xb945c93e	-0.00018862353
68	0xb90344b2	-0.00012518725
69	0x37d6aa98	2.5590227e-05
70	0xb82b7f16	-4.0887935e-05
71	0x3826665c	3.9672814e-05
72	0x3932cee5	0.00017052477
73	0xb542df00	-7.259514e-07
74	0x391a4460	0.00014712056
75	0x36299bc0	2.527362e-06
76	0xb9146a21	-0.00014153916
77	0xb8442474	-4.676399e-05
78	0xb8a839da	-8.02164e-05
79	0xb926c36e	-0.00015903797
80	0xb88f0c47	-6.821058e-05
81	0x3e22b08f	0.15887664
82	0xb6578500	-3.2114913e-06
83	0x38c3650c	9.317146e-05
84	0xb8a14e58	-7.691671e-05
85	0x3922f9c6	0.00015542572
86	0xb822afd0	-3.8787548e-05
87	0x39437826	0.00018641408
88	0x3954f1b0	0.00020307931
89	0x3982667e	0.00024871895
90	0x38a184b2	7.701795e-05
91	0xb916efc4	-0.00014394434
92	0x391f69a2	0.00015202773
93	0xb917ca5f	-0.00014475871
94	0xb8f736c2	-0.00011788077
95	0x391f00fc	0.00015163788
96	0x3c67afa7	0.014141
97	0x3852aeee	5.0230818e-05
98	0xb8270974	-3.9824707e-05
99	0x37cc9678	2.4388763e-05
100	0x3858d3dc	5.1695723e-05
101	0x3ec59e62	0.385974
102	0xb8c408f2	-9.3476745e-05
103	0xb8a0c9cc	-7.666982e-05
104	0xb80306f0	-3.1239295e-05
105	0xb82cfbee	-4.1242623e-05
106	0xb7cb5ec8	-2.4243622e-05
107	0xb933c9c8	-0.0001714594
108	0xb853610c	-5.0396702e-05
109	0xb9364744	-0.00017383421
110	0x392d4151	0.00016522898
111	0xb8215c1c	-3.8471175e-05
112	0x382afada	4.0764782e-05
113	0x390356ff	0.00012525542
114	0x392a31e7	0.00016231053
115	0x39661aad	0.00021944447
116	0xb859a68c	-5.189194e-05
117	0xb8516900	-4.9927272e-05
118	0x38d9829c	0.00010371694
119	0xb9422664	-0.00018515583
120	0xb92714fa	-0.00015934175
121	0x3f1155c8	0.56771517
122	0xb880d5c0	-6.14333e-05
123	0xb978ba9a	-0.00023720638
124	0x37338500	1.0700198e-05
125	0x391b6778	0.00014820497
126	0xb9513377	-0.00019950965
127	0x39433826	0.00018617566
128	0xb96d695f	-0.00022641335
129	0xb87e9fc6	-6.070712e-05
130	0xb8109bfe	-3.4477554e-05
131	0x388ed8f4	6.811498e-05
132	0xb97a5909	-0.00023875026
133	0xb8df6e54	-0.00010654019
134	0xb9322870	-0.00016990467
135	0x39701623	0.0002289643
136	0xb97903ac	-0.00023747858
137	0xb9039030	-0.00012546848
138	0xb8f3f375	-0.0001163249
139	0xb908e2f2	-0.00013054514
140	0xb92bb618	-0.00016375666
141	0x377857f0	1.4802426e-05
142	0xb8e7ad4c	-0.000110472174
143	0xb8d79396	-0.00010279489
144	0x387292d4	5.783404e-05
145	0x389abaaa	7.378061e-05
146	0xb86e2e34	-5.6786652e-05
147	0x3824beec	3.9278457e-05
148	0xb8bf3ad5	-9.118548e-05
149	0xb87cf4fc	-6.030964e-05
150	0xb88b9d44	-6.6573295e-05
151	0xb8bfec8c	-9.15165e-05
152	0x38867e06	6.4130916e-05
153	0x398a3508	0.00026360922
154	0x388d37d5	6.7338035e-05
155	0xb91a5b36	-0.00014720563
156	0xb9564358	-0.00020433718
157	0xb88c9eae	-6.7052766e-05
158	0xb8bd1eec	-9.017982e-05
159	0xb9873b50	-0.00025793398
160	0xb88d55ea	-6.739407e-05
161	0x3953e03a	0.00020206059
162	0xb9357949	-0.00017306687
163	0x36c71000	5.932525e-06
164	0xb8ac91ea	-8.228778e-05
165	0xb77cb338	-1.5062098e-05
166	0xb8a0c8f3	-7.666824e-05
167	0x37aac150	2.0355597e-05
168	0xb85d274c	-5.2727104e-05
169	0x390bb6d2	0.00013324179
170	0x38bd8406	9.0368136e-05
171	0xb8ab2282	-8.160343e-05
172	0x39816dc2	0.00024686573
173	0xb902ec76	-0.00012485855
174	0x393d17d0	0.00018033315
175	0x390103d1	0.0001230382
176	0x393f02ba	0.00018216195
177	0x3e29793f	0.16550158
178	0xb93b9b5e	-0.00017891589
179	0x3efd9625	0.49528614
180	0x3f2871bf	0.6579856
181	0xb8ea33c5	-0.00011167632
182	0x3891900a	6.940968e-05
183	0x37d7a8e8	2.570865e-05
184	0xb905e38e	-0.00012768639
185	0xb9397172	-0.00017685237
186	0x390dc4b5	0.00013520087
187	0x3d1ebd8a	0.038754977
188	0x3ebc9628	0.3683331
189	0x3877299c	5.892814e-05
190	0xb86493e0	-5.4497155e-05
191	0x392b52c0	0.00016338658
192	0x38818920	6.176741e-05
193	0x380564c8	3.180353e-05
194	0xb870e7e8	-5.743644e-05
195	0xb938160b	-0.00017555819
196	0x3899d8ce	7.3359915e-05
197	0x38e736c4	0.00011025139
198	0xb7aa05d0	-2.0268286e-05
199	0xb84e2c3c	-4.9155424e-05
200	0xb8befd6c	-9.1071095e-05
201	0xb95f5387	-0.00021298054
202	0x379783f8	1.8062055e-05
203	0x38822452	6.205648e-05
204	0x38e94092	0.00011122333
205	0xb8fb22e6	-0.00011975113
206	0xb8e493a3	-0.00010899387
207	0x38b58946	8.656322e-05
208	0x38c449ec	9.359777e-05
209	0xb95b0b41	-0.0002088966
210	0xb8e99e5e	-0.00011139804
211	0xb9548026	-0.00020265635
212	0xb8303964	-4.201512e-05
213	0xb907f52a	-0.00012965934
214	0x3eb47057	0.35241958
215	0xb8409fd6	-4.5925226e-05
216	0x3f9241af	1.1426295
217	0xb768fa90	-1.3886616e-05
218	0xb9109f4f	-0.00013792257
219	0xb91bce2c	-0.00014858757
220	0xb9491fa3	-0.0001918064
221	0xb8df8004	-0.000106573134
222	0xb93eb6e3	-0.00018187943
223	0x3a493559	0.0007675491
224	0x38fc1af6	0.00012021318
225	0xb9176860	-0.00014439365
226	0xb904a9e6	-0.00012651793
227	0x391f9b14	0.00015221193
228	0x3db5abc6	0.08870654
229	0x38ee0520	0.00011349679
230	0xb8d781b0	-0.00010276155
231	0xb9677921	-0.00022075001
232	0x38d9deb9	0.00010388852
233	0x390eb1b6	0.00013608378
234	0x38f7a19a	0.000118079784
235	0xb778a350	-1.4819976e-05
236	0x3800a064	3.0666954e-05
237	0x391695bb	0.00014360894
238	0xb8ad1688	-8.2534796e-05
239	0x397a8648	0.00023891882
240	0x394acb00	0.00019339845
241	0xb9508110	-0.00019884505
242	0xb98ccd84	-0.00026856002
243	0xb782addc	-1.5578167e-05
244	0x391c090d	0.00014880691
245	0x3f89e01d	1.0771519
246	0x395e2aa8	0.0002118746
247	0x385b36c0	5.226466e-05
248	0xb8298d7c	-4.0424507e-05
249	0x3f3d3d7e	0.73921955
250	0x3998cbc5	0.0002914352
251	0x38baff12	8.916682e-05
252	0xb879e464	-5.957893e-05
253	0xb86a2f88	-5.5834214e-05
254	0xb8bcac74	-8.9966605e-05
255	0x3852bb38	5.0242263e-05
