iterative_k_clustering_breast_cancer/first_algorithm_results/K_2/training_results/initial_model.pt (torch, 19587 bytes, 4 tensors)

weight f4 [5, 399]
000000 ee 58 b1 b8 51 24 25 b9 34 24 f3 38 f0 5e 62 38
       -8.456582e-05 -0.00015749155 0.00011593886 5.3971016e-05
000010 48 a2 be 38 a6 16 94 38 58 dd 3c b8 34 68 35 38
       9.090133e-05 7.0614085e-05 -4.5028835e-05 4.325081e-05
000020 b0 71 9a 38 80 89 3b 38 3d 1f 04 39 e4 5d b0 38
       7.364468e-05 4.471233e-05 0.00012600138 8.4098225e-05
000030 4b b7 e5 3e 44 00 52 39 b4 2e 62 39 10 ce 9e 37
       0.44866404 0.0002002726 0.00021570438 1.8931023e-05
000040 7f d8 31 39 58 0d 06 b9 08 a8 b7 38 27 ea 86 38
       0.00016960686 -0.00012784207 8.757418e-05 6.433232e-05
000050 0e be d4 b8 f8 35 6b b8 84 ee 4d b8 42 90 ca 38
       -0.00010144348 -5.607863e-05 -4.9097944e-05 9.658981e-05
000060 b0 e4 c2 37 84 12 1a 39 1c a2 24 38 28 fe 42 39
       2.3233093e-05 0.00014693482 3.9251623e-05 0.00018595962
000070 ec 9f c8 b8 7c f8 16 b8 bc 5e 53 39 d0 02 03 37
       -9.566531e-05 -3.5994206e-05 0.0002015782 7.808863e-06
000080 70 04 d2 b7 b0 4a 31 38 e0 b2 32 37 d2 1c 50 39
       -2.5036017e-05 4.2269647e-05 1.0651274e-05 0.00019847162
000090 2a 00 dc b8 79 fa 9d 38 fd a4 06 b9 00 88 f3 35
       -0.00010490448 7.5329976e-05 -0.00012840699 1.8144492e-06
0000a0 9b b0 30 39 b0 ac 9f 38 2a 25 81 b8 c7 d1 41 3d
       0.00016850459 7.6138764e-05 -6.158122e-05 0.0473192
0000b0 28 d0 5c b8 3e 81 a4 38 27 0f 02 b9 97 e9 3c b9
       -5.2645948e-05 7.8442026e-05 -0.00012403411 -0.00018016096
0000c0 b5 c7 00 39 f8 88 81 38 46 1f 33 39 c2 bc ab b8
       0.00012281428 6.176712e-05 0.0001708242 -8.189074e-05
0000d0 c0 37 60 b8 33 2d 54 39 db 47 c5 3f 86 8f d1 38
       -5.3457683e-05 0.00020234734 1.5412554 9.99263e-05
0000e0 4a b0 2d 39 2c 94 ec 38 fc f2 8d b8 e2 cb 8e b8
       0.00016564238 0.00011280956 -6.768663e-05 -6.809064e-05
0000f0 7a 70 f9 38 81 c7 1f 39 76 cb 25 b9 94 6c 92 38
       0.000118941956 0.00015237743 -0.00015811421 6.982047e-05
000100 63 df 68 39 ca 30 82 39 bb d1 2e b9 90 0b 07 37
       0.00022208462 0.00024831883 -0.00016672064 8.049319e-06
000110 64 59 a8 38 5f 08 0e b9 50 8e 00 38 0e b6 bf b8
       8.0275146e-05 -0.00013545294 3.0650117e-05 -9.1415e-05
000120 82 3a 27 39 d0 4f 48 b8 7a 7e 8c b8 a0 91 1f 37
       0.00015948157 -4.7758047e-05 -6.699278e-05 9.5110445e-06
000130 38 ed ac b7 08 19 21 b9 b1 08 4d b9 b4 45 3f 39
       -2.0614461e-05 -0.00015363481 -0.00019553561 0.00018241146
000140 66 74 9e 38 08 18 ca 38 c0 a7 1b 36 a6 f8 4d b9
       7.555708e-05 9.636587e-05 2.3194443e-06 -0.00019642952
000150 92 c5 16 39 e4 22 13 b9 4a b2 43 b9 d0 2c 26 37
       0.00014378715 -0.0001403201 -0.00018663067 9.904805e-06
000160 c8 81 ab 37 00 ec 02 35 32 f4 f5 38 1c b2 e3 b8
       2.0445223e-05 4.87722e-07 0.00011727995 -0.00010857379
000170 7a 00 65 39 d2 da cb b8 b2 04 1a 39 7c e6 e7 b8
       0.0002183932 -9.720553e-05 0.00014688334 -0.000110578694
000180 88 a8 af b7 3c 1b d3 38 f5 a1 2f 39 f2 a7 86 38
       -2.0940104e-05 0.00010066337 0.00016749634 6.4209e-05
000190 6a 2a 1f b9 e0 e7 22 39 a2 f7 ed 38 22 de 12 3f
       -0.00015179222 0.00015535904 0.00011347166 0.573702
0001a0 c6 b9 bc b8 2c 61 47 b9 7f ee 18 b9 c7 58 46 b9
       -8.9991416e-05 -0.00019014318 -0.00014584696 -0.00018915824
0001b0 f8 bb 05 b8 60 d2 f2 36 d2 3e 14 b9 88 5a c5 37
       -3.188473e-05 7.236653e-06 -0.00014137782 2.3526387e-05
0001c0 00 fe 08 35 93 d8 1d b9 e6 40 01 b9 a8 86 b1 b7
       5.1033567e-07 -0.00015053367 -0.00012326575 -2.1162748e-05
0001d0 ef c3 44 39 44 d1 48 b8 38 3e 7e 38 ba ee f7 38
       0.00018765008 -4.787861e-05 6.0616265e-05 0.00011822344
0001e0 44 80 4d 38 00 26 df 35 c2 39 6f 39 d0 2b 23 b8
       4.8995265e-05 1.6625854e-06 0.00022814333 -3.8903032e-05
0001f0 a9 9f 01 b9 98 a1 cf b7 2e 80 f1 38 96 a6 d0 38
       -0.00012361877 -2.475157e-05 0.00011515651 9.949242e-05
000200 e4 b1 22 b8 08 3e 86 38 d3 79 9e 3f d4 5a 23 38
       -3.8789483e-05 6.401172e-05 1.2380928 3.894682e-05
000210 b0 72 47 b7 ac f6 2e 38 fe 45 1d b9 90 67 15 39
       -1.1888027e-05 4.1714564e-05 -0.00014998761 0.00014248327
000220 d1 7e 43 b9 8d c3 08 b9 ae a0 c9 b8 cc 63 8d b8
       -0.00018643892 -0.00013042819 -9.614356e-05 -6.7419925e-05
000230 66 92 3c b9 9c 0e 5d 39 a8 69 6d 38 dc 7a 58 39
       -0.00017983615 0.00021081645 5.6603603e-05 0.00020645134
000240 68 68 9e b7 08 94 0f 38 b4 84 31 b8 80 5a d0 b7
       -1.8883686e-05 3.423172e-05 -4.2323678e-05 -2.4837675e-05
000250 52 73 8d 38 54 3a d2 38 8c c4 e8 b8 58 0b 92 37
       6.744884e-05 0.00010024445 -0.00011099232 1.7409839e-05
000260 f8 1f ff b8 b0 cc 04 b7 58 31 a1 37 0d 5b 20 b9
       -0.00012165302 -7.915471e-06 1.9215673e-05 -0.00015292708
000270 3a a4 eb b8 12 38 3d b9 ac 35 bd 38 ad 00 42 39
       -0.00011236263 -0.00018045332 9.0222195e-05 0.00018501533
000280 d4 e5 31 38 e0 80 28 39 1c a8 87 b8 e8 77 88 38
       4.2414133e-05 0.00016069738 -6.4686144e-05 6.5073196e-05
000290 f4 db 4a b8 d4 d3 bd 38 1c da 38 39 e8 f2 33 38
       -4.83654e-05 9.051678e-05 0.0001762886 4.290315e-05
0002a0 6e 8a ed 38 af e6 2c b9 50 a2 82 37 34 fe 79 b8
       0.00011326825 -0.00016489135 1.557279e-05 -5.960297e-05
0002b0 60 1f a3 38 c1 cb 46 b9 97 c9 28 b9 08 44 d1 37
       7.77829e-05 -0.00018958656 -0.00016096827 2.4946421e-05
0002c0 fc 94 f1 38 78 dd b8 38 0e f5 e5 b8 08 59 34 b8
       0.00011519526 8.8150555e-05 -0.00010965216 -4.299826e-05
0002d0 b1 fa 2b 39 64 02 ed 38 48 66 ec b7 0c 86 1c 38
       0.0001640122 0.00011301486 -2.818102e-05 3.731814e-05
0002e0 20 ab 78 37 8e 4e 41 39 cc 65 40 b8 89 f4 0b 3f
       1.4821795e-05 0.00018435178 -4.5871173e-05 0.54670006
0002f0 74 63 31 39 64 d3 9b b8 ef 19 56 39 ca 2f ac 38
       0.00016917085 -7.4303505e-05 0.00020418291 8.2105005e-05
000300 cd fd 43 39 49 a6 4f b9 8a 10 48 39 b1 01 73 3e
       0.00018691197 -0.00019803004 0.00019079648 0.23731114
000310 70 4f 7b 3f f6 b6 ba b8 70 c3 ca b8 e4 ff 42 38
       0.98168087 -8.90325e-05 -9.668514e-05 4.649152e-05
000320 ac 74 33 39 00 92 cd b5 f6 9c f1 b8 dc 3e 14 b8
       0.00017114234 -1.5316182e-06 -0.00011521012 -3.5344492e-05
000330 34 c2 f3 b8 4c a6 4d 39 b8 fa ec 37 80 3b 21 b9
       -0.00011623316 0.00019612274 2.8250142e-05 -0.00015376322
000340 d0 c4 c6 b7 9c b5 db 38 70 ce b5 37 16 f5 e0 b8
       -2.3695087e-05 0.00010476561 2.1673011e-05 -0.00010726803
000350 f4 9f 25 b8 a5 e0 4c 39 dd 93 09 39 69 7f 47 b9
       -3.9488034e-05 0.00019538643 0.00013120421 -0.00019025583
000360 e7 26 08 39 12 27 45 b9 64 e8 6d 38 b2 0a f1 38
       0.00012984463 -0.00018801939 5.6721634e-05 0.00011493768
000370 86 c4 fc b8 68 13 be b7 cb da 1a b9 7b 43 21 b9
       -0.00012052902 -2.2658802e-05 -0.00014768091 -0.00015379295
000380 5e f0 3c b9 50 5e 08 39 a0 f2 97 36 04 2e 2f 39
       -0.00018018621 0.00013005105 4.528396e-06 0.00016706443
000390 bf fa 9a 3e a0 dc cb 37 6e b7 cf b8 8c db 7e b8
       0.3026943 2.4302222e-05 -9.9046956e-05 -6.0762788e-05
0003a0 52 2f 0b b9 e3 80 22 39 96 56 4e 39 6d da 09 39
       -0.00013273701 0.00015497538 0.00019677947 0.00013146708
0003b0 3a 3b ce 38 8d 63 2f 39 84 f6 09 b8 ef c9 4f 39
       9.833877e-05 0.00016726386 -3.289293e-05 0.00019816284
0003c0 58 03 9e 37 80 cc 52 39 7c 2a 11 b8 20 6b 29 39
       1.8836625e-05 0.00020103343 -3.461026e-05 0.00016157003
0003d0 3f 7e 2c b9 0e dc d1 38 e8 64 b2 37 f6 5e e6 38
       -0.00016450229 0.00010006885 2.1266242e-05 0.000109849425
0003e0 d4 9e 1d 39 7b 0a 43 b9 6b 16 38 b9 08 6f 04 39
       0.00015031855 -0.00018600553 -0.00017555959 0.00012629863
0003f0 96 60 32 39 d0 37 31 38 92 93 cf b8 7e 51 d1 b8
       0.00017011384 4.2252068e-05 -9.898016e-05 -9.981076e-05

bias f4 [5]
000000 43 c2 20 3f 15 3f d4 bf 6f 07 c1 3f 4c e0 16 c0
       0.6279642 -1.6581751 1.5080394 -2.35744
000010 99 bb c0 3f
       1.505725

weight f4 [379, 5]
000000 fc 9e 47 b9 b4 1a 15 b9 40 fd a3 36 84 cf 5a b8
       -0.00019037345 -0.00014219695 4.8872607e-06 -5.2168514e-05
000010 38 ee 87 b7 5e c7 d0 38 00 c9 bd b6 78 30 09 b8
       -1.6204183e-05 9.955348e-05 -5.6560384e-06 -3.2708485e-05
000020 80 e3 79 b6 db 88 36 b9 33 42 57 bf 51 a6 a5 be
       -3.7236314e-06 -0.00017407855 -0.84085387 -0.32353452
000030 ed df 33 3f bd f1 9e be 27 2e 99 3d eb 9d 19 39
       0.7026356 -0.31043807 0.07479506 0.00014650046
000040 6e 59 55 39 e0 6f 6c b9 e4 51 4f 39 a2 83 9f b8
       0.00020346578 -0.0002254839 0.00019771565 -7.606229e-05
000050 b6 45 9f b8 02 42 e0 b8 25 ca 46 b9 5f ff 8d 39
       -7.5946955e-05 -0.00010693447 -0.00018958056 0.00027083882
000060 c8 f8 84 b9 38 c7 1d 39 be 97 1a b8 70 27 ab 37
       -0.00025362358 0.00015046902 -3.6857782e-05 2.0403153e-05
000070 fe a1 c2 b8 57 57 63 39 e0 22 57 39 d6 b6 d0 38
       -9.280814e-05 0.00021680944 0.0002051699 9.952269e-05
000080 94 80 8d b8 b8 cc 60 38 0e 4a dc b8 e0 04 28 36
       -6.7473535e-05 5.359642e-05 -0.00010504211 2.5036788e-06
000090 64 df 9c b8 50 60 00 38 28 03 67 38 cc 8d ca 38
       -7.4802694e-05 3.0607276e-05 5.507763e-05 9.658522e-05
0000a0 a4 93 04 b9 ce d4 10 b9 4a 43 96 39 f2 a0 18 be
       -0.00012643501 -0.00013812186 0.00028660364 -0.14905146
0000b0 af 28 a2 39 a8 5c 46 b8 e8 fb 6d b9 0c 63 87 b8
       0.0003092936 -4.729317e-05 -0.00022695924 -6.4557506e-05
0000c0 86 fa 6d b9 84 52 47 39 c2 63 9b b8 98 31 d4 38
       -0.00022695409 0.00019008858 -7.409557e-05 0.00010118185
0000d0 f1 78 16 b9 c0 b2 0a b8 2c 32 38 39 b0 91 bc 37
       -0.00014350169 -3.3068238e-05 0.00017566298 2.2479187e-05
0000e0 49 57 3c b9 d6 21 b1 b8 90 3f 55 b7 c0 16 71 b8
       -0.00017961593 -8.44632e-05 -1.2710589e-05 -5.7480065e-05
0000f0 61 12 10 b9 cd c6 bd be 66 ec d9 3e 1a 78 3f bf
       -0.00013739757 -0.37065735 0.4256317 -0.74792635
000100 37 b8 9c 38 11 03 11 b9 5e 60 43 38 3c 5b 80 38
       7.472972e-05 -0.0001382942 4.6581372e-05 6.120509e-05
000110 61 a2 9c b9 34 c8 b1 39 4d 77 3f 39 a2 ca 94 b9
       -0.0002987562 0.00033909234 0.00018259622 -0.00028379733
000120 7e 95 79 39 97 00 e6 be 51 11 9c 38 b2 44 bd 38
       0.0002380218 -0.44922325 7.441885e-05 9.025018e-05
000130 3f a7 22 b9 f0 f3 6a 37 9c 9c 19 b8 50 0f 12 38
       -0.00015511828 1.4004283e-05 -3.6623896e-05 3.4823373e-05
000140 f0 9e 26 39 2c a7 12 b8 34 92 d8 b8 6e 50 3f b8
       0.00015890202 -3.4964803e-05 -0.00010326915 -4.5612855e-05
000150 c8 1d 39 38 61 fe 02 39 40 f5 fe 37 12 26 37 39
       4.4135173e-05 0.0001249253 3.0393363e-05 0.00017466422
000160 c8 27 78 38 ae 38 cb b8 ba 7a 55 b9 58 48 db b9
       5.9164857e-05 -9.690352e-05 -0.00020358982 -0.00041824835
000170 7d bc d4 3e 23 50 10 be ce e3 55 39 60 86 df 38
       0.41550055 -0.1409307 0.00020398127 0.00010658498
000180 20 5c 3c 36 9a 63 16 39 26 58 95 b9 4b cd 80 39
       2.8067807e-06 0.00014342219 -0.0002848517 0.00024567018
000190 ce 2b 55 39 90 54 4a 38 0f 0b 70 39 41 bf bd 38
       0.00020329581 4.8239308e-05 0.00022892303 9.047846e-05
0001a0 90 7b c7 b8 bd 58 35 39 06 0e 31 b8 e1 ae 87 b9
       -9.512075e-05 0.00017294563 -4.221315e-05 -0.00025879501
0001b0 b0 38 fd b7 64 78 c9 b7 c1 cf 16 39 0a 50 39 39
       -3.0186347e-05 -2.4017128e-05 0.00014382509 0.00017672792
0001c0 34 81 44 b8 96 c0 e7 38 95 f0 d0 b8 6c c9 87 38
       -4.685037e-05 0.0001105081 -9.963025e-05 6.4748194e-05
0001d0 5c ec 28 b9 e1 f4 54 b9 d0 a0 92 38 78 e6 fa b7
       -0.00016109779 -0.0002030912 6.991776e-05 -2.9909643e-05
0001e0 c0 92 c6 b6 93 73 16 39 00 bb 37 b7 48 91 bf b8
       -5.917944e-06 0.0001434817 -1.0951189e-05 -9.1346505e-05
0001f0 18 45 c5 b8 ce e5 d4 b8 4d 88 0e b9 c0 62 53 37
       -9.406562e-05 -0.00010151752 -0.00013592951 1.2599572e-05
000200 c2 4e 0f b9 b0 c6 f4 38 0e 0c df b8 d0 f9 34 38
       -0.00013666882 0.00011671835 -0.00010635714 4.3148e-05
000210 ae c2 09 b9 5a 59 30 39 c2 f1 d9 b8 d8 d9 ab b8
       -0.00013137862 0.00016817954 -0.00010392397 -8.194492e-05
000220 ce be a2 38 a2 16 c2 b8 9e cf 0c b9 f4 f4 ac b7
       7.760302e-05 -9.2548566e-05 -0.00013428784 -2.0618063e-05
000230 f0 12 69 37 99 d3 1b b9 86 86 8d b8 d4 c0 6d b9
       1.38922915e-05 -0.00014860778 -6.748461e-05 -0.00022673915
000240 90 14 96 37 78 d6 f0 b7 3c 8a da 38 f0 35 81 37
       1.7890969e-05 -2.87101e-05 0.00010420798 1.5403115e-05
000250 7e 7e 4e 39 9a d7 05 b9 f6 2a f3 b8 40 08 25 38
       0.00019692813 -0.00012764186 -0.00011595145 3.934675e-05
000260 a0 77 ca 38 26 35 cd b8 60 1f c9 b8 75 93 1f b9
       9.6543925e-05 -9.7850614e-05 -9.590271e-05 -0.00015218354
000270 84 34 28 39 ec 16 09 b9 b3 e5 39 39 37 89 47 b9
       0.00016041292 -0.00013073877 0.00017728544 -0.00019029235
000280 00 82 20 39 10 30 8f 38 78 fc 74 b8 fc 83 03 b9
       0.00015307218 6.827724e-05 -5.8409263e-05 -0.00012542302
000290 18 f6 7f 38 8a 62 84 38 47 55 87 39 19 87 44 b9
       6.102593e-05 6.312605e-05 0.00025812743 -0.00018742344
0002a0 88 cf d2 38 c5 96 2a b9 bd c8 0e b9 1d 36 30 b9
       0.00010052236 -0.0001626863 -0.00013616956 -0.00016804827
0002b0 c8 56 e1 b8 e0 7b 6b 37 90 86 b8 b7 44 81 c1 b8
       -0.00010745 1.4035933e-05 -2.199717e-05 -9.227035e-05
0002c0 ac 26 85 38 f8 f4 c0 b8 e2 11 c3 38 88 d3 cb 37
       6.3491374e-05 -9.2009024e-05 9.3016555e-05 2.4297988e-05
0002d0 bc cd 36 39 43 c6 19 39 54 7f 30 b9 c8 4c 95 37
       0.00017433515 0.00014665075 -0.00016832101 1.7797938e-05
0002e0 c1 05 04 39 80 ed 5f b6 ec a2 14 b8 eb e9 e4 38
       0.00012590644 -3.3367833e-06 -3.5437683e-05 0.00010915458
0002f0 57 20 1f be 3f 8d a2 3e 6c ff 4e 38 40 81 a8 36
       -0.1553968 0.31748387 4.9352107e-05 5.021837e-06
000300 c4 2c 43 38 36 ec 8b 38 b8 d8 97 37 ff 61 85 39
       4.6533314e-05 6.672034e-05 1.810152e-05 0.0002544075
000310 25 c7 34 39 be 73 b3 38 00 8d c1 37 26 ce ef b8
       0.00017240325 8.556944e-05 2.3073051e-05 -0.00011434806
000320 28 35 f8 38 36 9d 29 b9 a0 78 e2 37 86 29 f8 38
       0.00011835463 -0.00016175662 2.699747e-05 0.00011833296
000330 d4 e5 49 b9 21 37 1f 39 d2 d6 12 39 2c 38 3d b9
       -0.00019254471 0.00015183959 0.00014003672 -0.0001804537
000340 5c 59 15 39 e0 19 4d b9 d8 eb ba 37 45 47 0f b9
       0.00014243036 -0.00019559963 2.2282751e-05 -0.00013664093
000350 4a a7 03 39 e8 d5 e0 b7 f7 0d 25 39 97 b5 21 bf
       0.00012555454 -2.6802489e-05 0.00015740829 -0.6316771
000360 75 ed 0f bf 31 79 52 3f 1f c4 d2 be 0e 65 d1 38
       -0.56221706 0.82216173 -0.41165254 9.9847195e-05
000370 12 77 24 39 88 60 a2 b7 ea 79 94 38 55 dd 09 39
       0.00015684616 -1.9356856e-05 7.079898e-05 0.00013147791
000380 00 ea 4b b9 5a 3b 46 b9 25 9c 0d b9 6a 8d 03 39
       -0.0001944676 -0.00018904862 -0.00013504976 0.00012545814
000390 d8 f2 ea 37 b7 9c 0d b9 c8 96 2f 39 34 b6 e1 b8
       2.8008057e-05 -0.00013505189 0.00016745471 -0.00010762774
0003a0 b6 5b 18 b9 46 c6 1b 39 c4 f0 da b8 4d 3f 2b 39
       -0.00014530015 0.00014855815 -0.00010439896 0.00016331412
0003b0 7e 52 8e b8 79 49 7d b9 77 1a 18 39 88 63 b7 38
       -6.786453e-05 -0.00024155331 0.00014505709 8.744659e-05
0003c0 d5 7f 25 b9 64 7c aa 38 c5 47 35 b9 52 63 0e 39
       -0.00015783247 8.129401e-05 -0.00017288241 0.00013579175
0003d0 00 6b 1a 36 1b 94 18 b9 0e 6e 8f 38 0a 1f 1d 39
       2.301007e-06 -0.00014551023 6.839271e-05 0.0001498425
0003e0 54 5a 47 38 6c 4f fb 38 61 5d 3b b9 07 fb db 38
       4.7529422e-05 0.00011983406 -0.00017868496 0.00010489491
0003f0 32 f7 3b b9 fe 10 a0 38 9c 75 d6 38 7a c4 5a b9
       -0.00017925797 7.6325596e-05 0.00010226222 -0.00020863293

bias f4 [379]
000000 db 18 3a b9 ae 00 ee 38 cc 3a ec 3e e1 07 25 b9
       -0.00017747602 0.00011348851 0.46138608 -0.00015738561
000010 d4 a3 83 b9 bf 2e 92 38 48 85 72 b8 bc 89 ad 38
       -0.0002510833 6.97053e-05 -5.7821424e-05 8.274938e-05
000020 f0 a7 3e 36 1e 9e 2e 39 2e 64 44 39 86 2e b3 38
       2.8409959e-06 0.00016652836 0.00018729336 8.544051e-05
000030 dd d0 6d 3f 63 27 20 39 d3 46 1d 3e e6 e2 f9 38
       0.92896825 0.00015273462 0.15359049 0.000119155084
000040 aa 02 b8 b8 72 cf 25 b9 a3 b1 37 3f be 19 c8 3e
       -8.7743e-05 -0.00015812906 0.7175543 0.3908214
000050 f5 d6 d8 b8 24 d7 61 b9 b4 0f 26 b9 b8 53 5f 38
       -0.000103397215 -0.00021537818 -0.00015836844 5.3245312e-05
000060 84 6f 20 b8 30 44 bb 37 b6 8a 86 b8 d4 a6 e0 38
       -3.825083e-05 2.232389e-05 -6.415455e-05 0.000107122265
000070 40 81 bf b8 f1 ba 90 38 33 29 56 b9 72 10 c4 38
       -9.1316644e-05 6.9012756e-05 -0.00020423978 9.3490715e-05
000080 79 0f 3c 39 e8 7e 8f b9 ca fa 8a 38 a1 11 3d 39
       0.00017934841 -0.00027369638 6.627066e-05 0.00018031012
000090 99 aa 19 b9 aa 0d cb 3e 7c 89 a8 38 c1 98 17 39
       -0.0001465477 0.39658862 8.036473e-05 0.00014457387
0000a0 40 a5 40 b7 df 9b 66 b9 a6 1f ed 38 89 62 de 3e
       -1.1482567e-05 -0.00021992576 0.000113069356 0.4343455
0000b0 50 ba 0f b8 92 d5 0b b9 f0 43 75 b7 14 30 ad 37
       -3.4267374e-05 -0.00013335634 -1.4618956e-05 2.0645595e-05
0000c0 f4 4d a7 38 10 29 d0 b7 f4 98 9f b7 20 81 30 b9
       7.9777004e-05 -2.4814653e-05 -1.9025501e-05 -0.00016832771
0000d0 70 b1 86 b9 5b ee 50 b9 27 4e a8 3f 54 64 55 38
       -0.00025690673 -0.0001992522 1.314885 5.0876595e-05
0000e0 52 8e 0a b9 c2 e5 27 b9 18 75 ce b7 b2 e2 3a b9
       -0.00013213724 -0.00016011953 -2.461164e-05 -0.00017822793
0000f0 66 54 44 3e b6 c7 af 37 f2 45 79 b9 ca d0 d2 38
       0.1917282 2.0954623e-05 -0.00023772547 0.0001005247
000100 10 c9 d3 37 f6 ec d5 3d d0 ad 42 b7 96 32 12 b9
       2.5246787e-05 0.10445587 -1.160377e-05 -0.0001394249
000110 36 3c 90 b9 ee 58 b2 39 90 df 40 37 48 e0 9b b7
       -0.0002751068 0.00034017063 1.1496144e-05 -1.8581879e-05
000120 ff 84 ba 38 00 ab 5e b9 62 3e 95 b8 55 2b 59 39
       8.8939436e-05 -0.00021235272 -7.116493e-05 0.00020710875
000130 b3 9c 15 b9 5a 25 fd 38 da dd 9d b8 76 fc 7b 39
       -0.00014268122 0.000120709374 -7.5276665e-05 0.00024031274
000140 e0 93 82 38 ac a0 d2 38 8e 82 08 39 36 f6 52 b8
       6.226427e-05 0.00010043508 0.00013018606 -5.0297203e-05
000150 20 dd 3e b7 ad 67 8d 39 20 1d 17 b9 b7 36 ce 3d
       -1.1376367e-05 0.0002697086 -0.00014411332 0.1006903
000160 10 1c 18 b8 5e 2a 9d 38 b1 34 4e b9 d6 84 1e 38
       -3.626576e-05 7.494235e-05 -0.0001966532 3.779385e-05
000170 f0 ea 04 39 aa 9c 41 39 00 24 b1 3e 3e bb c4 3b
       0.00012676022 0.00018464276 0.34597778 0.0060037663
000180 01 05 0b b9 80 2f 6a b8 a0 fe e2 38 37 75 63 b9
       -0.00013257937 -5.5834185e-05 0.000108239474 -0.00021692073
000190 ea 9f 77 b9 46 eb b7 38 08 f8 c1 37 51 49 8d 3f
       -0.00023615328 8.769943e-05 2.3122891e-05 1.1037999
0001a0 68 3c 57 b9 00 aa 49 b6 ba f1 bf 38 10 91 1e b8
       -0.00020526501 -3.0050287e-06 9.152615e-05 -3.7805235e-05
0001b0 de 5e 80 b9 b3 9a 49 3f 94 d7 c1 38 3e 84 63 38
       -0.00024484744 0.7875168 9.243112e-05 5.4244178e-05
0001c0 30 ed d8 b8 ce b8 56 b9 ca 00 8c 38 c0 62 88 38
       -0.00010343862 -0.00020477475 6.675867e-05 6.503379e-05
0001d0 20 b9 e8 36 62 2a 86 b9 02 8b 96 38 90 68 f7 b8
       6.93569e-06 -0.0002559005 7.1784496e-05 -0.00011797354
0001e0 c0 0e 8a b8 61 94 8a 3e 3d ac 3e 3f be f1 89 38
       -6.5831e-05 0.2706633 0.74481565 6.577697e-05
0001f0 dc 38 b7 b8 39 6c d8 b8 be 69 61 b9 50 67 01 37
       -8.736711e-05 -0.00010319841 -0.00021497064 7.7130535e-06
000200 92 62 a4 b8 38 6c cc b7 55 40 bc 3f 4e 92 b4 38
       -7.8384895e-05 -2.4369088e-05 1.4707133 8.61032e-05
000210 1d 78 2a b9 e0 ee 72 38 cc 4a 0c b9 15 4a 83 39
       -0.00016257209 5.7919766e-05 -0.00013379304 0.00025041463
000220 38 24 16 38 32 ba 05 38 9a 1d 7a b8 7a 1b d9 b8
       3.579652e-05 3.188308e-05 -5.9632213e-05 -0.00010352484
000230 88 24 ce 38 6f da 00 b9 02 90 b5 b8 fd ee 9a b8
       9.82965e-05 -0.00012288404 -8.657576e-05 -7.387807e-05
000240 94 37 8d b9 c8 3f 8c b9 02 a5 0b 38 d6 a0 5d b9
       -0.00026935025 -0.00026750402 3.3293858e-05 -0.00021136118
000250 82 61 43 b9 31 1b 07 39 d7 d8 1d b9 a8 bb 4a b7
       -0.00018632974 0.00012884733 -0.00015053466 -1.208383e-05
000260 5e 22 a3 38 d8 f5 40 b9 02 23 ea 38 80 13 40 b6
       7.778847e-05 -0.00018402131 0.0001116451 -2.862158e-06
000270 06 d5 2f b8 2c f5 2f b9 94 21 8a b8 fe 6e c4 b8
       -4.1921645e-05 -0.00016780634 -6.586607e-05 -9.366682e-05
000280 b9 d6 05 b9 de 04 cb b8 2c 7d 03 b9 08 25 0f b9
       -0.00012763859 -9.680701e-05 -0.00012539764 -0.00013651338
000290 8d 4a 22 b9 e2 23 df b8 d7 d9 08 b9 f0 99 06 b8
       -0.00015477296 -0.00010640152 -0.00013051122 -3.2091455e-05
0002a0 a0 67 d9 b7 c0 71 ea 38 dd 0f 21 39 b8 2a 00 b9
       -2.591667e-05 0.00011179177 0.00015360066 -0.00012222945
0002b0 80 b5 9f b7 54 53 13 39 c8 b9 88 39 e2 f8 14 b9
       -1.9038795e-05 0.00014050055 0.0002607836 -0.00014207096
0002c0 bb 3a 3f 39 a2 54 ce b8 8c ac 02 b8 e7 8f 7c 39
       0.00018237058 -9.8386095e-05 -3.1155112e-05 0.000240862
0002d0 68 a1 8e 39 16 5b cd 38 c4 56 16 b8 0c e1 1c 39
       0.00027204608 9.792128e-05 -3.5843594e-05 0.00014961156
0002e0 b0 1c 2e 37 41 64 cc 3d 01 0a 34 b9 58 00 21 3f
       1.03778875e-05 0.099800594 -0.00017169864 0.6289115
0002f0 fb 59 04 3f 48 d6 73 38 4b a4 86 b8 98 ea bc 38
       0.516998 5.813528e-05 -6.42022e-05 9.008235e-05
000300 30 00 98 b9 70 20 ce 37 34 76 a6 b8 e8 78 0d 3f
       -0.0002899184 2.4572219e-05 -7.937514e-05 0.55262613
000310 38 d0 8f 3f b0 c0 8b b8 98 4f 75 b8 b7 1c fc b8
       1.1235418 -6.663927e-05 -5.848668e-05 -0.00012021645
000320 80 8a 3d 38 f8 9d 0e b8 c8 e7 49 b8 18 6c 1e b8
       4.51901e-05 -3.4002558e-05 -4.8137998e-05 -3.7770806e-05
000330 d4 67 86 38 34 99 7b 38 ee 28 d9 b8 7c 1c d8 3c
       6.4089574e-05 5.9985745e-05 -0.0001035499 0.02638077
000340 a0 e3 1f 39 fc 12 04 b8 d4 1c c1 b7 78 f0 2f 38
       0.00015248219 -3.1488933e-05 -2.3020817e-05 4.1947205e-05
000350 a6 4c 7f b9 42 1d 1a 39 40 59 70 b8 58 c8 d2 37
       -0.00024347249 0.00014697484 -5.730358e-05 2.5127243e-05
000360 79 16 50 b9 fe 26 a0 b8 24 c4 92 38 e8 0a 2a b9
       -0.00019844797 -7.6366574e-05 6.9983565e-05 -0.00016216526
000370 58 e8 96 39 0c 09 60 b9 b0 bb b4 b7 39 3d 08 39
       0.0002878334 -0.00021365675 -2.1545071e-05 0.00012992778
000380 a8 a6 10 38 06 5a 8c b8 52 50 5d b9 70 4b 18 b9
       3.4487486e-05 -6.6924884e-05 -0.00021106124 -0.00014523952
000390 49 df 3d 3f 3b af 86 3f 39 3f 20 39 9a 55 32 38
       0.7416883 1.0522226 0.00015282341 4.251823e-05
0003a0 60 68 10 37 b8 89 23 b9 9e cb 40 39 2a be 4f 3e
       8.607371e-06 -0.00015596196 0.000183864 0.20287386
0003b0 a6 df 83 39 64 84 eb b7 38 b8 e9 37 0e 38 80 b9
       0.00025152898 -2.8075832e-05 2.7861548e-05 -0.00024455826
0003c0 48 83 8d 3d f3 bd 1b b9 fd 22 47 b9 70 ac 55 b7
       0.069098055 -0.00014852714 -0.00018991153 -1.2735938e-05
0003d0 e8 01 8b b7 c0 17 b5 36 9c dc 28 b9 74 1d 53 39
       -1.6570979e-05 5.396985e-06 -0.00016103912 0.000201335
0003e0 38 fe 56 38 20 36 58 38 a1 45 6a b9 d8 f4 ac b8
       5.1258336e-05 5.154882e-05 -0.00022341918 -8.247205e-05
0003f0 7e 7a 2d b8 84 64 cb 38 c0 a4 1c 39 42 56 83 38
       -4.1360494e-05 9.698517e-05 0.00014938693 6.2626335e-05
