RECAP_clustering_breast_cancer/results_trainings/K_3/cluster_2/training_results/cluster_1_model.pt (torch, 18895 bytes, 4 tensors)

weight f4 [5, 382]
0.00012468197 0.00012968664 3.7948776e-06 0.000118821175 -1.6186415e-05 -7.3824485e-06 -0.00015815494 9.9099445e-05
-0.00013081335 -9.20124e-05 -0.00042539724 3.3223754e-05 0.79637116 0.00017925462 -2.7510228e-05 0.00026345026
-0.00013853653 0.000233029 0.00010877464 0.24701615 4.5161636e-05 -9.6396776e-05 0.00014938544 -0.00014551845
5.2720206e-05 0.00016701524 -1.622348e-05 -5.3897355e-05 5.5908473e-05 0.00015986522 -8.9374495e-05 9.778909e-05
-0.00012781692 0.00012390819 -2.7820133e-05 -0.00018915693 0.00013178293 -4.472587e-05 1.3754165e-05 0.00017083861
-0.00015734359 0.81339437 4.3803884e-05 -7.643916e-05 -8.499039e-05 0.00017441198 -4.278829e-05 -2.006207e-05
2.3464221e-05 -5.584299e-05 0.91678184 -0.00017377907 0.00019153734 -6.969654e-05 0.00014384044 0.00032138237
0.00018177484 -0.00019161405 -4.9531023e-05 0.00015936451 0.00022172244 -6.669674e-05 -3.3837205e-05 4.3673484e-05
2.9962306e-05 6.558665e-05 -0.00014349252 2.8101953e-05 -0.00014673866 -0.00012237785 0.00031014023 0.00019099565
1.8781575e-06 -6.195536e-05 0.00018198858 5.4194214e-05 -1.4040532e-05 -0.00017283233 0.00017928296 6.5971966e-05
0.00017041048 -0.00016251959 -6.4610213e-06 0.00014502017 0.00014871801 0.00017189729 0.28055954 0.0001327889
0.00018233283 3.647794e-05 -2.9827424e-05 8.325944e-05 -4.097636e-05 -0.00012233054 3.5826088e-05 0.60400754
-6.7414076e-06 3.053827e-05 -5.5644778e-06 -1.9769941e-05 8.3480394e-05 -1.7242535e-05 0.00013508752 -3.4182653e-05
-0.0001833134 -0.00018435645 -0.00016401187 4.8586386e-05 -0.00017355748 1.7262675e-05 0.0001586807 0.00017300574
-0.00018510806 3.49209e-05 -7.6930155e-05 0.45036736 2.4400797e-06 3.1699747e-06 -8.537251e-05 0.00020525348
-0.00014500927 0.00014876944 0.00013096385 1.423464 -0.00011783707 -0.00019178314 -0.00018545125 -3.3969336e-05
0.00020144755 0.00011650544 7.4436044e-05 0.00014180692 -0.00014144929 -1.8652616e-05 1.2906559e-05 5.8649894e-06
-0.00017026499 0.00018363241 4.3230975e-05 -0.00014085659 0.00012544039 0.00012393926 9.212563e-05 -0.00013823087
0.00019384171 0.00014031255 -0.00019368458 0.00022191112 -6.0994265e-05 0.00013975055 -1.3984361e-05 -0.0001750382
9.9176556e-05 7.907918e-05 2.5375339e-06 8.2899e-05 -1.2205339e-05 -8.223008e-05 -2.3788103e-05 -0.00016452138
-5.942992e-05 8.5672e-05 0.00014712477 -0.00012814326 3.8127648e-05 0.00010448278 -9.195799e-05 0.00012834054
0.00017575682 -0.00011588857 0.0001484018 -6.801203e-05 0.00029262996 0.00018825039 3.0036404e-05 5.1552546e-05
-0.00015277731 -0.0001465575 0.00016191429 7.8449564e-05 1.1795349 0.00010629097 3.0408468e-05 -0.00012329705
0.00020549251 -5.0605013e-05 -5.115551e-06 0.0002083229 6.202783e-06 0.5945483 1.4473609 0.0001857853
-8.7579334e-05 3.935682e-06 -2.133398e-05 -0.000109305736 7.6173164e-06 -8.790303e-06 0.00011589835 0.000110731125
0.0001928391 0.00019708795 -3.5024168e-05 8.0065525e-05 1.0076183e-05 0.00013610591 4.6320973e-05 -1.5188154e-05
0.000110615976 -6.439313e-05 -0.00017390972 0.00022688751 4.0716637e-05 0.00012284955 0.51770175 5.8161226e-05
-5.766016e-05 -0.00012452499 2.9536212e-05 -0.00013366343 0.00013731196 -0.00016334851 -2.9334362e-05 -0.00016125667
-0.000103881524 0.00020182072 0.0001962185 0.00017610224 6.511109e-07 -0.00014248409 1.1688942e-05 0.00016606916
4.5202687e-05 3.0316878e-05 6.211235e-05 0.00015982894 -0.0001915797 0.00010411815 0.00012350622 0.0001330989
0.00021927388 -0.00019570003 -0.00017561838 -3.0916097e-05 0.00019682848 9.466735e-05 4.890977 -0.00010633808
-7.671266e-05 7.097458e-05 2.5459361e-05 2.262737e-05 0.00018702124 6.6468e-05 0.00013278806 3.3122706e-05
00000000: 10bd 0239 7efc 0739 80ab 7e36 a22f f938
00000010: 10c8 87b7 c0b6 f7b6 65d6 25b9 9cd3 cf38
00000020: f12a 09b9 c8f6 c0b8 da07 dfb9 bc59 0b38
00000030: fbde 4b3f 4cf6 3b39 c4c5 e6b7 b21f 8a39
00000040: 1e44 11b9 3f59 7439 f11d e438 cdf1 7c3e
00000050: f06b 3d38 a028 cab8 59a4 1c39 5096 18b9
00000060: e41f 5d38 d020 2f39 a817 88b7 d80f 62b8
00000070: 447f 6a38 7ea1 2739 916e bbb8 1e14 cd38
00000080: 9806 06b9 5aed 0139 485f e9b7 6d58 46b9
00000090: 362f 0a39 0a98 3bb8 b0c1 6637 2423 3339
000000a0: 99fc 24b9 9d3a 503f 10ba 3738 f64d a0b8
000000b0: de3c b2b8 5ce2 3639 9477 33b8 f84a a8b7
000000c0: 08d5 c437 f438 6ab8 37b2 6a3f 7738 36b9
000000d0: 6ad7 4839 0c2a 92b8 e0d3 1639 367f a839
000000e0: d09a 3e39 01ec 48b9 88bf 4fb8 161b 2739
000000f0: 2a7e 6839 8adf 8bb8 6cec 0db8 0c2e 3738
00000100: 9057 fb37 918b 8938 7b76 16b9 7cbc eb37
00000110: dcdd 19b9 8e52 00b9 519a a239 0146 4839
00000120: 0015 fc35 08ee 81b8 30d4 3e39 984e 6338
00000130: a08f 6bb7 533a 35b9 e7fd 3b39 6e5a 8a38
00000140: 37b0 3239 056a 2ab9 c0cb d8b6 8e10 1839
00000150: 30f1 1b39 543f 3439 80a5 8f3e 403d 0b39
00000160: 9930 3f39 e4ff 1838 e835 fab7 929b ae38
00000170: 08de 2bb8 db45 00b9 f843 1638 3da0 1a3f
00000180: 4034 e2b6 3816 0038 80b6 bab6 a0d7 a5b7
00000190: 3212 af38 10a4 90b7 48a6 0d39 585f 0fb8
000001a0: d137 40b9 cf4f 41b9 9afa 2bb9 3cc9 4b38
000001b0: fbfc 35b9 50cf 9037 8763 2639 e068 3539
000001c0: 9119 42b9 0878 1238 9055 a1b8 8d96 e63e
000001d0: 40c0 2336 c0bb 5436 040a b3b8 5039 5739
000001e0: a10d 18b9 fefe 1b39 5753 0939 1134 b63f
000001f0: 4c1f f7b8 6519 49b9 b175 42b9 4c7a 0eb8
00000200: aa3b 5339 6254 f438 8c1a 9c38 01b2 1439
00000210: 0152 14b9 3078 9cb7 4089 5837 e0cb c436
00000220: 2989 32b9 738d 4039 e852 3538 e7b2 13b9
00000230: a688 0339 b1f5 0139 9233 c138 11f2 10b9
00000240: fd41 4b39 dd20 1339 cf17 4bb9 d0b0 6839
00000250: 18d4 7fb8 018a 1239 609e 6ab7 768a 37b9
00000260: 02fd cf38 50d7 a538 804a 2a36 10da ad38
00000270: 88c5 4cb7 f072 acb8 908c c7b7 5f83 2cb9
00000280: 6444 79b8 ceaa b338 8145 1a39 325e 06b9
00000290: 40eb 1f38 c41d db38 92d9 c0b8 2793 0639
000002a0: 5d4b 3839 3409 f3b8 4e9c 1b39 aea1 8eb8
000002b0: 216c 9939 1465 4539 b0f6 fb37 203a 5838
000002c0: d932 20b9 3bad 19b9 89c7 2939 4a85 a438
000002d0: 00fb 963f 88e8 de38 b015 ff37 4d49 01b9
000002e0: 7a79 5739 b840 54b8 40a6 abb6 4171 5a39
000002f0: 8021 d036 5134 183f 1f43 b93f 5dcf 4239
00000300: ccaa b7b8 400f 8436 60f6 b2b7 123b e5b8
00000310: 4098 ff36 107a 13b7 740e f338 5238 e838
00000320: da34 4a39 65a9 4e39 eae6 12b8 dae8 a738
00000330: e00c 2937 a7b7 0e39 c448 4238 a0d0 7eb7
00000340: 80fa e738 cc0a 87b8 895b 36b9 a7e8 6d39
00000350: 28c7 2a38 2dd1 0039 1a88 043f 24f2 7338
00000360: 20d8 71b8 ec92 02b9 88c4 f737 0128 0cb9
00000370: 66fb 0f39 8848 2bb9 1013 f6b7 0217 29b9
00000380: f8da d9b8 d69f 5339 01c0 4d39 16a8 3839
00000390: 00c8 2e35 c867 15b9 a01b 4437 da22 2e39
000003a0: 0498 3d38 0051 fe37 5042 8238 c197 2739
000003b0: c9e2 48b9 025a da38 7381 0139 7790 0b39
000003c0: e2ec 6539 d434 4db9 3326 38b9 e8ab 01b8
000003d0: be63 4e39 2688 c638 e282 9c40 d201 dfb8
000003e0: cce0 a0b8 30d8 9438 9091 d537 e8cf bd37
000003f0: 221b 4439 bc64 8b38 063d 0b39 3ced 0a38

bias f4 [5]
0.51247394 0.8033418 -2.0043948 -2.591217 2.2906377
00000000: 7e31 033f cfa7 4d3f 0148 00c0 80d6 25c0
00000010: cf99 1240

weight f4 [362, 5]
5.9637023e-05 0.00014827706 5.446312e-05 0.00013518818 0.00021856259 -9.040149e-05 -0.000121321136 0.00018568226
0.0002480644 -5.27746e-05 0.00020184055 -0.00022089451 -8.674919e-05 0.00013713272 -3.8504077e-06 -0.00017599242
-0.0001724471 0.00035590015 0.00034244335 -2.2611588e-05 0.00019147951 3.0580428e-05 -6.672005e-05 -9.578894e-05
4.6980786e-05 0.38201922 0.00023556218 -6.515859e-05 -0.0001352551 0.00029295837 -0.00011649994 8.599716e-05
0.000121371544 -7.106544e-06 -0.00015510427 1.4248595e-05 4.066687e-05 0.00021743734 0.000104824445 1.7986938e-05
0.16168422 0.0002139094 -0.00026462926 -0.00013512005 0.0002265675 5.68697e-05 0.00017935455 -0.00018851062
6.1154133e-06 -0.00011093925 0.2438905 0.00025945052 -0.00029105 -0.00034000108 0.00064590434 -1.6134123e-05
-4.701418e-06 9.4898525e-05 0.00021426013 8.3216844e-05 -0.10696961 -8.1581966e-05 -0.60985947 -0.8272852
0.33168563 -0.00013531538 0.00015186725 -0.00013594452 6.377569e-05 -2.9252114e-05 0.5483391 0.0001290014
-9.26558e-05 2.8085593e-05 0.1840528 -4.879335e-05 7.012961e-06 -0.00011167121 0.00011621097 -1.976367e-05
-0.00013716749 0.00017268813 1.4536374e-05 -0.00020193125 0.00021453298 -0.041202616 8.72869e-05 -0.00015630739
2.888796e-05 0.00012140605 -0.0002770693 -0.00015457699 -0.08685411 -0.50451964 0.38731268 0.91401565
0.0003957001 -0.36204883 -0.0007472967 0.31185636 -1.086088e-05 -0.00010855845 0.00022797937 8.4073734e-05
-6.4280466e-06 0.00024896953 1.13587885e-05 -7.0795795e-05 0.00015628974 2.2638284e-05 5.0408635e-05 0.00013221381
0.00016453283 0.00015872266 -0.00016723042 -0.000137613 9.866843e-05 -0.00010574177 -5.0256538e-05 -0.0002188899
-1.9050989e-05 -2.0547683e-05 1.09725515e-05 0.000150717 -0.00010232226 -6.771996e-05 7.62109e-05 -0.0002226806
-0.00018683568 3.941716e-05 1.2093718e-05 0.0010639345 -0.018612916 -0.03187776 0.02263279 1.4948673e-06
-0.00018760258 7.582674e-05 3.0323878e-05 -7.820448e-05 0.00012059756 3.826533e-05 0.00034591948 0.00025863823
-0.0002488187 -7.247698e-05 -3.948569e-05 0.00011010376 5.694214e-05 5.531567e-05 0.42330313 3.3710137e-05
-0.00012170084 -0.00016969738 0.1800224 1.2699806e-05 -7.634709e-05 0.00013978024 0.00021690168 -5.5891724e-05
0.1989091 0.04392957 -2.1542419e-05 -0.00037879206 0.00022376134 0.5010482 0.0001894706 -0.0369817
-0.00026792748 0.0001522049 0.00013992598 0.03781483 -0.0004005884 -0.0004442116 0.00038028904 -7.749052e-05
6.8333014e-05 -0.0003489603 -0.00023503574 0.00027114624 -0.00015508586 9.1887625e-05 0.00025793028 0.032278907
-0.00034081485 0.2304447 0.00023976588 -2.7052585e-05 -0.00013655542 2.797637e-05 -0.00020872676 5.7588564e-05
-0.00022413918 5.3361844e-05 -0.00012823698 0.00020030339 -0.0002306106 0.00025799434 0.00010335898 -0.00019984273
6.1375074e-05 -0.0001129561 -2.2789121e-05 0.011334289 -0.00011225257 -0.93166494 -8.309547e-05 -0.1543847
-0.9077264 0.9086177 -0.00015798112 -7.690978e-07 -7.007996e-05 0.00012367974 2.2589156e-05 -1.3534693e-05
-0.00017597352 -9.806996e-05 -9.663009e-05 -0.00024326754 0.00020957523 -0.00020085805 0.00021518713 0.00017645776
6.063361e-05 0.00010568637 -0.00012680748 2.4208712e-05 8.861018e-05 -0.00020645277 0.00019057331 5.695678e-06
-8.090106e-05 -1.3930025e-05 -0.00024837337 -0.00016578878 -0.00012309224 7.424582e-05 0.00013799858 -0.000109086155
1.539744e-05 -7.095604e-05 -2.632655e-05 5.5271943e-05 -9.128987e-05 0.00020312611 0.0001682627 -0.00023309716
-0.00027198362 0.00040061228 -1.037407 -0.000107701984 -0.042203683 -1.1156579 1.0853922 0.000115149145
00000000: c422 7a38 d27a 1b39 546f 6438 4dc1 0d39
00000010: f32d 6539 ee95 bdb8 ca6d feb8 b4b3 4239
00000020: a40e 8239 4c5a 5db8 29a5 5339 eb9f 67b9
00000030: 1eed b5b8 49cb 0f39 c032 81b6 9b8a 38b9
00000040: ead2 34b9 1c98 ba39 f889 b339 04ae bdb7
00000050: e4c7 4839 7c43 0038 0eec 8bb8 4ce2 c8b8
00000060: 3c0d 4538 0698 c33e 3e01 7739 c0a5 88b8
00000070: 44d3 0db9 3598 9939 6e51 f4b8 6059 b438
00000080: da88 fe38 c074 eeb6 7ca3 22b9 400d 6f37
00000090: b891 2a38 e4ff 6339 32d5 db38 a8e2 9637
000000a0: 8c90 253e de4c 6039 f0bd 8ab9 03af 0db9
000000b0: c092 6d39 6087 6e38 1f11 3c39 efaa 45b9
000000c0: 0033 cd36 0ea8 e8b8 6ebe 793e dc06 8839
000000d0: 1298 98b9 2c42 b2b9 e851 293a c457 87b7
000000e0: e0c0 9db6 4204 c738 04ab 6039 b484 ae38
000000f0: e212 dbbd fc16 abb8 c01f 1cbf f6c8 53bf
00000100: b3d2 a93e 72e3 0db9 8e3e 1f39 548c 0eb9
00000110: 50bf 8538 7062 f5b7 f45f 0c3f 8d44 0739
00000120: 3450 c2b8 5a99 eb37 5678 3c3e 76a7 4cb8
00000130: e050 eb36 0631 eab8 4ab6 f338 28ca a5b7
00000140: 9ed4 0fb9 9e13 3539 40e1 7337 82bd 53b9
00000150: 42f4 6039 13c4 28bd cc0d b738 72e6 23b9
00000160: 6c54 f237 609b fe38 9d43 91b9 f215 22b9
00000170: 91e0 b1bd 3328 01bf d94d c63e eefc 693f
00000180: f875 cf39 775e b9be 3ce6 43ba a3ab 9f3e
00000190: 2037 36b7 e0a9 e3b8 bf0d 6f39 be50 b038
000001a0: 80b0 d7b6 2088 8239 a091 3e37 3478 94b8
000001b0: b5e1 2339 58e7 bd37 dc6d 5338 e0a2 0a39
000001c0: 7286 2c39 ca6e 2639 935a 2fb9 354c 10b9
000001d0: 36ec ce38 aec1 ddb8 8cca 52b8 cf85 65b9
000001e0: b0cf 9fb7 d05d acb7 c016 3837 c909 1e39
000001f0: d895 d6b8 e004 8eb8 6ad3 9f38 5e7f 69b9
00000200: 52e9 43b9 da53 2538 20e6 4a37 b873 8b3a
00000210: 1d7a 98bc 4192 02bd 6768 b93c 40a3 c835
00000220: 2fb7 44b9 2c05 9f38 0860 fe37 b601 a4b8
00000230: 52e9 fc38 167f 2038 875c b539 d699 8739
00000240: e173 82b9 c8fe 97b8 709d 25b8 82e7 e638
00000250: 28d5 6e38 c002 6838 30bb d83e fc63 0d38
00000260: a439 ffb8 cbf0 31b9 cb57 383e 4011 5537
00000270: 881c a0b8 f991 1239 1a70 6339 486d 6ab8
00000280: d4ae 4b3e 7eef 333d feb5 b4b7 9c98 c6b9
00000290: 7aa1 6a39 b244 003f a0ac 4639 207a 17bd
000002a0: 9e78 8cb9 3199 1f39 18b9 1239 b9e3 1a3d
000002b0: 1106 d2b9 12e5 e8b9 8861 c739 6882 a2b8
000002c0: 024e 8f38 a9f4 b6b9 ed73 76b9 a228 8e39
000002d0: 8b9e 22b9 cbb3 c038 d13a 8739 e336 043d
000002e0: 65af b2b9 b2f9 6b3e aa69 7b39 fcee e2b7
000002f0: 5130 0fb9 ccae ea37 aadd 5ab9 408b 7138
00000300: e706 6bb9 d8d0 5f38 5a77 06b9 8808 5239
00000310: 10d0 71b9 6a43 8739 6ec2 d838 e08c 51b9
00000320: 7eb6 8038 d8e2 ecb8 442b bfb7 74b3 393c
00000330: 2469 ebb8 9881 6ebf 8a43 aeb8 0617 1ebe
00000340: c260 68bf 2b9b 683f bca7 25b9 0074 4eb5
00000350: e4f7 92b8 07b0 0139 d87d bd37 1013 63b7
00000360: 8885 38b9 e9aa cdb8 e2a5 cab8 a215 7fb9
00000370: 6cc1 5b39 6c9d 52b9 dba3 6139 8507 3939
00000380: d850 7e38 f0a3 dd38 a0f7 04b9 d013 cb37
00000390: 3ad4 b938 3e7b 58b9 a2d4 4739 801d bf36
000003a0: 6da9 a9b8 00b5 69b7 1c38 82b9 96d7 2db9
000003b0: 5212 01b9 6cb4 9b38 b6b3 1039 2fc5 e4b8
000003c0: c029 8137 3cce 94b8 d6d7 dcb7 ccd3 6738
000003d0: e072 bfb8 40fe 5439 ad6f 3039 8b6b 74b9
000003e0: 0699 8eb9 4509 d239 c1c9 84bf 10de e1b8
000003f0: c5dd 2cbd e1cd 8ebf 22ee 8a3f 3a7c f138

bias f4 [362]
0.0002216449 -0.00013968733 -0.00017892628 -0.00030431995 6.978138e-06 0.0002845031 -0.00024270563 -3.498295e-05
0.00011015783 6.0217062e-05 0.0005054535 4.744914e-05 0.7920394 4.416253e-05 -4.324942e-05 0.00010280174
0.00019601532 2.7845046e-05 0.31329444 0.058828488 8.5698586e-05 4.728319e-05 5.2649426e-05 -5.8058227e-05
0.00012293612 0.00032443742 0.2787704 -0.0001826066 -0.00013083113 8.225189e-05 0.08113074 -0.00021632515
0.00034343332 0.18310156 0.00010076548 0.00022375476 -0.00012083806 -3.194602e-05 0.00012331121 -0.00018384418
-0.0003154947 0.8928375 1.6566766e-05 -1.1364151e-05 8.365008e-06 -2.5997782e-05 -0.00013484455 -0.008037087
-9.277958e-05 0.00019139411 1.8495154 1.9351413e-05 9.635952e-05 0.0002020267 1.8819745e-05 0.80691564
2.6039197e-06 -7.656247e-05 7.996053e-05 -3.563873e-05 0.06302333 -0.00011952434 -0.00024721253 4.5444394e-05
0.14575587 -0.00020910629 0.00020271697 -8.4722706e-07 -0.00013480197 -7.80892e-05 8.3922205e-06 -1.9194355e-05
8.596048e-05 -2.5099784e-05 0.00033311802 -0.00012694589 -0.00014681934 0.13090323 9.953779e-05 0.56686693
-0.00024199644 -0.00021668409 -0.00021513177 0.00018735995 -0.000103281345 -3.9537197e-05 0.2855449 0.098970644
-8.866597e-05 -0.00017263686 0.00013292512 -0.0003428443 -0.00025510072 0.000110318826 -0.000104455015 1.3198926
-0.00029853176 -0.0002295344 7.7332166e-05 3.1385265e-05 -0.00019320394 0.3621967 -1.6783568e-05 -0.00011295988
-0.00010677008 -1.4033212e-05 0.00052221277 0.0002634194 -4.7905938e-05 1.2285731e-05 3.5014047e-05 -8.6450294e-05
-0.00018971832 -0.00019107299 0.09749697 0.6104938 -0.00022113346 0.000105166386 0.000356614 0.000112435024
-0.00031070923 -0.00022895478 -7.2744515e-05 1.7790126 -7.551788e-05 -0.00035953647 -0.00011006853 0.27569002
1.4266174e-05 -0.00022289206 -0.00015690208 9.028509e-05 4.7342066e-05 -0.00021961903 0.00012313318 -0.00020137684
-0.0001292973 0.0001608405 -8.293557e-05 -0.0001378248 -0.000269072 0.0001207161 -0.00030168451 6.660608e-05
-0.00012922793 1.5707963e-05 -0.00033321645 3.3188262e-05 1.3100809e-05 -0.057748187 -0.00031064535 2.5877496e-05
-0.000105759216 0.0001279671 -1.7166974e-05 -2.9645838e-05 0.00029251172 -0.00012088912 -0.0001235341 -0.00019699504
-0.0064161397 0.3809343 -0.00031790085 -0.00010531301 -5.2550044e-05 -0.0001165142 4.3496388e-05 2.6850612e-06
-0.00012711479 4.2045052e-05 0.00010392864 -6.4182386e-06 6.7847475e-05 0.27852967 -0.00012280201 0.00014547413
-0.0002567087 -5.7259895e-06 -0.00014446162 -0.00019465697 0.76210696 0.18711619 -0.00015159149 0.32182854
-1.7917322e-05 -8.011452e-05 -0.00018972562 -4.244063e-05 5.9736805e-05 0.87523067 1.9141818 -2.0534986e-05
-0.00029755867 -0.13397355 9.8756514e-05 -0.00014168971 0.0005195617 -0.00014851423 0.022084344 -0.00019098529
0.045388263 -0.00034004025 0.22401738 -2.1421569e-05 -0.0002704036 -2.3868604e-05 -4.8056125e-05 -9.870219e-05
0.39392498 1.4873556e-05 -0.00033918102 0.00023679093 -9.4694e-05 7.638677e-05 0.69573736 -7.340225e-05
0.1347162 0.000102335296 -0.00016437065 -0.00033582863 -8.4598214e-05 0.01729266 2.9381656e-05 0.00016002756
0.032434836 6.2136955e-05 -0.0002632911 -2.2045875e-05 9.92205e-05 2.787132e-05 -4.755557e-05 -3.0781965e-05
-0.00019163526 8.600682e-05 -5.2686868e-05 0.00015665786 -0.00033817283 -0.0003397768 -0.00014067574 -0.045931626
0.00012046825 -0.000213873 0.000109380766 -0.06182953 2.79682e-06 -2.5828078e-05 4.2546797 0.00011496266
-0.00028170936 0.00041186344 -0.00013342482 -4.8682617e-05 -2.0531283e-05 -0.00015258143 -0.0068713343 -0.00012265098
00000000: 5a69 6839 0879 12b9 289e 3bb9 228d 9fb9
00000010: c025 ea36 5c29 9539 cc7e 7eb9 a8ba 12b8
00000020: 8904 e738 9491 7c38 6980 043a 2004 4738
00000030: 18c3 4a3f 283b 3938 b666 35b8 4497 d738
00000040: 7689 4d39 c894 e937 2168 a03e 24f6 703d
00000050: 14b9 b338 f051 4638 e4d3 5c38 8c83 73b8
00000060: 6ae8 0039 4119 aa39 feba 8e3e 167a 3fb9
00000070: b72f 09b9 a67e ac38 e027 a63d 57d5 62b9
00000080: d70e b439 fa7e 3b3e 0e52 d338 b69f 6a39
00000090: 716a fdb8 c7fd 05b8 1a4d 0139 4cc6 40b9
000000a0: fb68 a5b9 0091 643f dcf8 8a37 a8a8 3eb7
000000b0: 7057 0c37 d015 dab7 0f65 0db9 fcad 03bc
000000c0: a892 c2b8 f7b0 4839 ecbc ec3f d854 a237
000000d0: a014 ca38 21d7 5339 18df 9d37 0692 4e3f
000000e0: 00bf 2e36 2a90 a0b8 7cb0 a738 cc7a 15b8
000000f0: 6012 813d 24a9 fab8 4e9c 81b9 8c9b 3e38
00000100: 0741 153e 8b43 5bb9 6c90 5439 006d 63b5
00000110: a159 0db9 d2c3 a3b8 50cc 0c37 9003 a1b7
00000120: ae45 b438 608d d2b7 58a6 ae39 c71c 05b9
00000130: 84f3 19b9 7f0b 063e f2be d038 311e 113f
00000140: 6dc0 7db9 b135 63b9 ff94 61b9 0e76 4439
00000150: c098 d8b8 bed4 25b8 f132 923e 1fb1 ca3d
00000160: 2ef2 b9b8 db05 35b9 d161 0b39 c8bf b3b9
00000170: 0abf 85b9 f85a e738 dc0e dbb8 3ef2 a83f
00000180: 4184 9cb9 2caf 70b9 642d a238 aca3 0338
00000190: ca96 4ab9 d971 b93e 70ca 8cb7 e0e4 ecb8
000001a0: c0e9 dfb8 3070 6bb7 1be5 083a 8e1b 8a39
000001b0: 9cee 48b8 d01e 4e37 0cdc 1238 a64c b5b8
000001c0: 20ef 46b9 c45a 48b9 7eac c73d 5249 1c3f
000001d0: 10e0 67b9 c68c dc38 ecf7 ba39 18cb eb38
000001e0: b0e6 a2b9 9513 70b9 6a8e 98b8 afb6 e33f
000001f0: 5a5f 9eb8 2b80 bcb9 98d4 e6b8 3e27 8d3e
00000200: c058 6f37 22b8 69b9 1586 24b9 7057 bd38
00000210: 2891 4638 8949 66b9 501d 0139 af28 53b9
00000220: fb93 07b9 4ba7 2839 b2ed adb8 1085 10b9
00000230: 3c12 8db9 f628 fd38 692b 9eb9 deae 8b38
00000240: 5c81 07b9 98c4 8337 8eb3 aeb9 a033 0b38
00000250: 8ccb 5b37 5d89 6cbd 1dde a2b9 8013 d937
00000260: 0ccb ddb8 e82e 0639 cc01 90b7 f4af f8b7
00000270: 425c 9939 da85 fdb8 ef88 01b9 7490 4eb9
00000280: 7b3e d2bb d209 c33e eeab a6b9 7edb dcb8
00000290: 2e69 5cb8 1659 f4b8 e46f 3638 0031 3436
000002a0: 1e4a 05b9 8859 3038 44f4 d938 405c d7b6
000002b0: 5649 8e38 719b 8e3e 6ac4 00b9 6a8a 1839
000002c0: dc96 86b9 e021 c0b6 9f7a 17b9 d51c 4cb9
000002d0: 7119 433f 639b 3f3e 88f4 1eb9 b6c6 a43e
000002e0: 284d 96b7 2803 a8b8 15f1 46b9 4802 32b8
000002f0: e88d 7a38 1e0f 603f e903 f53f 8c42 acb7
00000300: a601 9cb9 5d30 09be 801b cf38 8b92 14b9
00000310: 3233 083a 7cba 1bb9 3aea b43c 3943 48b9
00000320: 0be9 393d 6e47 b2b9 d064 653e 78b2 b3b7
00000330: f5c4 8db9 7039 c8b7 df8f 49b8 56fe ceb8
00000340: 89b0 c93e 7089 7937 1bd4 b1b9 154b 7839
00000350: 7496 c6b8 d631 a038 d81b 323f 88ef 99b8
00000360: 0bf3 093e d89c d638 e95a 2cb9 2812 b0b9
00000370: 526a b1b8 56a9 8d3c a078 f637 12cd 2739
00000380: 64da 043d 864f 8238 550a 8ab9 28ef b8b7
00000390: 9a14 d038 34cd e937 6876 47b8 e21b 01b8
000003a0: b3f1 48b9 8f5e b438 18fc 5cb8 8644 2439
000003b0: ca4c b1b9 1224 b2b9 5b82 13b9 cd22 3cbd
000003c0: e6a3 fc38 1943 60b9 5a63 e538 f640 7dbd
000003d0: 00b1 3b36 60a9 d8b7 5626 8840 1c18 f138
000003e0: 64b2 93b9 60ef d739 f4e7 0bb9 9030 4cb8
000003f0: 983a acb7 44fe 1fb9 ee28 e1bb df9b 00b9
