RECAP_clustering_AML/results_trainings/K_4/cluster_3/training_results/cluster_2_model.pt (torch, 3727 bytes, 4 tensors)

weight f4 [5, 38]
00000000: 727d 8d3a d50f 77ba ba3a 9b3b d47a 8dbb
00000010: 246e c4b8 343b 643b f529 4c3b 89c3 a8ba
00000020: d54a 743a cc95 debf 125a 2940 53b0 8cbf
00000030: a89f c9bf 440d 06bb 447d 663b 4c08 54bb
00000040: 65da 163f f8ce 223b ffc4 c1bf 9428 153f
00000050: 2451 b63b e0c7 1fbf 0c0e 843b 096b 753a
00000060: d580 523a d5c6 2eba 9c87 4a3b e4c8 363b
00000070: 9576 073b 8406 7bbb 440a 7c3b 04d8 7ebb
00000080: d564 793a 1543 35bb 8876 d5ba 846c 673b
00000090: b5a2 573b d5b4 353a 8412 6ebb d52e 12ba
000000a0: 701c 64bf 85c9 a2ba 8f2f 07bb 8a7a 143b
000000b0: 9429 9a3a 94e7 28bc 04e3 673b 7ed4 06bb
000000c0: 7620 e23f c9d2 573b 8458 803b d5e0 4c3a
000000d0: 0431 76bb c009 0f3b f681 2cbb 907d 75bf
000000e0: 00ab b3ba c785 45bb dfb3 84bf 7b38 9e3b
000000f0: 004b db3a 8815 dbba 4435 463b 791d 593b
00000100: c4e6 20bb d5fe 233a 597e 9139 d51c 393a
00000110: 6970 603a 8424 68bb 6ab9 daba 5530 34ba
00000120: 6943 673a d5bb 17ba d5b8 4aba eabf feba
00000130: 84d6 7bbb 0424 68bb a7c8 71bb 74b8 853b
00000140: 19a9 963b 2dca 853f 84c0 6fbb 2124 213c
00000150: 8401 0ebb 614b e9ba 2419 a7bf c746 253b
00000160: c04a 8039 84a7 6ebb 4271 82bb 9a34 3f3b
00000170: 6e70 11bb 9068 823f 58af 50bb c321 2f3c
00000180: f946 72ba 0ba4 133f b739 78bb f5d0 163b
00000190: ecdd 3c3b f7e3 903b 6aea 84ba c42b 0abb
000001a0: 8404 7dbb d59c 4e3a 1900 98b9 d56e 2f3a
000001b0: e4cb 753b d57e 633a 354a 413b b360 02b9
000001c0: eac6 df3a 7503 233b d5b7 12ba 6a13 80ba
000001d0: b5b9 eeba 55e7 67bb 2846 93bb af23 673b
000001e0: 6a23 823a 0b17 d63a 75e2 48bb 5385 a8b9
000001f0: b8f6 18bb 20d3 853b cd05 7e3b 5546 36bb
00000200: 04f9 33bb e86e ee3a fbcd 8cbb ae99 8b3b
00000210: be50 ef3e ade8 3f3b 83bb bbba 3d81 bdb7
00000220: a9b7 7abb 0d7b 043a d5b2 5e3a d50e 4eba
00000230: 47e4 38bb d588 713a 08ee c2ba 4499 6a3b
00000240: d5dc 6a3a 1900 f6b9 dcba 263b 6a26 a43a
00000250: 2e6e 82bb 17d6 663b f5a0 0f3b d5c6 3ebb
00000260: 8436 69bb 043b 67bb 1b60 3bbf 9147 3abb
00000270: c46a 293f 13c3 0cbb c8ee c93a abe8 0e3c
00000280: 7b19 873b e0e8 153b 46e5 61bb 88ad caba
00000290: 7a6b 583b f5e7 1cbb 844c 6f3b 7a3c f73a
000002a0: 587c fab8 270d 3639 473b 023f f576 703a
000002b0: 51d8 c7be b902 e83a c35e d3ba 44be 17bb
000002c0: d0a6 2d3a d062 2e3a 2004 ccb9 2867 8b3a
000002d0: e3ed 8a3b 8095 b938 e85f 923a e861 17ba
000002e0: d033 6fba 0394 803b d099 5aba 74fd 0ebb
000002f0: 28c3 ca3a 50c2 1aba
0.0010794832 -0.00094246614 0.0047372254 -0.004317621 -9.3665236e-05 0.0034825327 0.0031152938 -0.0012875657
0.0009319012 -1.7389464 2.6461225 -1.099131 -1.5751848 -0.0020454684 0.003516988 -0.0032353578
0.58926994 0.0024842601 -1.5138243 0.5826504 0.005563872 -0.6241436 0.004029995 0.0009361958
0.0008030062 -0.00066672015 0.0030903583 0.0027890736 0.0020670046 -0.0038303444 0.0038458267 -0.003888608
0.00095136213 -0.0027658392 -0.0016285935 0.0035312483 0.0032903377 0.0006931548 -0.0036326954 -0.00055764365
-0.8910589 -0.0012419677 -0.0020627712 0.0022656047 0.0011761659 -0.010309119 0.0035383115 -0.0020573433
1.7666156 0.0032932034 0.003916802 0.0007815485 -0.0037565837 0.002182588 -0.002632258 -0.9589472
-0.0013707578 -0.0030139552 -1.0367392 0.0048285103 0.0016730726 -0.0016714791 0.003024415 0.003312914
-0.002455161 0.00062559295 0.00027750692 0.0007061486 0.00085616723 -0.0035422156 -0.0016687338 -0.0006873657
0.00088219956 -0.0005788182 -0.00077332306 -0.0019435857 -0.0038427422 -0.0035421858 -0.003689328 0.0040808264
0.0045977947 1.0452324 -0.0036583254 0.009835274 -0.0021668384 -0.0017798954 -1.3054547 0.0025219189
0.00024469756 -0.0036415765 -0.0039807865 0.002917564 -0.0022192257 1.018816 -0.0031842794 0.010689202
-0.0009242143 0.57672185 -0.0037876198 0.0023012732 0.00288188 0.004421707 -0.0010140662 -0.0021083215
-0.0038607428 0.0007881646 -0.00028991772 0.00066922355 0.0037505561 0.0008678262 0.0029493694 -0.0001243379
0.0017072831 0.0024873887 -0.0005596851 -0.0009771411 -0.0018213304 -0.0035385687 -0.0044944473 0.0035269072
0.0009928767 0.0016333772 -0.0030652557 -0.0003214279 -0.0023340415 0.004084006 0.0038760782 -0.0027812917
-0.0027461657 0.0018191012 -0.0042970157 0.0042602634 0.4674129 0.0029282973 -0.0014322851 -2.2590737e-05
-0.0038256443 0.00050537364 0.0008495276 -0.00078604865 -0.0028212236 0.000921381 -0.0014871964 0.003579692
0.0008959298 -0.0004692085 0.0025440967 0.0012523655 -0.0039804196 0.0035222822 0.0021916006 -0.0029110212
-0.0035585472 -0.0035282979 -0.7319352 -0.0028424005 0.66178536 -0.0021478578 0.0015406245 0.008722465
0.0041229106 0.00228744 -0.0034468933 -0.0015463093 0.0033023045 -0.0023941968 0.0036514113 0.0018862628
-0.0001194409 0.00017361772 0.508717 0.00091729994 -0.39032224 0.0017701007 -0.0016126264 -0.0023154179
0.0006624283 0.00066522975 -0.00038912985 0.0010635601 0.004239784 8.849334e-05 0.0011167498 -0.0005774782
-0.0009124847 0.0039238944 -0.000833896 -0.002181855 0.0015469538 -0.00059035886

bias f4 [5]
00000000: 6307 9ebf b5fd 0fbd 26a3 c2be 5e5a 483f
00000010: 67d7 76be
-1.2346004 -0.035154063 -0.38015097 0.7826289 -0.24105607

weight f4 [18, 5]
00000000: 936c 62bb 08bb 1a3b ac97 58ba 2d31 c5be
00000010: f320 fcba b00c 283b e03c 7c3b 14da 00bb
00000020: 3736 503b 7d95 7c3b 4bb4 b0bf 73bf 8bbb
00000030: e443 80bd ef82 aa3e 6af6 133f a19c 8a3b
00000040: f1d7 98ba c918 7b3b 548f 14ba 2daf c83a
00000050: 2033 f53f 9305 51bb 3302 a3bf 7a9e 41b9
00000060: 22cc 88be 16e6 393f 5f41 a03b a9a3 293a
00000070: 55f5 b03e 66ad cdbf 83d4 863b a425 0cbb
00000080: 8b17 213a 3890 0bbf 396e 75bb afb4 33bf
00000090: 0c7e 14bb 2222 0fbb 4eec c03b 55ff 143b
000000a0: da4e 70bb aa1d 90ba 5c4a 4aba 0028 3cbe
000000b0: 46b0 89b9 1809 f33f b47d f03f ec06 2dba
000000c0: fd22 343b 2e91 36bb 0aca 97bf 8cf8 e3bf
000000d0: c54c c73f 60de ab3b 184e 5d3a 15eb be3f
000000e0: eafe 0cbb e827 b0bf e421 70bb 460e e0be
000000f0: 2ba0 eb3f d879 6d3f 1665 a5bf aada a63b
00000100: 9a61 3abc 23f1 5bba b672 caba 3934 393b
00000110: 4cd1 c1be 13e3 4dbb 159d 4c3b 3f7f b738
00000120: bae0 5bbb c3c2 9c3a d4d9 4d3e 2314 4c3b
00000130: 0865 4e3a 5a41 903b 1fcf a4ba 7953 483e
00000140: 7ac2 a23a 58d1 e03a 51eb 993b 3a03 d0bd
00000150: 67b3 a3bf 6c16 7b3f a074 a73f b34d f43f
00000160: fca9 b1ba f8c1 013b
-0.0034549579 0.0023610014 -0.0008262347 -0.3851408 -0.0019235894 0.0025642328 0.0038488433 -0.0019661235
0.0031770596 0.003854125 -1.3805021 -0.004264766 -0.06262949 0.3330302 0.57797873 0.0042300974
-0.0011661035 0.0038314334 -0.00056671095 0.0015310996 1.9156227 -0.0031894192 -1.2735046 -0.00018464951
-0.2671824 0.7261671 0.0048906053 0.00064712256 0.34562173 -1.6068542 0.004114689 -0.002138474
0.0006145171 -0.54516935 -0.003744973 -0.70197576 -0.0022658138 -0.0021840413 0.0058875447 0.0022735198
-0.0036668093 -0.0010995169 -0.0007716769 -0.18374634 -0.0002626201 1.898715 1.8788362 -0.0006600458
0.0027486675 -0.002785753 -1.1858532 -1.7810225 1.5570303 0.005245015 0.0008442118 1.4915491
-0.0021514245 -1.3762178 -0.0036641294 -0.4376089 1.8408254 0.92764044 -1.2921474 0.0050919848
-0.011375809 -0.0008390119 -0.0015445563 0.0028259887 -0.37854993 -0.0031415864 0.0031221558 8.7498214e-05
-0.0033550696 0.0011959899 0.20102626 0.0031139932 0.0007873331 0.0044023218 -0.0012573934 0.19563092
0.0012417578 0.0017152233 0.0046972414 -0.101568654 -1.2789124 0.9808109 1.3082466 1.9086212
-0.0013554688 0.0019799452

bias f4 [18]
00000000: 1a8f 56bf 0258 90bf 0aa0 1c3b cf45 13bf
00000010: d9e8 1a39 8840 ed3f a100 41bf a7f0 27be
00000020: 5e77 8ebf 27e2 d83e 2e7d bc3f 3f38 813f
00000030: d033 1d3e 7a05 79bf a144 7dbf 07a9 18bf
00000040: 98a2 65bb 2a63 1e40
-0.83812106 -1.1276858 0.0023899102 -0.57528394 0.00014773327 1.8535318 -0.75391585 -0.16400395
-1.1130178 0.4236004 1.4725702 1.009529 0.15351796 -0.9727398 -0.98932844 -0.59632915
-0.003503954 2.4748025
