iterative_k_clustering_AML/training_on_clusterings/K_2/cluster_2/training_results/cluster_1_model.pt (torch, 3919 bytes, 4 tensors)

weight f4 [5, 42]
-0.0005746608 0.7223802 0.004121333 -0.004072233 -0.003843108 0.00060307945 0.0036477197 -0.000126197
-0.0022235978 -0.0030550652 -0.00306519 0.00071011524 1.217879 -0.0020373582 -0.002614971 -0.002577524
0.0052057174 -0.0031720418 0.0054352367 0.0040773703 0.0040143034 0.00063233956 -1.5196147 -0.0040936763
0.0063066944 -0.002081098 0.0018919891 0.002250236 -0.000982881 0.0037246803 -0.000991476 -0.0032595703
0.0025673483 0.0008702402 -0.00073361146 -0.0037579248 -0.0008594667 -0.0038755843 -0.0041441573 -0.0035255263
0.0038474211 -0.0037920484 -0.004282515 -0.002854598 0.0032704333 -0.0018707803 -0.0022367118 -0.0018325343
-0.0021841438 0.0014024592 0.00070300396 -0.0017467058 -0.0028572374 -0.0006240819 0.0029139465 0.0030372883
9.738973e-05 0.0003504278 -0.002634229 -0.00010673468 0.0018235237 0.002892527 -0.0011123104 -0.00012539023
-0.2441389 0.0030342462 0.001916415 -0.0033159254 0.0029589836 -0.000169376 -0.0017996142 0.0012390364
-0.003989955 -0.0022335772 0.0034950087 -0.0008284604 0.0010127802 0.0019080017 0.0020944579 0.0012352997
-0.00068130094 0.0013854457 0.00077046204 -0.00021141516 0.00097070384 -0.0008648899 0.003163289 0.0010793293
-0.0036191118 0.00077490637 -0.0013743456 0.0015162675 0.0020368837 -0.0018621262 -0.0014708325 0.002860478
0.49927554 -0.0033250044 0.00047695104 0.00038523402 0.0016393063 0.0037325749 -0.0027712218 -0.0033840367
-0.0019723566 0.0028295906 0.0010958883 0.0024883302 -0.002258373 -0.00064715627 0.0039101294 0.0013769523
-0.0012323717 0.0022841329 0.00080365926 0.003948716 0.0025022263 -0.0007773836 0.0044143903 0.0036070878
-0.0042744735 -0.00434068 0.0006375139 -0.0038248906 -0.001690329 -0.0044341544 -0.0007962336 -0.0041403654
0.0020360746 0.0038941503 0.0021651743 -0.002645683 0.0039515872 0.0005592177 -0.0023042138 -0.0035278976
0.0021700107 0.0002700272 -0.0021312516 0.0014836092 -0.0017781939 -0.00056862587 0.0046790186 -0.0039530364
3.228292e-05 -0.0037601297 -0.0015849542 0.003915046 0.002591079 0.0006963976 0.6189432 0.0042311857
-0.00058771175 -0.0041436157 0.0005913203 -0.001698734 -0.0036449442 -0.0037318477 0.00069106865 -0.000988153
0.00027861938 -0.0007815783 0.0031772638 0.0029247655 -0.00090920675 -0.0040597743 -0.00058452535 0.0013235128
0.0029968983 -0.0023696385 -0.43938205 -0.00046358144 0.0005833303 -0.0026670776 -0.001229712 -0.0013056138
0.0006411896 0.0025026784 0.0035579882 -0.0019912224 -0.002772177 -0.00331663 0.0038317821 0.000525302
-0.0034117545 -0.0014775622 0.002739669 -0.0020940474 0.0007826558 0.0015165106 -0.00103933 -0.0036388356
0.0011980252 -0.0016470057 0.0023043354 -0.00320344 0.0040059513 -0.0014018433 -0.0020279188 -0.0009915133
-0.0013733068 0.00028355492 -0.0003771044 0.0041799336 0.00011489055 -0.0033849282 0.0021086494 0.004043714
-0.003992559 0.0038801893
00000000: d5a4 16ba e9ed 383f 3f0c 873b 5e70 85bb
00000010: a7dc 7bbb fa17 1e3a 950e 6f3b c053 04b9
00000020: c8b9 11bb 7d37 48bb 5be1 48bb 0727 3a3a
00000030: 76e3 9b3f 3385 05bb ef5f 2bbb adeb 28bb
00000040: b994 aa3b 08e2 4fbb 121a b23b 769b 853b
00000050: 6b8a 833b 97c3 253a bc82 c2bf 3f24 86bb
00000060: 63a8 ce3b 0863 08bb 9ffc f73a b278 133b
00000070: 04d4 80ba c419 743b 6af4 81ba 849e 55bb
00000080: f540 283b d520 643a d54f 40ba 8447 76bb
00000090: d54d 61ba 84fd 7dbb b6cb 87bb 840c 67bb
000000a0: 0425 7c3b 0484 78bb 5754 8cbb 3514 3bbb
000000b0: c454 563b f834 f5ba cc95 12bb a631 f0ba
000000c0: da23 0fbb b9d2 b73a cc49 383a b9f1 e4ba
000000d0: 7d40 3bbb 6d99 23ba e9f7 3e3b 3e0d 473b
000000e0: b73d cc38 a0b9 b739 07a3 2cbb bfd6 dfb8
000000f0: 4d03 ef3a 8d90 3d3b f2ca 91ba 2f7b 03b9
00000100: 8cff 79be 34da 463b 3830 fb3a ff4f 59bb
00000110: 82eb 413b 869a 31b9 08e1 ebba 2a67 a23a
00000120: 2bbe 82bb 3561 12bb 840c 653b 092d 59ba
00000130: 44bf 843a ea15 fa3a 2c43 093b c8e9 a13a
00000140: 5599 32ba d897 b53a d5f8 493a 53af 5db9
00000150: d576 7e3a c7b9 62ba 2f4f 4f3b 4878 8d3a
00000160: 9f2e 6dbb 1623 4b3a 6323 b4ba 7fbd c63a
00000170: 3d7d 053b 9612 f4ba f3c8 c0ba db76 3b3b
00000180: 0ba1 ff3e 51e8 59bb 490f fa39 3cf9 c939
00000190: fedd d63a 379e 743b 639d 35bb b7c6 5dbb
000001a0: a742 01bb a770 393b e9a3 8f3a 4113 233b
000001b0: 3601 14bb eca5 29ba 8b20 803b da7a b43a
000001c0: 8887 a1ba 64b1 153b a9ac 523a 3b64 813b
000001d0: 64fc 233b 55c9 4bba 97a6 903b e464 6c3b
000001e0: e210 8cbb 433c 8ebb d51e 273a 04ab 7abb
000001f0: 088e ddba 624c 91bb 55ba 50ba e7ab 87bb
00000200: aa6f 053b 0035 7f3b 99e5 0d3b 3263 2dbb
00000210: 517c 813b 7798 123a 4b02 17bb 4d34 67bb
00000220: bd36 0e3b 7092 8d39 78ac 0bbb aa75 c23a
00000230: 4912 e9ba d60f 15ba 7452 993b 7988 81bb
00000240: 8567 0738 826c 76bb 3dbe cfba c949 803b
00000250: 18cf 293b 748e 363a 1073 1e3f c2a5 8a3b
00000260: ab10 1aba 2bc7 87bb d502 1b3a 0ea8 deba
00000270: 04e0 6ebb 0492 74bb d528 353a ea84 81ba
00000280: a913 9239 d5e2 4cba a439 503b 6cad 3f3b
00000290: d557 6eba db07 85bb d53a 19ba b879 ad3a
000002a0: 9c67 443b f04b 1bbb aff6 e0be d90c f3b9
000002b0: a2ea 183a 23ca 2ebb 4a2e a1ba 2121 abba
000002c0: 8115 283a fa03 243b 232d 693b 2b7f 02bb
000002d0: 6aad 35bb d15b 59bb a31e 7b3b 6cb4 093a
000002e0: be97 5fbb c3aa c1ba 058c 333b 493c 09bb
000002f0: 242b 4d3a a7c5 c63a 213a 88ba 8879 6ebb
00000300: 0e07 9d3a 57e0 d7ba 5504 173b cef0 51bb
00000310: 5b44 833b 0ebe b7ba d5e6 04bb aaf5 81ba
00000320: 8800 b4ba 19aa 9439 19b6 c5b9 d3f7 883b
00000330: 65f1 f038 acd5 5dbb 4431 0a3b 2281 843b
00000340: 03d4 82bb c64a 7e3b

bias f4 [5]
-1.9884129 -1.3834126 0.9901913 -0.389166 -0.57991236
00000000: 5084 febf aa13 b1bf 2d7d 7d3f c440 c7be
00000010: 2375 14bf

weight f4 [22, 5]
0.42187908 0.0023476954 -0.16201356 -0.0035265395 0.19617096 -0.0030985367 0.11544926 0.0002241926
-0.0018380099 0.0028889412 0.0019574566 -0.56917787 -0.003469581 -0.4131471 0.0007566505 0.58322287
0.58721656 -0.0010223822 0.00034686 -0.0014498584 -0.002125806 0.00087254087 -0.004451534 -2.7634753e-05
-0.002615718 -0.54724175 -0.0043464275 0.0034227322 0.003103067 -0.6846523 0.003055284 0.87087065
-0.00014741266 0.0037788546 0.0029419481 0.0029532902 0.30110133 0.0008258309 0.0029333583 -0.0006375124
-0.0011777594 -0.0003959578 0.0050755013 -0.0016622572 -7.108329e-05 0.73771083 0.0011296663 -0.35646188
-0.0013790006 0.0033827452 -0.00048460363 0.0015573842 -0.7390397 -0.00018564268 -0.0006200421 0.00035875454
0.0025181065 0.0003143353 -0.2035356 0.00029870417 -0.002346628 -0.93347657 0.00594794 0.00031235558
0.0015755688 0.0022120278 -0.13926843 0.211887 0.0009007107 -0.25783157 -0.00029390055 -0.00277206
0.70498043 0.2160398 -0.002147295 0.0014928164 0.0044929683 -0.12229827 0.27398238 0.00025450642
0.17474726 0.003898096 -0.0005455321 -0.0021889624 -0.0023780977 0.00062351814 -0.0015932069 -0.75269824
0.0017463164 0.0016485493 3.5723402e-05 0.0008699423 0.0027156062 -0.0014478125 0.0045125177 0.002327616
0.30659655 -0.0013897612 0.003316496 -0.0033993325 0.004629246 -0.0022276447 -0.0007162201 -0.0032402081
0.0029548667 -0.005768482 -0.3695196 0.20678873 0.0021405702 -0.004955423
00000000: 8900 d83e cbdb 193b e2e6 25be 841d 67bb
00000010: 0ae1 483e d210 4bbb a970 ec3d 3e15 6b39
00000020: 61e9 f0ba 6454 3d3b ac48 003b a4b5 11bf
00000030: e961 63bb 0488 d3be f559 463a 184e 153f
00000040: d353 163f 7401 86ba c3da b539 2d09 beba
00000050: 1b51 0bbb 3abb 643a 2cde 91bb 2ed1 e7b7
00000060: 776c 2bbb 0918 0cbf 7a6c 8ebb eb4f 603b
00000070: d35c 4b3b 6045 2fbf 293b 483b 61f1 5e3f
00000080: c992 1ab9 a9a6 773b b3cd 403b fd8b 413b
00000090: f429 9a3e 937c 583a 963d 403b bc1e 27ba
000000a0: 0c5f 9aba 8e98 cfb9 6450 a63b 19e0 d9ba
000000b0: 8d12 95b8 9eda 3c3f 5011 943a 2c82 b6be
000000c0: 95bf b4ba 0cb1 5d3b 6612 feb9 2421 cc3a
000000d0: b531 3dbf 14a9 42b9 528a 22ba 3817 bc39
000000e0: d106 253b 5fcd a439 a36b 50be 659b 9c39
000000f0: e3c9 19bb 52f8 6ebf f0e6 c23b a8c3 a339
00000100: 5183 ce3a abf7 103b 629c 0ebe e8f8 583e
00000110: ac1d 6c3a 8002 84be aa16 9ab9 73ab 35bb
00000120: 9979 343f 8a39 5d3e a2b9 0cbb 9baa c33a
00000130: c039 933b 8477 fabd 6b47 8c3e 466f 8539
00000140: f2f0 323e 3377 7f3b 0a02 0fba b274 0fbb
00000150: dcd9 1bbb 9873 233a 27d3 d0ba d5b0 40bf
00000160: a8e4 e43a 2314 d83a b6d5 1538 d70c 643a
00000170: 50f8 313b 87c4 bdba bedd 933b eb8a 183b
00000180: 39fa 9c3e a628 b6ba 9259 593b 56c7 5ebb
00000190: eeb0 973b adfd 11bb b8c0 3bba ac59 54bb
000001a0: 70a6 413b 8905 bdbb ac31 bdbe 6dc0 533e
000001b0: cf48 0c3b 1a61 a2bb

bias f4 [22]
-1.0182058 -0.19933362 0.00045410707 0.0015785906 0.8504206 0.0049094106 -0.0030139354 -0.0022637374
0.00870337 0.0018836063 9.278835e-07 0.35483906 0.007237809 1.1564887 0.005171454 0.00032610737
-0.364164 -0.0038659298 0.20289358 -0.0033564682 -0.14548773 0.006397915
00000000: 9154 82bf 1d1e 4cbe 3815 ee39 b6e8 ce3a
00000010: 2ab5 593f 1fdf a03b 7285 45bb 365b 14bb
00000020: 9498 0e3c 57e3 f63a ab13 7935 77ad b53e
00000030: 242b ed3b d207 943f 4d75 a93b 64f9 aa39
00000040: b473 babe 8a5b 7dbb 56c3 4f3e 31f8 5bbb
00000050: bcfa 14be 9aa5 d13b
