iterative_k_clustering_AML/training_on_clusterings_second_algorithm/K_4/cluster_3/training_results/cluster_2_model.pt (torch, 3855 bytes, 4 tensors)

weight f4 [5, 40]
000000 19 b0 f6 b9 c7 97 17 3f dc b7 fe 3f 1e cf 22 3b
       -0.0004705198 0.5921597 1.989986 0.002484269
000010 a5 d8 9c bf b4 56 27 3b c4 b6 71 3b d5 65 35 ba
       -1.2253615 0.0025533857 0.0036882618 -0.0006919776
000020 02 23 8c 3f a5 a7 38 ba 1b 45 f4 bd 19 fe 38 3f
       1.0948184 -0.0007044024 -0.11927243 0.7226272
000030 10 57 e1 bf ea 8c b8 3a 7f eb 02 bb 50 01 ca b9
       -1.7604694 0.0014080082 -0.0019976792 -0.0003852942
000040 1e 66 37 3a 99 99 fa ba 40 12 14 3f 84 bd 03 3f
       0.00069961126 -0.0019119262 0.5784035 0.5146105
000050 eb 66 8a bf c8 33 82 bf 7c 17 2f 3f b3 bd 0b ba
       -1.0812658 -1.0172052 0.6839521 -0.00053306966
000060 96 47 f1 37 d5 9b 28 ba d5 f4 54 3a d5 d7 09 bb
       2.8762774e-05 -0.0006431912 0.0008123641 -0.0021033187
000070 04 0a 75 bb 6a 74 9f ba d5 5e 1c 3a 0c 87 11 bb
       -0.0037390003 -0.0012165431 0.0005965059 -0.0022205738
000080 53 26 3d 39 08 59 e2 3a 0d 26 0c 3a 57 8c 90 3b
       0.00018038721 0.0017268965 0.0005346246 0.004411261
000090 87 83 3a 3b d5 45 68 ba aa b1 e6 ba f7 9b 8f 3b
       0.0028459744 -0.00088605034 -0.0017600555 0.004382606
0000a0 55 09 52 ba a0 20 78 3b 0f 0d f0 3e b9 a5 77 ba
       -0.0008012255 0.0037861243 0.46884963 -0.0009446997
0000b0 16 75 3d ba 25 47 98 ba d5 e2 22 3a d5 70 62 ba
       -0.0007227225 -0.0011617882 0.000621361 -0.0008638029
0000c0 73 96 33 3a fa 59 71 3b 9f 46 93 ba a8 54 02 3b
       0.0006850727 0.0036827312 -0.0011236257 0.0019886885
0000d0 62 67 23 3a 84 d2 7c bb 65 e9 f2 b8 7c 9b 83 bb
       0.0006233362 -0.0038577626 -0.00011582932 -0.004016338
0000e0 66 b0 7c 39 32 2d fb 38 f5 2f 6e 39 37 07 be 3a
       0.00024098306 0.00011977031 0.00022715314 0.0014498
0000f0 f7 d1 a8 bb a5 8b b4 ba 37 38 bc 3a 03 f0 2f 3f
       -0.005151983 -0.0013774527 0.0014360015 0.68725604
000100 49 37 91 39 c2 9c 80 3b 19 40 86 b9 d5 fc 2f 3a
       0.00027697746 0.003924937 -0.00025606228 0.0006713395
000110 f5 16 1c 3b 04 fc 6a bb 72 e8 82 3b 0e cd 9e ba
       0.0023817394 -0.003585578 0.003994995 -0.0012115554
000120 24 28 60 3b a9 3f f2 b9 d5 32 3b 3a 02 d1 83 bb
       0.0034203613 -0.00046205267 0.00071410584 -0.0040227184
000130 d5 4a 76 3a 75 ef 57 3b 0d f6 00 ba 65 c9 bb 38
       0.0009395306 0.0032949124 -0.0004919477 8.9543675e-05
000140 29 b6 63 ba bd 6b 7f bb 54 50 39 b9 11 cc 3a ba
       -0.0008686507 -0.003897413 -0.000176729 -0.0007125745
000150 3d cb 27 3b a2 56 62 b9 db 44 86 3b c4 7c 6b 3b
       0.0025603317 -0.00021585313 0.0040975637 0.003593252
000160 95 be 6d 3b fa f7 0b 3b 9d d5 86 3b fb d6 87 bb
       0.0036276926 0.0021357522 0.00411482 -0.0041455007
000170 b4 af f0 ba d8 09 e2 3a 5c 04 bb ba e5 27 74 bb
       -0.001836291 0.0017245365 -0.0014268267 -0.0037255224
000180 70 0a 76 bb af bb d6 3a 87 e4 5f 3b a1 62 2c bb
       -0.0037542842 0.0016382838 0.0034163313 -0.0026303905
000190 73 a2 6b bb db 44 55 bb 16 d8 73 b8 92 31 58 ba
       -0.0035954982 -0.0032542262 -5.813696e-05 -0.00082471326
0001a0 d5 0e 1c ba d8 74 d0 ba 1c 72 1d bb 64 1e 4b 3b
       -0.0005953138 -0.0015903963 -0.0024024313 0.0030993456
0001b0 a7 57 90 bb 04 11 6b bb e2 21 81 3b 04 d7 6f bb
       -0.00440498 -0.0035868296 0.0039408067 -0.0036596665
0001c0 ea 76 ff 3a 95 25 21 bb 04 86 66 bb d5 40 7a 3a
       0.0019490395 -0.002458905 -0.0035175094 0.0009546404
0001d0 c8 5e 9f 3a 87 94 5f 3b 2a 40 86 ba c4 3d 7d 3b
       0.0012158984 0.0034115629 -0.0010242511 0.0038641552
0001e0 d5 06 2b 3a 88 f4 a3 3b cf 52 d6 bb 66 71 2a bb
       0.00065241504 0.0050035156 -0.0065406333 -0.0026007532
0001f0 43 a9 80 3a d8 5e 51 3a d5 2b 62 ba 84 55 77 bb
       0.0009816069 0.000798685 -0.00086277473 -0.003774018
000200 f4 70 8f bb fa d2 e3 3a 42 1d 1c 3a 54 99 b5 3f
       -0.0043774787 0.0017381602 0.00059552875 1.4187417
000210 bf 3d b5 ba 4a 87 eb 3a fd a3 8f 3b f1 a8 6d 3a
       -0.0013827606 0.0017969396 0.0043835626 0.0009066007
000220 2c be e9 39 18 86 02 bb 90 5c 2b 3f cc b4 35 bf
       0.00044582912 -0.0019916352 0.66938114 -0.70979
000230 2d 88 9e 3f 2c c6 ea be bd 59 be b9 d9 d0 27 bb
       1.2385308 -0.45854318 -0.00036306484 -0.002560666
000240 75 ec 0a ba 84 4d 73 bb c4 3c 4d bb b7 5f 7c 3b
       -0.0005299517 -0.003712506 -0.0031316737 0.00385092
000250 04 0c 6d 3b ea 1f 91 3a b5 24 36 bb 88 b2 a7 3a
       0.0036170492 0.0011072133 -0.0027792875 0.0012794295
000260 84 91 76 bb 95 66 3c bb c4 e1 67 3b 0e b0 d4 ba
       -0.0037623355 -0.0028747667 0.003538237 -0.0016226785
000270 04 94 67 3b d5 f8 60 3a 38 f2 fe ba c4 13 76 3b
       0.0035336027 0.0008582001 -0.0019450849 0.0037548402
000280 29 99 b3 b9 34 a1 95 3b f1 e6 bf bf df ad 81 bb
       -0.00034255654 0.004566336 -1.4992353 -0.0039574946
000290 fc 0f 6f b8 ca 87 a5 ba 0c 6e 11 bb d5 02 39 3a
       -5.6996927e-05 -0.0012628969 -0.0022190837 0.0007057612
0002a0 40 40 9a 3e b0 51 8d 3b bd 0e c0 b9 01 50 03 39
       0.30127144 0.0043127164 -0.00036632075 0.00012522937
0002b0 b2 4e 9e 38 42 77 80 bb 2e 4c d8 3e 6b db 9b ba
       7.548685e-05 -0.0039204666 0.4224562 -0.0011890953
0002c0 6b 72 0b 3e f8 46 d5 ba f4 33 08 39 33 bf 13 bb
       0.13617866 -0.0016271761 0.00012989325 -0.0022544384
0002d0 6f 6c 55 bb f3 03 46 3a 9e 1a fc b8 62 04 cb ba
       -0.0032565852 0.0007553689 -0.00012021254 -0.0015488977
0002e0 b3 91 3c bb 04 58 6a bb 2b 1c 88 bb cc 99 0d 3b
       -0.0028773367 -0.0035758028 -0.0041537485 0.0021606563
0002f0 ee 9c 8b 3b a9 39 cb b9 84 fc 7f bb 64 86 4d 3b
       0.004260651 -0.00038762137 -0.0039060423 0.003136062
000300 4f 35 90 3b 34 32 44 3b 8c e3 b5 3a e8 e1 e7 ba
       0.004400886 0.002993715 0.0013877018 -0.0017691227
000310 b0 de 62 3a 06 fd 0c 3b c8 a1 ad ba 20 b4 e5 b9
       0.0008654399 0.0021513118 -0.0013247067 -0.00043812487

bias f4 [5]
000000 0b 50 86 bf de bf 06 3f dc d6 9d bf d6 41 62 be
       -1.0493177 0.52636516 -1.2331195 -0.22095427
000010 4c ae 3b 3f
       0.7331283

weight f4 [20, 5]
000000 53 f7 03 bb 1c f9 d1 be a3 15 40 3b df f4 8d bb
       -0.002013643 -0.41010368 0.0029309771 -0.0043321694
000010 b6 1f 3e be f5 77 a0 3e 2c 33 9b ba 79 09 36 bb
       -0.18566784 0.3134152 -0.0011840812 -0.0027776642
000020 91 86 90 ba 88 50 4b 3f 4b 12 5c bc 0a 69 ed b9
       -0.0011026432 0.79419756 -0.013432096 -0.00045282423
000030 be cc bc b9 7d 52 b1 3f 51 11 84 3b 1a 00 46 b9
       -0.000360107 1.3853298 0.0040303846 -0.0001888279
000040 17 0a 9c be ee 15 bb 3a 6c b0 2d bb 0c 01 6c 3b
       -0.30476448 0.0014273503 -0.002650286 0.0036011366
000050 79 27 a4 3f 50 71 66 3e ef 3b c2 3a be 65 74 3f
       1.2824546 0.22504163 0.0014818887 0.95467746
000060 f7 63 b9 bf 92 1a 9d 3f 20 de da b9 a0 da f3 ba
       -1.4483632 1.2273734 -0.00041745696 -0.0018604584
000070 75 2e 8b ba d1 f5 c4 3a cd a7 02 bb 04 f6 5b bf
       -0.0010618704 0.0015026872 -0.0019936443 -0.85922265
000080 58 8f 0e 3f ff 19 42 3b e0 6e fe bd 07 0d ff ba
       0.55687475 0.0029617546 -0.124234915 -0.0019458839
000090 78 60 52 3b 75 7f 75 bb 0c 3a 20 be 32 c9 53 3a
       0.0032100957 -0.0037460004 -0.15647143 0.00080789917
0000a0 ea 4a 0d bf 45 32 cf 3e bb 98 36 bb 7c d8 42 3b
       -0.55192435 0.4046804 -0.002786203 0.0029731086
0000b0 d4 6f 74 3f 39 99 7f 3f 03 ec d5 be 3f 0a a2 3b
       0.95483136 0.99843174 -0.41781625 0.004945069
0000c0 21 73 9d ba e3 97 77 bb 16 bc 5f 3a f0 b8 8a ba
       -0.001201246 -0.003777974 0.0008534802 -0.001058368
0000d0 5e 94 10 3b d8 da 28 3f 99 57 d5 be 34 db 06 3c
       0.002206109 0.6595893 -0.41668394 0.008230973
0000e0 65 d4 b1 3a 30 58 86 bb 01 59 df bf e8 ae a5 bb
       0.0013567327 -0.0040998682 -1.7449037 -0.005056251
0000f0 99 dd d4 3b ce c7 29 3f fc 94 8b b9 6d 03 96 3f
       0.006496143 0.663205 -0.00026623148 1.1719795
000100 98 b7 ca bb e8 3f 8d 3b f3 c1 50 3a 08 d4 43 3f
       -0.006186437 0.0043105967 0.0007963471 0.7649541
000110 97 42 b8 be 64 bb a6 be 8a 1b db b9 46 04 4b 3b
       -0.35988304 -0.32564843 -0.00041791453 0.003097789
000120 12 ec e1 3d fe 12 3f bf 88 1b 4a 3b 83 d3 c2 be
       0.11031355 -0.74638355 0.0030839164 -0.38051996
000130 83 7e 23 b9 20 eb 24 3e 13 c1 39 bf 9d 78 84 bb
       -0.0001559202 0.16105318 -0.7256023 -0.0040426985
000140 5e 90 99 3b 2d e0 b1 3a a2 38 ff ba 27 3d 2e 3b
       0.0046863994 0.0013570838 -0.0019471834 0.0026586743
000150 37 f4 12 3f 74 64 6d bb c1 c9 15 3b 68 44 2a be
       0.5740389 -0.0036223205 0.002285585 -0.16627657
000160 0a 4d 06 3b 34 e3 52 3b 1b d4 99 bb f7 d0 8e 3b
       0.0020492696 0.003217888 -0.0046944744 0.0043584066
000170 43 8b 94 be d4 f3 06 be 88 37 a2 be 1f 3c e7 38
       -0.29012498 -0.1317895 -0.31682992 0.00011026137
000180 10 0b 88 3f fa 2c d6 be 10 ab e4 3a b0 18 a8 3b
       1.0628376 -0.4183119 0.0017446 0.005129896

bias f4 [20]
000000 a9 ea 6d bf 5b 7f 98 3b 4e 6f b2 3e 15 d6 b7 bb
       -0.9293619 0.004653854 0.34850544 -0.0056102374
000010 bd 3b 96 ba 39 09 9f 3f b0 aa 9a bb 69 86 90 bf
       -0.0011461895 1.242469 -0.0047200546 -1.1291019
000020 1b 9c f9 3a 98 44 94 bb 5a a4 6e 3b 94 16 bb 3f
       0.0019043715 -0.0045247786 0.003641388 1.4616265
000030 c4 5c 8f 3f 3a ed 18 bb 10 7f 45 3b f0 78 ff 3a
       1.1200185 -0.0023334757 0.003013555 0.0019490998
000040 f4 12 24 bb c4 29 76 ba 6d 66 10 3b ec 6a 08 3b
       -0.002503571 -0.0009390379 0.0022033707 0.0020815684
