iterative_k_clustering_breast_cancer/training_on_clusterings_second_algorithm/K_4/cluster_3/training_results/cluster_2_model.pt (torch, 18639 bytes, 4 tensors)

weight f4 [5, 375]
-0.0001222938 6.24447e-05 -0.0989972 3.119008e-05 0.00012599793 -0.00018434659 1.4666017e-05 0.0001382238
-0.00028253678 0.00012931229 -0.00016316531 0.009147462 -0.00012580115 0.00015366342 0.00010893599 3.0752184e-05
0.52725846 2.7688984e-05 0.00013580006 -0.00015840818 4.487179e-05 0.00015223355 -0.00013686783 0.16587935
-7.404863e-05 3.090978e-05 0.00012538623 -2.4542882e-05 -0.00014916122 4.2077823e-05 -9.361247e-08 -0.00017448376
-6.7332396e-05 -0.00018312536 -0.00016391488 -7.161788e-05 -7.5031174e-05 -7.192383e-05 -4.0661398e-05 7.495844e-05
0.3227242 0.00021075468 0.00014782665 -0.00013632014 0.00014693834 -3.427676e-05 -0.00017483813 -1.3382087e-06
0.00017132003 1.636563 0.17794307 4.4188084e-05 1.9120474e-05 0.00012708767 -0.00016188272 0.00016047365
0.00017079707 -6.4003965e-05 2.1959058e-05 1.2714503e-05 -1.8634688e-05 9.2082875e-05 -0.00033242596 -1.2514516e-05
6.114085e-05 0.00014619224 1.7403072e-06 0.00014495556 5.973164e-05 1.2137389e-05 -5.5610915e-05 2.1953223e-05
7.5029675e-05 -7.137064e-05 8.025977e-05 0.00017185112 -5.128594e-05 -7.033539e-05 -5.7849233e-05 -0.00013935479
-0.00012880491 0.00017403948 -0.00012536658 5.9853766e-05 0.40381745 0.00017269638 -0.21004266 0.00014913068
0.049914718 -3.9594088e-05 0.00015259978 -0.00014161925 6.390423e-05 9.6672666e-05 0.7980469 -0.00011364173
0.00018037742 -0.00019566402 -3.625211e-05 -8.6297376e-05 -0.00011222772 -5.294822e-05 0.00011462165 -6.310224e-05
-0.000109210974 6.381249e-05 5.7893427e-05 -9.3992e-05 -0.00016034147 -2.2218825e-05 4.9398717e-05 -0.00017836627
0.06781334 4.179745e-05 0.00011011133 -0.0001531212 0.33599275 0.00015382607 0.741775 -0.00011797728
-0.0001357645 2.5178495e-05 0.065891095 -0.00010019026 -0.0002544339 0.00018008573 0.00013186537 -0.0001515865
0.00015281748 -0.00026302435 -4.8467395e-05 -3.426746e-05 -0.00015776571 -1.6044738e-05 -2.845921e-05 0.00019491396
-6.153605e-05 4.7938374e-06 7.9985984e-05 0.000108733744 -0.00011602987 -9.576915e-05 -3.9352424e-05 2.3675006e-05
0.00021372589 -0.00013828723 6.456069e-05 0.00012238495 2.0619453e-05 -0.0001885518 -0.00010721185 -4.3320004e-05
-1.1661032e-06 -0.00016151568 0.00017745493 -9.497252e-05 0.021289397 2.863718e-05 0.000105741754 -0.00014889632
0.00019601417 0.00022184446 0.00010834112 0.00012757674 -0.0001739435 0.00011626295 -5.0858573e-05 -0.00012874357
0.00013713281 0.00010652657 7.0538517e-06 -2.9719908e-05 -0.00010218842 0.52287334 -8.230859e-05 -0.00013402241
-0.035365332 8.4233325e-05 7.581526e-05 0.000109888584 -9.7310825e-05 -0.000106030406 0.8816573 1.6106093
-0.0001729492 4.1890453e-06 0.00015040174 -0.00016919653 -2.1748274e-05 -0.0001590697 4.4539745e-05 -0.004206228
-4.911059e-05 0.7283039 0.0002763961 -0.00017865609 3.7863734e-05 -2.0802763e-05 -2.0713487e-06 -0.0001562033
-9.986617e-05 -0.00010584536 0.00012495965 -0.0002515737 0.00013607812 0.00013986378 -9.248966e-05 -0.00018448757
-0.00015315438 0.000112952606 8.39204e-05 -2.528591e-05 -8.947411e-05 0.00015902589 5.294525e-05 2.9573072e-05
-4.6575573e-05 -0.00013565474 9.892917e-05 0.00017065703 -1.314182e-05 -0.00017161675 4.206001e-05 0.00019264904
2.2672044e-05 0.00016329247 4.4148386e-05 -1.3516721e-05 4.386244e-05 0.00016535002 4.8097907e-05 -0.00013701619
0.00013315436 0.00015660068 4.0023588e-06 0.00017231134 -0.00019109935 -2.4752197e-05 1.621856e-05 -0.000156209
2.713971 0.00018691724 -3.3975433e-05 -0.000108621505 -0.0002921479 1.7608763e-05 -7.616394e-05 -0.00011183458
0.00013289912 -0.00012679379 0.00016873762 -2.8216455e-05 -0.00019879952 0.00019015417 -5.4601558e-05 -4.0915475e-05
00000000: fe3b 00b9 bef4 8238 0bbf cabd 18d2 0238
00000010: 501e 0439 294d 41b9 100e 7637 2bf0 1039
00000020: 7221 94b9 0198 0739 5b17 2bb9 3ddf 153c
00000030: 7de9 03b9 b620 2139 9074 e438 e8fb 0038
00000040: 69fa 063f a445 e837 8d65 0e39 5f1a 26b9
00000050: b834 3c38 e2a0 1f39 2e84 0fb9 47dc 293e
00000060: 8e4a 9bb8 20a5 0138 1c7a 0339 70e1 cdb7
00000070: 2968 1cb9 b87c 3038 0008 c9b3 a1f5 36b9
00000080: ce34 8db8 5705 40b9 91e0 2bb9 8e31 96b8
00000090: 0e5a 9db8 d0d5 96b8 d88b 2ab8 0233 9d38
000000a0: 1b3c a53e 07fe 5c39 ea01 1b39 29f1 0eb9
000000b0: 7613 1a39 64c4 0fb8 c154 37b9 809c b3b5
000000c0: 5fa4 3339 e57a d13f b536 363e 9856 3938
000000d0: e864 a037 d642 0539 10bf 29b9 d144 2839
000000e0: fd17 3339 de39 86b8 b834 b837 6050 5537
000000f0: b051 9cb7 9e1c c138 7549 aeb9 70f5 51b7
00000100: be38 8038 2e4b 1939 8094 e935 36ff 1739
00000110: 5c88 7a38 b0a1 4b37 c43f 69b8 3028 b837
00000120: 4059 9d38 d2ac 95b8 2351 a838 ef32 3439
00000130: dc1b 57b8 0681 93b8 24a3 72b8 c41f 12b9
00000140: ce0f 07b9 5e7e 3639 d674 03b9 7e0b 7b38
00000150: 29c1 ce3e d515 3539 6c15 57be f65f 1c39
00000160: 6073 4c3d d411 26b8 3103 2039 a17f 14b9
00000170: 5204 8638 bebc ca38 cd4c 4c3f f052 eeb8
00000180: b223 3d39 292b 4db9 680d 18b8 8dfa b4b8
00000190: cc5b ebb8 b814 5eb8 0861 f038 c255 84b8
000001a0: 3208 e5b8 12d3 8538 98d2 7238 921d c5b8
000001b0: 5621 28b9 9062 bab7 7831 4f38 d507 3bb9
000001c0: b8e1 8a3d ac4f 2f38 92eb e638 298f 20b9
000001d0: 3e07 ac3e 5f4c 2139 f7e4 3d3f 926a f7b8
000001e0: 015c 0eb9 6836 d337 e9f1 863d 3c1d d2b8
000001f0: 8a65 85b9 65d5 3c39 5745 0a39 31f3 1eb9
00000200: a13d 2039 88e6 89b9 7849 4bb8 68ba 0fb8
00000210: e96d 25b9 d097 86b7 b0bb eeb7 d161 4c39
00000220: ea0c 81b8 c0da a036 26be a738 fc07 e438
00000230: 1055 f3b8 acd7 c8b8 580e 25b8 b099 c637
00000240: 9b1b 6039 3201 11b9 c264 8738 7654 0039
00000250: f0f7 ac37 fdb5 45b9 ecd6 e0b8 80b2 35b8
00000260: 0083 9cb5 895c 29b9 3213 3a39 fc2b c7b8
00000270: 1a67 ae3c e039 f037 acc1 dd38 0d21 1cb9
00000280: 2789 4d39 eb9e 6839 3235 e338 1fc6 0539
00000290: 9a64 36b9 32d2 f338 fa50 55b8 57ff 06b9
000002a0: 4fcb 0f39 0467 df38 20b0 ec36 044f f9b7
000002b0: fe4d d6b8 07db 053f 169d acb8 5e88 0cb9
000002c0: 3ddb 10bd 6ca6 b038 02ff 9e38 fc73 e638
000002d0: 5a13 ccb8 a45c deb8 4bb4 613f 7228 ce3f
000002e0: b359 35b9 a08f 8c36 29b5 1d39 596a 31b9
000002f0: 1070 b6b7 f3cb 26b9 30d0 3a38 66d4 89bb
00000300: 18fc 4db8 2072 3a3f 42e9 9039 a155 3bb9
00000310: e0cf 1e38 9881 aeb7 8001 0bb6 81ca 23b9
00000320: 3e6f d1b8 4cf9 ddb8 9a07 0339 a7e5 83b9
00000330: 31b0 0e39 66a8 1239 02f7 c1b8 0173 41b9
00000340: 1198 20b9 f8e0 ec38 6cfe af38 141d d4b7
00000350: 0ca4 bbb8 30c0 2639 8811 5e38 b013 f837
00000360: 245a 43b8 8b3e 0eb9 3278 cf38 66f2 3239
00000370: b07b 5cb7 05f4 33b9 9869 3038 d501 4a39
00000380: d82f be37 7d39 2b39 f82b 3938 e0c5 62b7
00000390: f0f8 3738 cf61 2d39 bcbc 4938 01ac 0fb9
000003a0: 5a9f 0b39 2d35 2439 004c 8636 79ae 3439
000003b0: d761 48b9 f0a2 cfb7 180d 8837 09cc 23b9
000003c0: b3b1 2d40 37ff 4339 d880 0eb8 bacb e3b8
000003d0: 6d2b 99b9 88b6 9337 34ba 9fb8 bc88 eab8
000003e0: d65a 0b39 f3f3 04b9 29ef 3039 60b2 ecb7
000003f0: d774 50b9 1f64 4739 fa03 65b8 a89c 2bb8

bias f4 [5]
-0.14057307 0.98884916 1.0200648 -2.9358618 -0.5943759
00000000: 63f2 0fbe 3825 7d3f 7c91 823f 29e5 3bc0
00000010: 0529 18bf

weight f4 [355, 5]
0.00015725284 0.00013089817 -0.00015629474 -2.5024383e-05 -5.7648635e-05 0.21433587 0.00031514396 -0.0033251564
5.8632344e-05 -9.0286616e-05 -1.9885521 0.0003714192 0.6653131 -4.4714834e-05 0.50618726 0.02732308
-0.46748057 -0.109195605 0.00010535661 0.0069168997 0.9288451 0.03154538 -0.006416831 6.057368e-05
-0.00012016356 0.91310143 0.058691707 0.00019013014 -4.6476765e-05 0.70451623 -0.00018721336 0.00011548746
-0.00014318114 0.25050327 7.244473e-05 -1.1442578e-05 7.300172e-06 0.06402839 -0.4923333 -0.000112880196
-0.14188397 -0.00023729171 -3.3277654e-05 -0.3391321 0.44668514 0.8700346 0.00018207566 -0.2139202
-2.1814943e-05 0.10940421 -0.31207657 0.00023120582 0.0002420485 0.00012434581 0.26074842 0.19395423
0.18547633 0.17014466 -0.9696956 -0.17278828 -0.54198825 0.4307853 0.00036001788 -0.000115150484
-0.4560552 -0.5210807 0.41780072 0.00029626116 -0.01039678 -1.1571756e-05 0.16379073 -0.00030088698
-0.00016851134 -8.446872e-05 -0.64580595 0.00023551697 -0.00020666671 3.7129645e-05 -0.029550744 -0.6527007
-1.3332392 0.19001059 0.35483894 -0.003143253 0.15412287 -1.0971501 0.24108344 0.37350222
1.167602e-05 1.3364772 1.3210356 -3.6248148e-05 -9.775454e-05 -4.633717e-05 -1.350069 -0.0001663855
2.7483897e-05 -0.00012275101 0.29098123 0.00022070212 -3.2032884e-05 -9.297005e-05 -0.000116459094 0.20398358
8.414993e-05 -2.504894e-07 0.6858299 -0.00014575085 -0.18761541 -0.3843517 0.007961376 -0.64942443
-5.6252837e-05 5.1638926e-07 -0.00023088208 -0.67127734 0.00012879402 0.5259485 -0.38012737 -0.00011012482
0.06296754 -0.4263414 -0.00028170843 0.00012817138 -0.03481833 -0.35379046 -4.719112e-05 0.0002715749
-0.0001246023 -0.00012115421 6.488649e-05 0.00020695836 -9.2707545e-05 -0.00018563026 -0.00023563871 -4.243887e-05
4.11161e-05 -0.00019267476 0.00015010417 0.00013383378 -0.00022923289 0.20127672 0.15150046 -0.22249608
1.4234501 -0.00015186911 -0.00015527809 -0.00016793468 0.00011996622 5.059142e-05 -0.13461417 -2.0944994e-05
0.14079846 -0.34651864 -0.7344937 -0.00016687327 -0.00012670865 1.1573211e-05 0.049858518 0.00011474869
0.016476316 -0.38464186 -0.00013563944 6.0383725e-05 6.754536e-05 -4.146523e-05 -0.30165064 0.0002433369
-0.9314844 0.1865531 -9.569447e-05 -0.00016547382 6.2124294e-05 0.18772605 -3.259952e-05 0.20840597
0.0001582625 -0.00020282145 1.2737481e-05 0.38132674 0.0001942534 0.5473509 -0.00021476581 5.4023643e-05
-0.5561825 0.068640985 -0.58593667 -3.7901642e-05 -0.00013511341 -0.00027865794 -0.27194762 0.00010511401
0.0003484151 -0.00012198409 -0.00027911254 -0.000101186786 -5.771435e-07 -0.00010215334 0.00034177018 7.31155e-05
-0.70237124 0.21792835 1.1450021 -0.5137429 1.0097548 0.21556462 0.66469914 -9.0997884e-05
-0.00036248297 0.00024005196 0.2234698 0.00011638479 -2.8098904e-05 0.00013830344 -0.00015890371 7.8297395e-05
0.00011721744 2.0361127e-05 0.16748795 5.8785066e-05 -0.00023856485 1.7284237e-06 -0.00011934244 1.5843703e-05
-4.5928562e-05 8.470767e-05 7.8215424e-05 -4.21242e-05 0.34235153 0.00010777956 7.710283e-05 0.00010998477
-2.2978245e-05 0.230188 -0.00011240109 -0.22194847 0.00015401126 2.7260394e-06 1.6573758e-05 0.26895812
9.200812e-06 -0.00011758304 0.00011431775 0.00036477196 -0.00010095848 -0.6188299 0.5629619 0.42277446
-0.9465536 0.3863576 0.06360078 0.4795921 0.25180262 -0.48885804 0.00027177666 0.092580214
00000000: 3de4 2439 b641 0939 0de3 23b9 74eb d1b7
00000010: c0cb 71b8 dd7a 5b3e e839 a539 deea 59bb
00000020: 00ec 7538 4258 bdb8 e088 febf 0bbb c239
00000030: f651 2a3f 308c 3bb8 7d95 013f a7d4 df3c
00000040: 9d59 efbe f2a1 dfbd e6f2 dc38 29a7 e23b
00000050: cbc8 6d3f ba35 013d 4844 d2bb 7e10 7e38
00000060: 5200 fcb8 04c1 693f b766 703d ac5d 4739
00000070: 0cf0 42b8 2d5b 343f b44e 44b9 dc31 f238
00000080: e522 16b9 f741 803e 78ed 9738 80f9 3fb7
00000090: 00f4 f436 5121 833d 1c13 fcbe 18ba ecb8
000000a0: 084a 11be 82d1 78b9 9c93 0bb8 b9a2 adbe
000000b0: eab3 e43e 96ba 5e3f 90eb 3e39 e60d 5bbe
000000c0: 3cff b6b7 500f e03d 80c8 9fbe d76f 7239
000000d0: 66ce 7d39 d362 0239 d180 853e f09b 463e
000000e0: 82ed 3d3e 673a 2e3e f93d 78bf 69ef 30be
000000f0: bebf 0abf e48f dc3e c8c0 bc39 f27c f1b8
00000100: 1180 e9be 8b65 05bf fae9 d53e 8053 9b39
00000110: 4257 2abc 5024 42b7 c2b8 273e 5ec0 9db9
00000120: 6bb2 30b9 cc24 b1b8 8a53 25bf 1bf5 7639
00000130: acb4 58b9 a7bb 1b38 6714 f2bc 6517 27bf
00000140: 95a7 aabf 2392 423e 73ad b53e 09ff 4dbb
00000150: 63d2 1d3e 6a6f 8cbf 94de 763e af3b bf3e
00000160: 20e4 4337 af11 ab3f b217 a93f 2709 18b8
00000170: 9201 cdb8 285a 42b8 10cf acbf c477 2eb9
00000180: 388d e637 b9b6 00b9 7efb 943e 466c 6739
00000190: 0c5b 06b8 eaf8 c2b8 803b f4b8 12e1 503e
000001a0: a679 b038 007b 86b4 8c92 2f3f b2d4 18b9
000001b0: 411e 40be bfc9 c4be 6e70 023c ae40 26bf
000001c0: 06f1 6bb8 009e 0a35 f018 72b9 d5d8 2bbf
000001d0: e20c 0739 90a4 063f 0ea0 c2be d0f2 e6b8
000001e0: 20f5 803d 6c49 dabe 44b2 93b9 be65 0639
000001f0: aa9d 0ebd 0624 b5be 14ef 45b8 2b62 8e39
00000200: ada7 02b9 2c14 feb8 ab13 8838 f602 5939
00000210: fc6b c2b8 bea5 42b9 c915 77b9 6400 32b8
00000220: 1474 2c38 bd08 4ab9 4865 1d39 bb55 0c39
00000230: 3c5e 70b9 7c1b 4e3e f022 1b3e 03d6 63be
00000240: 9d33 b63f 0e3f 1fb9 25d2 22b9 9f17 30b9
00000250: 6096 fb38 2032 5438 4cd8 09be 08b3 afb7
00000260: 792d 103e e46a b1be c707 3cbf b4fa 2eb9
00000270: 18dd 04b9 902a 4237 7238 4c3d 3ca5 f038
00000280: 57f9 863c c7ef c4be 6f3a 0eb9 8844 7d38
00000290: 24a7 8d38 f4ea 2db8 f471 9abe 4028 7f39
000002a0: c375 6ebf c707 3f3e 94af c8b8 0a83 2db9
000002b0: ba48 8238 423b 403e 78bb 08b8 6068 553e
000002c0: 44f3 2539 78ac 54b9 10b3 5537 423d c33e
000002d0: 80b0 4b39 301f 0c3f c232 61b9 7297 6238
000002e0: fa61 0ebf a593 8c3d f2ff 15bf 94f8 1eb8
000002f0: 3bad 0db9 d618 92b9 b83c 8bbe a870 dc38
00000300: 7cab b639 b6d1 ffb8 da55 92b9 3e34 d4b8
00000310: 00ed 1ab5 283b d6b8 9e2f b339 9655 9938
00000320: 9ace 33bf 9c28 5f3e 6e8f 923f a884 03bf
00000330: a53f 813f f9bc 5c3e b929 2a3f 1ed6 beb8
00000340: a40b beb9 75b6 7b39 44d5 643e 9c13 f438
00000350: f0b5 ebb7 8c05 1139 649f 26b9 9833 a438
00000360: a2d2 f538 30cd aa37 f681 2b3e fc8f 7638
00000370: 4427 7ab9 30fc e735 7c47 fab8 18e8 8437
00000380: 6ba3 40b8 16a5 b138 9607 a438 84ae 30b8
00000390: b348 af3e b607 e238 44b2 a138 a0a7 e638
000003a0: 68c1 c0b7 67b6 6b3e e0b8 ebb8 7646 63be
000003b0: 157e 2139 00f1 3636 e007 8b37 e1b4 893e
000003c0: 305d 1a37 ea96 f6b8 e0bd ef38 dd3e bf39
000003d0: acb9 d3b8 a36b 1ebf 451e 103f e575 d83e
000003e0: 5651 72bf aad0 c53e 2041 823d 198d f53e
000003f0: 46ec 803e 9a4b fabe 3f7d 8e39 b29a bd3d

bias f4 [355]
-0.45099962 8.4764804e-05 0.631617 0.000109535686 0.00022959744 2.2895103e-05 -0.019606497 0.61368716
0.43989512 0.0001790621 -0.00017202913 1.1994199 0.00016875696 6.931943e-05 0.012444974 -1.9770167e-05
2.8516006e-05 0.00029472343 0.08135407 -7.151446e-05 -0.04971744 0.23030107 9.4107105e-05 0.84259564
1.5134734e-05 8.761097e-06 2.0140404e-05 -0.3864299 0.011562515 -0.3171878 0.12255671 -0.24480832
-0.00014987992 0.9969176 -0.16057463 -0.0001957838 -4.7132424e-05 -9.888536e-05 -5.084934e-06 -0.31770578
0.63876647 0.0002696565 8.861985e-06 -0.13667053 -7.310034e-05 -0.00036592077 -0.061376467 0.00011023364
-0.33894053 2.1037748 0.039313037 -0.000100287274 0.00014772218 -0.31108224 0.00012803327 0.02435779
-0.059641223 3.0990574e-05 0.42409298 -0.000107893575 -0.00016983226 4.5236244e-05 2.3936707e-05 0.15590413
-0.032726984 -3.9628434e-05 -5.414462e-06 -0.023543337 -9.0107394e-05 3.1038755e-05 -0.23875979 -4.308791e-06
0.0001311582 0.4156939 -8.297838e-05 7.264537e-05 0.01895783 0.00031717803 -0.34663603 0.5974384
-0.35137078 1.2968245e-05 0.070446655 1.2065778 6.8789566e-05 0.14218132 0.8342799 0.48540032
0.28448415 -8.000989e-05 -0.00019146892 -0.00018274564 -0.21089838 -0.23582727 1.9010092 0.000108741035
-3.5903882e-05 -0.35823354 -0.035362866 1.2349383 0.68483704 -0.28589362 -0.00013103955 -0.0002062787
0.26153287 -0.0001602204 0.1250421 -3.9663282e-05 0.61688316 5.4965494e-05 -0.00033245928 0.60927016
1.0453658 -2.431084e-05 -0.2804664 -0.29966837 -1.0193762e-05 -0.15177713 -0.00046253006 -5.5331126e-05
-0.15161379 0.25100353 0.00017500557 0.2556217 0.0002226895 7.5016535e-05 -0.4301862 -0.3890921
-0.4640016 0.26190084 -0.085632175 -0.33511397 9.814117e-06 -0.15733993 0.0707884 -0.00032913167
3.3493518e-05 -0.27158886 0.00018271482 -0.4161238 0.072544605 -0.046988863 0.00015736696 -0.08490743
0.00013129783 -0.00015071096 -0.00019011532 0.09817656 -0.18781273 -0.09403585 -0.1768445 -4.3261505e-05
-0.28236088 -0.1027606 0.3448093 -6.5463704e-05 0.058190964 -7.952863e-05 -0.24622099 0.00034352616
0.00026469128 0.059204623 2.1397589e-05 9.549386e-05 0.0001340023 -0.00017968527 0.00030717545 0.0001278778
2.1484957e-05 -5.0655697e-05 5.64777e-05 0.027457098 9.810357e-05 1.5051451 0.35960895 -0.34912905
0.07395428 -0.29125088 -0.046734065 -0.24204722 0.5692588 -0.0001826803 1.0559185 1.0256032
-2.9788644e-05 0.00034021027 -0.06650588 -0.00017096891 -0.25257853 0.44770283 -3.6072728e-05 0.00017039414
-8.076562e-05 0.000338719 -4.3011343e-05 -0.4324438 -0.000113420174 0.00015560638 3.192974e-05 -0.29166523
-5.031636e-05 -0.037985917 8.350746e-05 0.00011076516 -0.19350965 -0.13687745 -5.8315214e-05 -7.193706e-05
-0.41219762 1.3523622 -0.2536271 1.048655 -0.28903326 0.2587938 3.707342e-05 -0.41471276
-1.0180336e-05 0.9499329 0.50276 0.02101738 0.41379037 -0.22004312 0.00017704742 4.2825195e-05
-1.0576259e-05 8.830718e-05 -0.25457042 -0.25374043 0.00010452808 -0.37867126 1.6391859e-06 -0.2833644
-0.00017253717 0.00011390656 4.2114654e-05 3.8876402e-05 -0.31014797 -0.13121814 0.00011274485 -0.16358602
2.3973482 5.2366362e-05 -6.882125e-05 0.54879636 0.8799841 0.12301974 -4.533751e-05 -0.15056112
-0.27621207 -0.00012988533 -0.24782364 1.9700397e-05 -0.044966877 8.0363105e-05 0.00084328256 -0.34544
00000000: 6ce9 e6be c2c3 b138 a7b1 213f 86b6 e538
00000010: 18c0 7039 dc0e c037 ce9d a0bc 9a1a 1d3f
00000020: ef39 e13e 9ec2 3b39 b862 34b9 9786 993f
00000030: 5af4 3039 965f 9138 01e6 4b3c 1cd8 a5b7
00000040: a835 ef37 1c85 9a39 f69c a63d 09fa 95b8
00000050: 84a4 4bbd 0bd4 6b3e 5e5b c538 59b4 573f
00000060: 30eb 7d37 a0fc 1237 30f3 a837 24da c5be
00000070: b470 3d3c 7066 a2be 03ff fa3d 08af 7abe
00000080: 1629 1db9 fe35 7f3f ad6d 24be 504b 4db9
00000090: 0eb0 45b8 ac60 cfb8 409f aab6 55aa a2be
000000a0: 3386 233f af60 8d39 f0ad 1437 5cf3 0bbe
000000b0: 724d 99b8 0ed9 bfb9 e465 7bbd 3c2d e738
000000c0: 9d89 adbe 3fa4 0640 b506 213d 5251 d2b8
000000d0: dfe5 1a39 2c46 9fbe ab40 0639 fd89 c73c
000000e0: 5b4a 74bd e0fb 0138 b722 d93e ec44 e2b8
000000f0: 0015 32b9 0cbc 3d38 b0cb c837 55a5 1f3e
00000100: bb0c 06bd b536 26b8 e0ad b5b6 f5dd c0bc
00000110: 0af8 bcb8 9c2f 0238 727d 74be 3c94 90b6
00000120: 8387 0939 d5d5 d43e ae04 aeb8 3059 9838
00000130: 734d 9b3c ea4a a639 477a b1be b9f1 183f
00000140: dfe6 b3be 3092 5937 5646 903d 2471 9a3f
00000150: 1e43 9038 fb97 113e 5e93 553f 6486 f83e
00000160: e8a7 913e fcca a7b8 0cc5 48b9 699f 3fb9
00000170: bff5 57be b47c 71be 4554 f33f e60b e438
00000180: 8097 16b8 636a b7be a7d8 10bd 7512 9e3f
00000190: 7b51 2f3f a660 92be a967 09b9 844c 58b9
000001a0: a3e7 853e d600 28b9 090b 003e 205c 26b8
000001b0: 0eec 1d3f c08a 6638 ee4d aeb9 21f9 1b3f
000001c0: 8cce 853f 22ef cbb7 4b99 8fbe 226e 99be
000001d0: e005 2bb7 776b 1bbe bc7f f2b9 5813 68b8
000001e0: a540 1bbe 8983 803e b381 3739 d9e0 823e
000001f0: c281 6939 3252 9d38 5e41 dcbe 1437 c7be
00000200: 9e91 edbe de17 863e ec5f afbd 0f94 abbe
00000210: 50a7 2437 b81d 21be 82f9 903d 4e8f acb9
00000220: 647b 0c38 b20d 8bbe 2397 3f39 2e0e d5be
00000230: 4492 943d 6577 40bd df02 2539 f2e3 adbd
00000240: feac 0939 2a08 1eb9 b159 47b9 cb10 c93d
00000250: fb51 40be de95 c0bd b916 35be b073 35b8
00000260: 9b91 90be 2674 d2bd d88a b03e 8f49 89b8
00000270: a659 6e3d 9cc8 a6b8 5b21 7cbe 4d1b b439
00000280: 43c6 8a39 8c80 723d f97e b337 e043 c838
00000290: f882 0c39 e669 3cb9 640c a139 f016 0639
000002a0: 983a b437 2477 54b8 78e2 6c38 b5ed e03c
000002b0: f4bc cd38 98a8 c03f aa1e b83e 0bc1 b2be
000002c0: 5775 973d d61e 95be 386c 3fbd 3adb 77be
000002d0: f2ba 113f df8d 3fb9 5628 873f f746 833f
000002e0: a0e2 f9b7 405e b239 3c34 88bd 1e46 33b9
000002f0: f951 81be 4e39 e53e cc4c 17b8 d4ab 3239
00000300: b660 a9b8 1896 b139 1467 34b8 4669 ddbe
00000310: fedb edb8 452a 2339 4cec 0538 2555 95be
00000320: c80a 53b8 1f97 1bbd ba20 af38 984a e838
00000330: 6527 46be 9a29 0cbe 7c97 74b8 eadc 96b8
00000340: 910b d3be 341a ad3f 69db 81be 543a 863f
00000350: 2bfc 93be 9f80 843e 487f 1b38 3b55 d4be
00000360: 36cc 2ab7 cd2e 733f e1b4 003f a42c ac3c
00000370: 55dc d33e fc52 61be cea5 3939 349f 3338
00000380: b070 31b7 8e31 b938 0e57 82be 44ea 81be
00000390: 1636 db38 33e1 c1be 0002 dc35 2315 91be
000003a0: 18eb 34b9 1ee1 ee38 44a4 3038 380f 2338
000003b0: b7cb 9ebe 0c5e 06be 6e71 ec38 1883 27be
000003c0: 276e 1940 f4a3 5b38 2154 90b8 eb7d 0c3f
000003d0: a346 613f c6f1 fb3d c828 3eb8 b22c 1abe
000003e0: ab6b 8dbe d431 08b9 7bc5 7dbe 4842 a537
000003f0: 302f 38bd 9d88 a838 bc0f 5d3a 83dd b0be
