iterative_k_clustering_AML/training_on_clusterings_second_algorithm/K_3/cluster_3/training_results/cluster_2_model.pt (torch, 3855 bytes, 4 tensors)

weight f4 [5, 41]
0	0xba4a4855	-0.0007716467
1	0x3e894f08	0.2681811
2	0x3f8fb518	1.122714
3	0xba776e9b	-0.0009438784
4	0xbfc59065	-1.5434691
5	0xbc57084a	-0.013124535
6	0x3ae4129d	0.0017400567
7	0x3b8db963	0.0043250783
8	0x3ebf4942	0.3736058
9	0x3b6187f1	0.0034413303
10	0xbfe8509f	-1.8149604
11	0x40136128	2.302805
12	0xbfa8e7c0	-1.3195724
13	0xbc0e3e0e	-0.008681787
14	0x3fa283b9	1.2696449
15	0xbb30ed6f	-0.002699699
16	0x3ecd65ca	0.4011672
17	0x3f200c9e	0.6251925
18	0x3987bdd4	0.0002589064
19	0x3fa709d5	1.3049875
20	0x3ec33c4a	0.38131934
21	0xbf4c856b	-0.7989108
22	0xbef8a04f	-0.48559806
23	0x3b710a31	0.0036779756
24	0x3b8e39af	0.0043403725
25	0x3f5ad907	0.8548741
26	0xbf176a73	-0.59146804
27	0xba411dd5	-0.0007366811
28	0x3ab29c48	0.0013626898
29	0xbb7d1137	-0.0038614997
30	0x39be26d9	0.00036268568
31	0xbb23d755	-0.0025000174
32	0x3b8e9817	0.0043516266
33	0x3b6d4af7	0.0036208013
34	0x3b7dd584	0.0038732002
35	0x3b5b97f9	0.003350733
36	0x3ae8d1ea	0.0017762755
37	0xba81a86a	-0.000989211
38	0x3af1b308	0.0018440196
39	0xbb6e6944	-0.0036378661
40	0x3b8dce57	0.004327576
41	0xba26c1a9	-0.0006361255
42	0x3b5b2a7b	0.0033442068
43	0xbb12738a	-0.0022346699
44	0xb9cd4449	-0.00039151523
45	0x3b6957ae	0.003560524
46	0xbb206081	-0.0024471583
47	0x3a2a32a4	0.00064925314
48	0x3b6b9ff3	0.0035953491
49	0xbad5f59f	-0.0016323811
50	0x3b1735f4	0.002307293
51	0x3a9ef8bc	0.0012128572
52	0x3f4147c0	0.75500107
53	0x39501cee	0.00019847203
54	0xbb1980ed	-0.0023422793
55	0xbb5f592e	-0.0034080255
56	0x3b067744	0.0020517865
57	0xbb53a7be	-0.0032296027
58	0x3b13a320	0.002252765
59	0x3ed085a7	0.4072697
60	0x3eccbecb	0.39989313
61	0x3b74c79d	0.0037350424
62	0xbbadae98	-0.005300354
63	0xbb51c218	-0.0032006558
64	0x3b0a20e8	0.0021076743
65	0x391a3819	0.00014707482
66	0x38c4ac69	9.378122e-05
67	0xbb1457bd	-0.0022635304
68	0x3b8a2082	0.004215301
69	0xbaee0a08	-0.0018160949
70	0x3b130cf5	0.0022438143
71	0xb9f99219	-0.00047601832
72	0x3b119384	0.002221317
73	0xba2e5409	-0.00066500955
74	0x3903fc73	0.00012587178
75	0xbb6f8a27	-0.003655085
76	0x3a68abd5	0.00088757026
77	0x3b827e3b	0.003982333
78	0xbb388695	-0.002815639
79	0x3a92a1c4	0.0011187126
80	0xbb75af44	-0.00374885
81	0xba689055	-0.0008871605
82	0xba433455	-0.0007446458
83	0x3ba5b314	0.005056748
84	0xbb4210cc	-0.0029612062
85	0x3a71d819	0.00092256215
86	0x3b65b252	0.0035048914
87	0x3ea2122a	0.31654483
88	0xbbb04974	-0.00537985
89	0xbb293470	-0.0025818609
90	0xbbc42bf6	-0.005986686
91	0x3b4c1d58	0.003114542
92	0x39a21c20	0.00030920003
93	0xbf8e4400	-1.1114502
94	0xbb83a302	-0.004017235
95	0x39fc93f4	0.0004817542
96	0x3afbea36	0.001921958
97	0xbb5616b0	-0.0032667331
98	0xb96854ab	-0.00022156785
99	0xbb931dc8	-0.004489634
100	0x3b17a41f	0.0023138595
101	0xba7091e2	-0.00091770117
102	0xbaa592b1	-0.0012632218
103	0x3aa32a4a	0.0012448516
104	0xbabe34d4	-0.0014511594
105	0xbaf4b2a3	-0.001866896
106	0x3b1094d1	0.0022061358
107	0xbbb3cac9	-0.0054868204
108	0x3b186afe	0.0023257132
109	0xbb74cc44	-0.0037353197
110	0x3b6fcd84	0.0036591003
111	0x3a5ccdd5	0.00084230053
112	0xbb14e507	-0.0022719519
113	0x3b7d0a44	0.0038610855
114	0xba7f8ed5	-0.00097487617
115	0xb8d32f25	-0.000100700454
116	0x3b65a084	0.0035038302
117	0xb9f2a219	-0.0004627861
118	0xb9eb47a9	-0.00044876084
119	0xba532cd5	-0.0008055692
120	0x3b3d7884	0.0028910944
121	0x3ae512c8	0.0017476911
122	0xba8f9614	-0.0010954761
123	0xbb0dc2c4	-0.0021630982
124	0x3b8393aa	0.0040154057
125	0xbb135794	-0.002248262
126	0x3b6c4f72	0.0036058095
127	0x3b01ac5c	0.0019786572
128	0xbb534616	-0.003223782
129	0xbb944889	-0.0045252484
130	0x3aeab58b	0.0017906887
131	0xbb271121	-0.0025492387
132	0xbb11b406	-0.0022232546
133	0xba919512	-0.0011107048
134	0xbb88d38c	-0.004175609
135	0xbac16fd5	-0.001475806
136	0xbe8e36c3	-0.27776155
137	0xbb6e5032	-0.0036363718
138	0xba13edba	-0.0005643029
139	0x3aad359b	0.0013214828
140	0x3a88c2d1	0.0010434036
141	0x3adf07ee	0.0017015913
142	0x3e0ed75f	0.13949345
143	0xb9f25a61	-0.00046225174
144	0xbb7c0ea0	-0.0038460866
145	0x3b61629b	0.0034391049
146	0xbb3d09c7	-0.002884494
147	0xbe980195	-0.29688707
148	0x3b45500c	0.0030107526
149	0x3abe1f74	0.0014505223
150	0x3a3fbfd5	0.0007314657
151	0xba207b1d	-0.0006121861
152	0xbb88daab	-0.004176458
153	0xbb8e20b3	-0.004337394
154	0x397b92b3	0.00023991875
155	0xba5dd4d5	-0.00084621954
156	0x3b3b7a35	0.0028606777
157	0xba05910d	-0.00050951616
158	0x3b731de7	0.003709668
159	0xbb62c6a7	-0.003460327
160	0x3a3229d5	0.00067963946
161	0x3b7f4d04	0.0038955817
162	0x3b18e4f5	0.0023329828
163	0xbb099584	-0.002099366
164	0xbb6e20c4	-0.0036335448
165	0xbabec398	-0.0014554141
166	0xbb2a28a2	-0.002596416
167	0x3995f639	0.00028602945
168	0x39a38bca	0.00031193934
169	0x3a5a463f	0.00083265075
170	0x3f6f83a8	0.93560266
171	0x3f9efd75	1.2421099
172	0xbb8a3abe	-0.0042184284
173	0xbae8f2bc	-0.0017772536
174	0x3a2a8dee	0.00065061345
175	0xba3973fb	-0.00070744724
176	0xbbb823b8	-0.0056194924
177	0x3b792566	0.0038016676
178	0x3b5f9284	0.003411443
179	0x3b6a8117	0.003578251
180	0x3a1d2663	0.0005994795
181	0xba8ae9c4	-0.0010598232
182	0x3bacd743	0.0052746846
183	0xbc0663ae	-0.008202476
184	0x3b90cb6f	0.0044187824
185	0xbf14ce7f	-0.5812759
186	0xbb5ccd45	-0.0033691686
187	0x3a8df698	0.0010830937
188	0xbac8e81e	-0.0015327965
189	0xbb0efd4a	-0.0021818453
190	0x3b0f5fb0	0.0021877103
191	0x3a259d1d	0.0006317662
192	0xbb6eca46	-0.0036436482
193	0x3a73b390	0.0009296471
194	0x3b7a53b6	0.0038196868
195	0x3a6608d0	0.0008775117
196	0x3b853fc7	0.0040664407
197	0x3ad37bcc	0.0016134917
198	0x3b7f0ca6	0.0038917451
199	0x3af28e8c	0.0018505617
200	0x3b744806	0.0037274375
201	0x3b7afc06	0.003829719
202	0xbb527de4	-0.0032118494
203	0xba180450	-0.00057989825
204	0xbb8623fb	-0.0040936447

bias f4 [5]
0	0xbf76557c	-0.9622419
1	0x3f05fe7e	0.5234145
2	0x3ead11bc	0.33802593
3	0x3f82b7c2	1.0212328
4	0xbefe052d	-0.49613324

weight f4 [21, 5]
0	0x3b688e59	0.0035485236
1	0xbb37849c	-0.0028002625
2	0xbb907ea1	-0.0044096266
3	0xbb1f78ab	-0.0024333398
4	0x3f360f97	0.7111754
5	0x3a8b5276	0.0010629434
6	0xb8a0f5a9	-7.675152e-05
7	0xbaccc4d0	-0.001562262
8	0xba778f8f	-0.0009443694
9	0x3b413938	0.0029483568
10	0x3b33bcc4	0.0027425746
11	0xbb14d1e0	-0.0022708103
12	0xbb20f375	-0.0024559174
13	0x3ec9e37c	0.3943137
14	0x3ab1a192	0.001355218
15	0xbaecbb2a	-0.001806115
16	0x39af26fa	0.0003340764
17	0xbb85cbd0	-0.0040831342
18	0xbf4c873f	-0.7989387
19	0x3b109265	0.0022059914
20	0x3f80c229	1.0059253
21	0x3f1f49cb	0.62221974
22	0x3a1de7e0	0.0006023627
23	0x39d758a7	0.00041074047
24	0xbf450a6b	-0.7696902
25	0x3fcf8952	1.6213782
26	0xbae5d916	-0.001753601
27	0x3b01011e	0.0019684504
28	0x3e58e155	0.21179707
29	0x3b301dad	0.0026873157
30	0x3b841848	0.004031215
31	0xbf4e77aa	-0.8065134
32	0x3a2b0c3b	0.0006524955
33	0xb8200c04	-3.8158163e-05
34	0x3a4e24f5	0.00078637834
35	0x3a9e8645	0.0012094459
36	0x3a9c2aa4	0.0011914563
37	0x39e4f529	0.00043670207
38	0x3a43f552	0.0007475215
39	0xbe125a31	-0.14292218
40	0x3f059b78	0.5219035
41	0x3af87a7f	0.0018957405
42	0xbb512ff1	-0.0031919444
43	0xbad05980	-0.0015895814
44	0xbf0b6553	-0.54451483
45	0x3ea802fe	0.32814783
46	0x3a796c7e	0.0009514763
47	0xbb89a332	-0.0042003626
48	0xbb82d68b	-0.0039928607
49	0xb8efe718	-0.00011439453
50	0x3f804988	1.002244
51	0x3f01238d	0.5044487
52	0xbb25cf77	-0.002530066
53	0x3efc7985	0.49311462
54	0xbeb7bf49	-0.35888126
55	0xbb49a9b9	-0.0030771329
56	0x3b58e1ce	0.0033093574
57	0x3eca56c9	0.39519337
58	0x3e6ff602	0.23433688
59	0xbb2fb2bd	-0.0026809417
60	0x3cfabd16	0.030607741
61	0x3f964cc0	1.1742172
62	0xbf20ae4c	-0.62765956
63	0x3f01e159	0.5073448
64	0xbf32fa92	-0.6991359
65	0x3f665dfc	0.8998716
66	0x3f4aa7d2	0.79162323
67	0xbf632fe6	-0.8874496
68	0x3b40f551	0.0029443095
69	0x3f9a93cf	1.2076358
70	0x3b378c92	0.002800737
71	0xba170265	-0.00057605497
72	0x3ed47d39	0.41501787
73	0xba9f5ba8	-0.0012158053
74	0x3eb11e66	0.34593505
75	0x3b777341	0.0037757906
76	0xbabad1fc	-0.0014253254
77	0x3e23a817	0.1598209
78	0xbb056e4c	-0.0020359932
79	0x3b50353d	0.0031770014
80	0x3b5c27ab	0.003359298
81	0xbecb97cf	-0.39764258
82	0x3b1bb4b1	0.0023758824
83	0xbb41a7cb	-0.0029549475
84	0xbb738315	-0.0037156988
85	0xbb90f25f	-0.004423424
86	0x39e032ce	0.00042762462
87	0x3eace1fa	0.33766156
88	0xba4c042e	-0.0007782605
89	0xbbaa8614	-0.0052039716
90	0xbb76b525	-0.0037644592
91	0x3a8a04c6	0.0010529987
92	0xbb7a5c3a	-0.0038201944
93	0xbe8f943f	-0.2804279
94	0xbb41f862	-0.002959751
95	0xbe245300	-0.16047287
96	0xbb3d566c	-0.0028890623
97	0x3e027e4b	0.1274349
98	0x3a668f28	0.00087951357
99	0x36848400	3.9492734e-06
100	0xbb23a41a	-0.0024969638
101	0x3a3749f4	0.0006991916
102	0xba6b117c	-0.0008967144
103	0xba5eb604	-0.00084957504
104	0x3ad333aa	0.001611342

bias f4 [21]
0	0xbb037109	-0.0020056388
1	0xbb2978d1	-0.0025859366
2	0x3b732b42	0.003710464
3	0xbb18d7ff	-0.0023322103
4	0x3f0721f6	0.52786195
5	0x3eff2ffc	0.49841297
6	0xbb28af26	-0.0025739162
7	0xbb84376e	-0.004034928
8	0x3b8cf58a	0.0043017315
9	0xbf2bc7b6	-0.6710161
10	0x3e0fbd43	0.14037041
11	0x3eb9c1d9	0.36280707
12	0x3ee11eb7	0.43968746
13	0x3f610dea	0.87911856
14	0x3b8d5a36	0.0043137325
15	0xbe86563b	-0.26237664
16	0xbef1a6f9	-0.47197703
17	0xbb56f890	-0.0032801963
18	0xba5b3418	-0.00083619496
19	0xbb5cf7eb	-0.0033717107
20	0x3aa5392c	0.001260554
