iterative_k_clustering_breast_cancer/training_on_clusterings/K_4/cluster_1/training_results/cluster_0_model.pt (torch, 16719 bytes, 4 tensors)

weight f4 [5, 333]
0	0x394aa8fd	0.00019327174
1	0xbdf0e24d	-0.117619134
2	0xb92f2cd1	-0.00016705996
3	0xb82e4f58	-4.1558727e-05
4	0x394e3731	0.00019666251
5	0xb901f72e	-0.0001239448
6	0x38b2adfc	8.5201085e-05
7	0x391f92d1	0.00015218115
8	0xb92bfbb7	-0.00016401602
9	0x38f59662	0.00011710521
10	0xb928e5bb	-0.0001610731
11	0xb8f95f32	-0.00011890977
12	0x37dde4d0	2.6451802e-05
13	0xb82e87e8	-4.1611405e-05
14	0x378ad170	1.6548409e-05
15	0x38ce8c9c	9.849036e-05
16	0x3ca99d90	0.020705014
17	0xb86ae8a4	-5.600661e-05
18	0xb90173f9	-0.00012345602
19	0x38d79852	0.00010280371
20	0xb89ae502	-7.385948e-05
21	0x391a4d01	0.0001471527
22	0x388a2c5c	6.588615e-05
23	0x39124cfe	0.00013952327
24	0x390e90a1	0.00013596054
25	0xb80b9728	-3.3280958e-05
26	0x39264b31	0.00015859005
27	0xb912415e	-0.00013947996
28	0x394cfca1	0.00019549068
29	0x38916f92	6.9349204e-05
30	0xb8e26b92	-0.00010796556
31	0xb90eaace	-0.00013605805
32	0x3896d332	7.1918956e-05
33	0x3922fe36	0.00015544225
34	0x3835d4a8	4.3351814e-05
35	0xb6b69a40	-5.4419797e-06
36	0x38f85a92	0.000118424316
37	0x3e13582e	0.14389107
38	0x38a1eb32	7.720887e-05
39	0x38934312	7.021999e-05
40	0x371fdd60	9.528681e-06
41	0x38c4c792	9.383181e-05
42	0xb93c6399	-0.0001796618
43	0x37d1beb0	2.5003537e-05
44	0xbeb51ef0	-0.35375166
45	0xb8972e5c	-7.208876e-05
46	0xb9008e29	-0.0001225999
47	0xb8b76d9c	-8.746536e-05
48	0xb9284265	-0.00016046462
49	0xb8fe33cc	-0.00012121312
50	0x371e0360	9.41832e-06
51	0xb91c2489	-0.0001489093
52	0xb8bedc62	-9.1009555e-05
53	0xb91a7ca1	-0.00014733012
54	0x394fd5d7	0.0001982072
55	0xb87708a4	-5.8897436e-05
56	0x37166a10	8.965391e-06
57	0x38fdf902	0.000121103614
58	0xb8fe1ccc	-0.00012117028
59	0x38b301f2	8.5357475e-05
60	0xb92782a1	-0.00015975024
61	0x38c02abe	9.163235e-05
62	0xb89e1cae	-7.539369e-05
63	0x386240a4	5.39428e-05
64	0x38ffd19c	0.0001219839
65	0x3864bc18	5.4534612e-05
66	0x3846e284	4.7417838e-05
67	0x38c260cc	9.268671e-05
68	0x39229b01	0.00015507267
69	0x394d7589	0.00019594109
70	0x37e0ae50	2.6784051e-05
71	0xb91454fe	-0.00014146042
72	0x38c731fc	9.49837e-05
73	0xb93de4cf	-0.00018109682
74	0x38e3b202	0.0001085736
75	0xb87c7624	-6.019151e-05
76	0xb922b5f9	-0.00015517314
77	0xb90ab35e	-0.00013227525
78	0xb907a6c1	-0.00012936724
79	0x393e5889	0.00018152794
80	0x3936b991	0.00017426001
81	0x392e0931	0.00016597357
82	0xb932fcfd	-0.00017069648
83	0xb8ef2a6c	-0.0001140431
84	0xb931a7f9	-0.0001694261
85	0x3c6904fa	0.014222378
86	0xb91d9d2e	-0.00015031241
87	0x3911f2a1	0.00013918664
88	0x37fb6150	2.9966846e-05
89	0xb8b99d12	-8.850744e-05
90	0x37f91150	2.9691175e-05
91	0x374d85e0	1.2250122e-05
92	0xb93aa95d	-0.00017801435
93	0xb919a901	-0.00014654176
94	0x381184c8	3.4694356e-05
95	0x388e8c0c	6.7971734e-05
96	0xb92d4b5d	-0.0001652664
97	0x394b1d2d	0.00019370457
98	0xb801cd78	-3.0947354e-05
99	0x38d28a02	0.00010039286
100	0xb8dd5102	-0.0001055319
101	0xb8617e64	-5.376189e-05
102	0x383e05e4	4.5305016e-05
103	0xb94a1829	-0.00019273222
104	0x37789d60	1.4818594e-05
105	0x38fe5192	0.000121268575
106	0x37935990	1.7565471e-05
107	0xb8e26a6c	-0.000107963424
108	0x3c7d1c45	0.0154486345
109	0x37ef5330	2.8529757e-05
110	0xb853a95c	-5.046405e-05
111	0x390bd249	0.0001333441
112	0xb943bcd1	-0.00018666989
113	0xb7d6a690	-2.558835e-05
114	0xb7aa0b30	-2.0270789e-05
115	0x394a845d	0.0001931353
116	0x37b706b0	2.1818414e-05
117	0xb8e8b712	-0.000110967216
118	0xb8f42a62	-0.00011642721
119	0xb8d57b92	-0.00010179648
120	0xb8973bf2	-7.211407e-05
121	0x392e74d1	0.0001663745
122	0xb88479d2	-6.316941e-05
123	0x386d435c	5.6567937e-05
124	0xb917a329	-0.00014461264
125	0x39167681	0.00014349261
126	0xb7272ce0	-9.964424e-06
127	0x392111de	0.00015360813
128	0x39058029	0.00012731612
129	0xb87b5b58	-5.9928134e-05
130	0xb719f660	-9.176874e-06
131	0xb8e9b1fc	-0.00011143458
132	0x390013d6	0.0001221442
133	0x3915955f	0.00014265392
134	0xb83f1a24	-4.5562294e-05
135	0xb9065266	-0.00012809932
136	0x352a0600	6.3338666e-07
137	0xb92a55c9	-0.00016244421
138	0xb8b6dc1c	-8.719435e-05
139	0x394dfc65	0.00019644348
140	0x38ceb8ae	9.857245e-05
141	0x39210d57	0.00015359126
142	0xb935b89d	-0.00017330279
143	0x375d6820	1.319687e-05
144	0x38e070bc	0.00010702151
145	0xb8b30d12	-8.53782e-05
146	0x380fc578	3.4277764e-05
147	0xb690b340	-4.312402e-06
148	0x389a6ccc	7.363557e-05
149	0xb7530e10	-1.2579854e-05
150	0xb901575f	-0.00012334947
151	0xb86c7b38	-5.638154e-05
152	0x39271791	0.0001593514
153	0x394a3101	0.00019282477
154	0x39293bd7	0.00016139388
155	0xb94e072d	-0.00019648364
156	0xb9cb5f61	-0.0003879024
157	0xb82f7c18	-4.1838823e-05
158	0x3704f320	7.92442e-06
159	0xb9177ece	-0.0001444772
160	0x37827150	1.5549973e-05
161	0x3914b131	0.00014180389
162	0xb8ebb142	-0.0001123869
163	0xb904b2e9	-0.0001265515
164	0x37b367d0	2.1386804e-05
165	0xb9aaa050	-0.0003254437
166	0x37d30e70	2.5159883e-05
167	0x381634c8	3.5811943e-05
168	0xb838fe24	-4.4105705e-05
169	0x3914c1a1	0.00014186512
170	0x39471457	0.00018985696
171	0xb878d0d8	-5.932231e-05
172	0xb8eeb46c	-0.000113823306
173	0xb79117f0	-1.7296494e-05
174	0x3dda08d1	0.10646213
175	0x389fb202	7.614867e-05
176	0xb8917abc	-6.937e-05
177	0x394cadcf	0.00019519705
178	0xb912e489	-0.00014008781
179	0x39339129	0.00017124847
180	0x39057b31	0.00012729761
181	0x37e07af8	2.6760143e-05
182	0xb93cf0cf	-0.00018018785
183	0x391b7266	0.00014824569
184	0xb8bfc4ae	-9.144224e-05
185	0x387f5b44	6.0881735e-05
186	0xb868d3c4	-5.5510332e-05
187	0x388223f2	6.2055784e-05
188	0xb8ff6856	-0.000121787816
189	0x39407129	0.00018352702
190	0xb92661b1	-0.00015867387
191	0xb930fafd	-0.00016878168
192	0xb8b2a9a2	-8.519298e-05
193	0xb88f55ac	-6.834729e-05
194	0x385deb38	5.290957e-05
195	0x394c3b91	0.00019477146
196	0x38646b04	5.4459102e-05
197	0xb7725b20	-1.4445541e-05
198	0xb8a704cc	-7.964074e-05
199	0xb8f22bac	-0.00011547594
200	0xb664c080	-3.4086697e-06
201	0xb8c595a2	-9.421563e-05
202	0xb8c6c732	-9.478479e-05
203	0xb90df136	-0.00013536666
204	0x379b47f0	1.8510938e-05
205	0xb91cddc9	-0.00014959941
206	0x392f1529	0.00016697183
207	0x390086f9	0.00012257312
208	0x37b11690	2.111055e-05
209	0x39148057	0.0001416219
210	0x38c22dac	9.259148e-05
211	0x394336d1	0.0001861707
212	0x38c3ad42	9.3305964e-05
213	0xb7546d20	-1.2661592e-05
214	0x3ff83abb	1.9392923
215	0x3934b53d	0.00017233654
216	0x390e8957	0.00013593338
217	0x3897a902	7.231721e-05
218	0xb77eea10	-1.5194077e-05
219	0xb90ebc89	-0.0001361241
220	0xb7bb2330	-2.2308523e-05
221	0xb87ae8a4	-5.982131e-05
222	0x38566118	5.1112e-05
223	0x3901f257	0.00012392677
224	0x39359e65	0.00017320512
225	0xb86ab3f8	-5.5957556e-05
226	0x38d428cc	0.00010116547
227	0x391142fe	0.00013853234
228	0x3909f9f9	0.0001315846
229	0x37740660	1.4545018e-05
230	0x37a22ff0	1.9334228e-05
231	0xb7c37e90	-2.3304747e-05
232	0x39038989	0.0001254437
233	0x3818a3e8	3.6392274e-05
234	0xb7886eb0	-1.6264006e-05
235	0xb49cae00	-2.9183866e-07
236	0xb903875e	-0.00012543562
237	0x37dc4db8	2.6262234e-05
238	0x3c2dca9c	0.010607388
239	0x3883e3bc	6.2889856e-05
240	0xb7b91f50	-2.20683e-05
241	0x393b9499	0.00017889067
242	0x391e2dd6	0.0001508513
243	0x388ffa52	6.865397e-05
244	0x3940c101	0.00018382446
245	0xb9044d5e	-0.00012617322
246	0x3626e840	2.4871115e-06
247	0x38be75f2	9.081875e-05
248	0xb81978a8	-3.6590412e-05
249	0x37eb2990	2.8033537e-05
250	0xb885959c	-6.369801e-05
251	0x386afbf8	5.602461e-05
252	0xb8b58602	-8.6557135e-05
253	0x381c9b38	3.7337857e-05
254	0xb8f9cb32	-0.00011911093
255	0x38d499a2	0.00010137564

bias f4 [5]
0	0xbf18b8f2	-0.59657204
1	0x405beba6	3.4362578
2	0x3ff53ac4	1.9158559
3	0x3f215f86	0.6303638
4	0x4021a477	2.5256631

weight f4 [313, 5]
0	0xb9455245	-0.00018818032
1	0x37e3cb40	2.7155154e-05
2	0x3833f7d0	4.290772e-05
3	0xb930e2b4	-0.00016869121
4	0xb959aee3	-0.00020759883
5	0xc009f26f	-2.155422
6	0x3f3dc8e7	0.7413468
7	0x3f196666	0.5992187
8	0x3f9dca3c	1.2327342
9	0x3ecc4200	0.39894104
10	0xb8a4ddaa	-7.8614175e-05
11	0xb9519482	-0.00019987117
12	0x3852d2ac	5.0264105e-05
13	0x390f8a1f	0.00013688997
14	0xb5fc0f00	-1.8779829e-06
15	0xb91f3b66	-0.0001518555
16	0xb917e536	-0.0001448587
17	0xb91bb98d	-0.00014851075
18	0x39351614	0.0001726973
19	0xb8d59a0a	-0.000101853235
20	0x36e4ff60	6.824659e-06
21	0xb960f007	-0.00021451722
22	0x392e0f78	0.00016599696
23	0x3906092f	0.00012782657
24	0xb916f12f	-0.00014394963
25	0x393484db	0.0001721563
26	0xb9594859	-0.00020721684
27	0xb79036f8	-1.7191735e-05
28	0x383f7170	4.5643596e-05
29	0x391eb3f4	0.00015135092
30	0x3914fd8f	0.00014208838
31	0x390951ac	0.00013095763
32	0xb93e7791	-0.00018164354
33	0x38a46cb8	7.84038e-05
34	0xb7cc8098	-2.4378576e-05
35	0x376fab10	1.4285339e-05
36	0x38f4b448	0.00011668407
37	0x38bb8904	8.942376e-05
38	0xb8fd3ee6	-0.00012075696
39	0x392c6d8c	0.00016444008
40	0xb88ac722	-6.617444e-05
41	0x391e5ac4	0.00015101867
42	0xb6ea9500	-6.9910893e-06
43	0xb8805ace	-6.120429e-05
44	0xb94bd8d5	-0.00019440365
45	0xb87409a4	-5.8183112e-05
46	0x3925f122	0.00015825455
47	0xb91f790a	-0.00015208512
48	0xb8da8686	-0.00010420107
49	0xb93f842a	-0.00018264414
50	0xbe6cf731	-0.23141171
51	0x3fb882c2	1.4414904
52	0x3f674ad1	0.90348536
53	0xbe5de060	-0.21667624
54	0x3f41b60e	0.7566842
55	0xb80ffeb8	-3.4331082e-05
56	0xb8d8c212	-0.00010335831
57	0xb895382a	-7.115335e-05
58	0x390e1b47	0.00013552337
59	0xb934d50c	-0.00017245504
60	0xb8f03d24	-0.0001145548
61	0xb92fe609	-0.00016774995
62	0x38768d50	5.8782578e-05
63	0xb9004683	-0.00012233299
64	0xb90d0219	-0.0001344759
65	0xb8c04956	-9.168933e-05
66	0xb9293186	-0.00016135545
67	0x38af12d0	8.3481544e-05
68	0xb8d96c38	-0.00010367524
69	0x370ac380	8.270959e-06
70	0x39053a82	0.00012705664
71	0xb7b73068	-2.183784e-05
72	0xb8b59e16	-8.6601984e-05
73	0xb92290d0	-0.00015503471
74	0x3808ec40	3.264495e-05
75	0x39013b51	0.00012324496
76	0x37a3f2b0	1.9544124e-05
77	0x385a7848	5.208727e-05
78	0x3906bd58	0.00012849772
79	0x3932d48d	0.00017054584
80	0xbfd6bf13	-1.6777061
81	0x3f3e03a0	0.7422428
82	0x3ea77fb5	0.3271462
83	0x3f21b310	0.6316385
84	0x3f1e6ce9	0.61884934
85	0xb94b9a16	-0.0001941699
86	0x388909ee	6.5345186e-05
87	0xb8ba20e0	-8.8752946e-05
88	0xb8c14ecc	-9.217634e-05
89	0xb7aff0c8	-2.0973748e-05
90	0x39066ee1	0.00012820541
91	0x3867f298	5.5300625e-05
92	0xb942ab45	-0.00018565085
93	0xb7e12fb8	-2.6844311e-05
94	0x38ce6272	9.841182e-05
95	0xb87b9b98	-5.998797e-05
96	0xb93c5788	-0.00017961685
97	0xb925682d	-0.00015774435
98	0x38137ff8	3.516671e-05
99	0xb8eb030e	-0.00011206242
100	0xb9508fe4	-0.00019890029
101	0x37a15c30	1.9235624e-05
102	0x383f6c88	4.5639026e-05
103	0xb737ff90	-1.0967153e-05
104	0xb8a46cb8	-7.84038e-05
105	0x387ea040	6.0707564e-05
106	0xb90ea60e	-0.00013604035
107	0x388cc91c	6.71318e-05
108	0x38e97476	0.00011131998
109	0x38ddd08e	0.000105769475
110	0x393a80b2	0.00017786285
111	0xb95909a2	-0.00020698321
112	0xb949f478	-0.00019259925
113	0xb920eab5	-0.00015346224
114	0x389f2b38	7.589761e-05
115	0xb7bbfe30	-2.2410502e-05
116	0x392936a1	0.00016137447
117	0x37f23250	2.8872077e-05
118	0xb8b14b86	-8.454085e-05
119	0x39291378	0.00016124349
120	0x3938996e	0.00017604764
121	0x37c0f680	2.300297e-05
122	0x38e645f0	0.000109802815
123	0x3907f128	0.00012964441
124	0xb95ed2d7	-0.00021250114
125	0x38261db0	3.9605133e-05
126	0x38076e58	3.2289274e-05
127	0xb83369ac	-4.277534e-05
128	0xb935e245	-0.00017345797
129	0xb7c2ddf8	-2.3229964e-05
130	0x38833bf8	6.257737e-05
131	0xb8f8a732	-0.00011856704
132	0x38b9c2ea	8.857793e-05
133	0x378e1d08	1.6941238e-05
134	0x389ff746	7.627769e-05
135	0xb86f8cf0	-5.71133e-05
136	0x38e17472	0.00010750526
137	0xb90c1647	-0.0001335974
138	0x38fda1e4	0.000120941346
139	0x36a201e0	4.8281945e-06
140	0x37eb80d8	2.807418e-05
141	0xb7d03ad8	-2.4822933e-05
142	0xb8b397be	-8.563649e-05
143	0xb8094978	-3.273177e-05
144	0xb7148d70	-8.854418e-06
145	0xb711d250	-8.691641e-06
146	0x3937ae36	0.00017517139
147	0xb80a18b0	-3.2924756e-05
148	0xb9375971	-0.0001748556
149	0xb8893a5c	-6.543539e-05
150	0x39318f87	0.00016933504
151	0xb8e854b2	-0.00011078398
152	0xb8e78766	-0.00011040158
153	0xb911ec5c	-0.00013916328
154	0x38cc64b2	9.746234e-05
155	0xb8611324	-5.3662006e-05
156	0xb946b6cf	-0.00018950853
157	0x39076f42	0.0001291605
158	0x37866f20	1.6025791e-05
159	0xb7bd0ab8	-2.2535547e-05
160	0xb91b7ff3	-0.00014829617
161	0xb967191c	-0.0002203923
162	0x37e9c1d0	2.7866015e-05
163	0xb8c6a762	-9.472553e-05
164	0x388f0cfe	6.821191e-05
165	0xb91b200e	-0.00014793893
166	0xb8117634	-3.468078e-05
167	0x3803fec4	3.1470103e-05
168	0x388c5f26	6.693443e-05
169	0x389befe8	7.435662e-05
170	0x3948f60b	0.00019165144
171	0xb94f72a1	-0.00019783761
172	0xb945bd1a	-0.0001885783
173	0x388d1554	6.7273766e-05
174	0xb74c6760	-1.2183416e-05
175	0x3891a73e	6.94529e-05
176	0x38f745cc	0.000117908785
177	0xb8d80536	-0.00010300653
178	0xb948c27c	-0.00019145937
179	0x38e601fa	0.00010967623
180	0xb747da50	-1.1912154e-05
181	0xb6940800	-4.411675e-06
182	0xb92dc512	-0.0001657198
183	0xb74b2270	-1.2107761e-05
184	0xb8624a40	-5.395175e-05
185	0xbf4ddb72	-0.8041297
186	0x400009a4	2.0005884
187	0x3ec51cc1	0.384985
188	0xbf3c173e	-0.73472965
189	0x3f73d8b2	0.95252526
190	0x3942304f	0.00018519278
191	0x38c34438	9.311031e-05
192	0xb8a9ede8	-8.1028615e-05
193	0x382dc94c	4.1433887e-05
194	0xb830fb40	-4.2195665e-05
195	0xb8c34d56	-9.3127295e-05
196	0x3835c134	4.3333697e-05
197	0xb8f8130a	-0.00011829108
198	0xb83f6cc0	-4.563923e-05
199	0x390a4b9e	0.00013188875
200	0xb9087060	-0.00013011834
201	0x391863af	0.00014532985
202	0x3906ea3d	0.00012866496
203	0xb8c3692c	-9.3179144e-05
204	0x383a47ac	4.4412605e-05
205	0x392d3ff8	0.00016522396
206	0x39158106	0.00014257812
207	0x39204d4d	0.00015287586
208	0x3808ff78	3.266285e-05
209	0xb9630ba4	-0.00021652743
210	0x3920717c	0.00015301065
211	0x36364280	2.7158821e-06
212	0x38b672f4	8.699848e-05
213	0x38e55b94	0.00010936629
214	0xb7f34f98	-2.9004921e-05
215	0xb77e0970	-1.5141777e-05
216	0xb967a538	-0.00022091425
217	0xb85e9ea4	-5.307667e-05
218	0xb9191721	-0.00014599833
219	0x376f2b70	1.4255624e-05
220	0xbf122eaf	-0.57102484
221	0x3fbf0150	1.4922276
222	0x3ecc71c0	0.39930534
223	0x3f87729e	1.0581853
224	0x3eb44159	0.35206106
225	0xb7f2b4c8	-2.893283e-05
226	0xb84aec88	-4.838084e-05
227	0xb91cb67a	-0.00014945297
228	0xb8b37670	-8.557446e-05
229	0x3884018c	6.2945386e-05
230	0x38a0977a	7.657609e-05
231	0x38370734	4.363731e-05
232	0x39079134	0.00012928696
233	0xb93f429b	-0.00018239992
234	0x3914286e	0.00014129441
235	0xb7a64ab8	-1.9823536e-05
236	0xb9249220	-0.00015694695
237	0xb93f117c	-0.00018221693
238	0x3806f414	3.2175405e-05
239	0xb916d8d5	-0.00014385891
240	0x3fc682dd	1.5508686
241	0x3f5401c7	0.8281521
242	0x3f4870b2	0.7829696
243	0x3e6bb46d	0.23018046
244	0x3f0971cc	0.53689265
245	0x3fc8f5d8	1.5700026
246	0x3f496936	0.78676164
247	0x3f03d704	0.5149996
248	0x3f28facd	0.6600769
249	0x3f44f91d	0.76942617
250	0x3912af73	0.00013989005
251	0xb909279d	-0.00013080095
252	0xb92d6e29	-0.00016539604
253	0x38e03930	0.00010691804
254	0x391fe2b4	0.00015247875
255	0x393583e3	0.00017310637

bias f4 [313]
0	0x37d3ff10	2.5271933e-05
1	0x3f8f8f90	1.1215687
2	0xb84d1bcc	-4.8901697e-05
3	0xb8519a10	-4.9972965e-05
4	0xb768f0a0	-1.38843025e-05
5	0x3932553d	0.00017007157
6	0x38b6d19a	8.7174776e-05
7	0x38ed0d86	0.000113035596
8	0xb907c5ab	-0.0001294824
9	0x3835ccb0	4.3344393e-05
10	0x3fe6a699	1.8019592
11	0xb963cdcc	-0.00021725072
12	0xb9010064	-0.00012302544
13	0xb8c66eaa	-9.4619885e-05
14	0xb9630027	-0.00021648464
15	0x3925f4a7	0.00015826766
16	0x3f7775a5	0.96663886
17	0xb96775fd	-0.00022073831
18	0x37869558	1.6043588e-05
19	0xb8f757ac	-0.00011794208
20	0xb9677a7d	-0.00022075507
21	0x37878270	1.6153994e-05
22	0x388712e0	6.4408174e-05
23	0xb90d9e33	-0.00013505742
24	0xb9168833	-0.00014355853
25	0x38e56774	0.000109388406
26	0x3630cb40	2.634435e-06
27	0x3888e1f8	6.527075e-05
28	0x38c5405a	9.4056784e-05
29	0x390cf606	0.00013443091
30	0x39025c93	0.00012432253
31	0xb926057d	-0.00015833038
32	0xb8f0a872	-0.00011475467
33	0x38561b68	5.10471e-05
34	0x3808d8e8	3.2626936e-05
35	0x390fee68	0.00013726356
36	0xb9486e49	-0.00019114571
37	0x402d9121	2.711983
38	0x390e3b02	0.00013564157
39	0xb90377de	-0.00012537788
40	0xb92e4600	-0.0001662001
41	0xb8b870a4	-8.794785e-05
42	0x388b2f4c	6.636846e-05
43	0x393923d6	0.00017656325
44	0x407dda08	3.9664326
45	0x389d12fc	7.4898795e-05
46	0x39255453	0.0001576704
47	0x36bf26a0	5.69674e-06
48	0x3f6aaaaf	0.9166669
49	0x3f5b6922	0.85707295
50	0x37ed6a48	2.8302093e-05
51	0x37cd8950	2.4501845e-05
52	0xb914fdb0	-0.00014208886
53	0x38649f64	5.450788e-05
54	0xb9348833	-0.00017216876
55	0xb85b2e1c	-5.225661e-05
56	0xb927cc62	-0.000160025
57	0x3844e044	4.6938905e-05
58	0x3911a774	0.00013890659
59	0x389a9ac2	7.372118e-05
60	0xb871bf88	-5.7637255e-05
61	0x390fc700	0.00013711676
62	0xb8a8ab00	-8.0427155e-05
63	0xb8c48614	-9.370982e-05
64	0xb7655c00	-1.3670884e-05
65	0xb922d1ec	-0.00015527726
66	0x38fa2824	0.00011928406
67	0xb951b2b6	-0.00019998368
68	0xb9542d49	-0.00020234766
69	0x38a5e018	7.909554e-05
70	0x38b96688	8.840585e-05
71	0xb9014ed5	-0.00012331766
72	0x381d15f0	3.7452148e-05
73	0x37ebae80	2.8095441e-05
74	0x38fd3b18	0.00012074987
75	0x383e1b1c	4.5324778e-05
76	0x39006edf	0.00012248334
77	0x37fa1570	2.9812305e-05
78	0xb90b16c7	-0.00013264558
79	0xb8a1b9e8	-7.711706e-05
80	0x38e5c61c	0.00010956472
81	0xb8c82ede	-9.545473e-05
82	0xb8b4fe2a	-8.6304106e-05
83	0xb8bffb30	-9.154377e-05
84	0x38843294	6.3036714e-05
85	0x401452eb	2.317561
86	0x371488f0	8.853371e-06
87	0xb93cb4a2	-0.00017996368
88	0x3846fd7c	4.7442954e-05
89	0xb9655500	-0.00021870807
90	0xb9526818	-0.00020065939
91	0xb90cb217	-0.00013417784
92	0xb8ff7be2	-0.000121824225
93	0x38c80588	9.5377734e-05
94	0xb929ac68	-0.00016181322
95	0x381cd54c	3.7391947e-05
96	0xb8938ac0	-7.0353504e-05
97	0xb84bbd60	-4.857534e-05
98	0x39285d37	0.00016056454
99	0x38d6e544	0.00010247019
100	0x3896fd9c	7.199796e-05
101	0xb8cfd59c	-9.910317e-05
102	0xb7146140	-8.84413e-06
103	0xb95419c5	-0.00020227495
104	0x38272b80	3.9856415e-05
105	0xb8951ad4	-7.109871e-05
106	0x38fd4ac2	0.00012077905
107	0x37c50128	2.3484768e-05
108	0x40646bfe	3.5690913
109	0xb8f105b4	-0.00011492838
110	0xb8d4ec8a	-0.000101530066
111	0xb960a5d3	-0.00021424079
112	0x38b548ea	8.644334e-05
113	0xb93f11d2	-0.00018221818
114	0xb8210258	-3.8387574e-05
115	0xb9119315	-0.0001388307
116	0x38feaa62	0.000121434
117	0x390d2f36	0.00013464395
118	0x38ee9df2	0.00011378144
119	0x39204516	0.00015284526
120	0xb838b224	-4.4034925e-05
121	0xb9012782	-0.00012317116
122	0x38a38670	7.7974866e-05
123	0x38ff33ec	0.00012169019
124	0x38d1f024	0.00010010626
125	0xb8fe971e	-0.000121398116
126	0xb6132680	-2.1927117e-06
127	0x39241864	0.00015649345
128	0xb8840eb6	-6.2969906e-05
129	0x38a55bb0	7.884891e-05
130	0xb8b809d0	-8.7756314e-05
131	0xb88198dc	-6.1796716e-05
132	0xb9071718	-0.00012883206
133	0xb81f0210	-3.7910475e-05
134	0xb95885a8	-0.00020649156
135	0xb83b1378	-4.4602406e-05
136	0x38e9967e	0.00011138337
137	0x3936c677	0.00017430806
138	0x38a77894	7.98564e-05
139	0x39143242	0.00014133102
140	0xb894336e	-7.0667695e-05
141	0x38a380e2	7.796452e-05
142	0xb84d803c	-4.8995236e-05
143	0xb9584eb8	-0.0002062869
144	0x38fa9810	0.00011949253
145	0xb8867030	-6.4105145e-05
146	0x388a8e5e	6.606871e-05
147	0xb927d3ee	-0.00016005311
148	0x3f755f51	0.95848566
149	0x3911937b	0.00013883218
150	0xb95a33c5	-0.00020809386
151	0xb95b7099	-0.00020927413
152	0xb9436665	-0.00018634794
153	0xb801b638	-3.09257e-05
154	0xb8b65c4e	-8.6956294e-05
155	0x38f4b3c8	0.000116683135
156	0x3fd9bf06	1.7011421
157	0xb922a4af	-0.00015510873
158	0x38111f38	3.459977e-05
159	0xb815e578	-3.5738078e-05
160	0x3936d2a4	0.00017435342
161	0xb92cd851	-0.00016483782
162	0xb88bdaf4	-6.66882e-05
163	0xb9487fb5	-0.00019121061
164	0x3f271847	0.6527142
165	0x4056da5e	3.357078
166	0x38e5e8b8	0.00010962918
167	0x373eaed0	1.1365584e-05
168	0x390eb936	0.00013611172
169	0xb86027b4	-5.3442738e-05
170	0xb7be65b8	-2.2697131e-05
171	0x393496d3	0.00017222324
172	0xb9140d3d	-0.00014119312
173	0x39006b40	0.00012246985
174	0x3f15ce01	0.5851746
175	0x391fedd7	0.00015252024
176	0xb95e1d11	-0.00021182398
177	0x379aa828	1.8436534e-05
178	0x393664fb	0.0001739449
179	0x38ec7d06	0.00011276644
180	0xb91b47ce	-0.00014808701
181	0x3905776a	0.00012728354
182	0xb82015b0	-3.816717e-05
183	0x38587988	5.1611598e-05
184	0xb95cec5a	-0.00021068883
185	0xb91c8852	-0.00014928103
186	0x3f6d8704	0.9278414
187	0xb8da1d2a	-0.00010400482
188	0x3ffd4526	1.9786727
189	0x390a9998	0.00013217924
190	0xb938f7fb	-0.00017639987
191	0x390003ed	0.00012208494
192	0xb88f1ad0	-6.8237656e-05
193	0x386039c0	5.3459546e-05
194	0x381354f8	3.5126664e-05
195	0xb8eb13fc	-0.000112093956
196	0xb6d32da0	-6.2936015e-06
197	0x390f428f	0.00013662338
198	0x391e09e9	0.00015071746
199	0x38fbf374	0.00012013959
200	0x370c6670	8.368501e-06
201	0x39170ade	0.0001440453
202	0xb5014700	-4.8159563e-07
203	0x38c80204	9.5371186e-05
204	0x3907e2c3	0.00012959079
205	0xb5ba6700	-1.3888057e-06
206	0xb88088e0	-6.1290106e-05
207	0x384c24c0	4.8671616e-05
208	0xb8ed1348	-0.00011304632
209	0x39196de9	0.00014632162
210	0x38d54f42	0.000101713944
211	0xb7a0a588	-1.9150568e-05
212	0xb8ab05d6	-8.1550024e-05
213	0x3896ec62	7.196587e-05
214	0x3fdeef3c	1.7416759
215	0x3f86c36d	1.0528389
216	0xb7d39780	-2.5223708e-05
217	0x391eacd2	0.00015132435
218	0x3849b214	4.8087983e-05
219	0x3f6f9d05	0.9359897
220	0xb8be841c	-9.084513e-05
221	0xb9235288	-0.00015575637
222	0xb893b236	-7.0427006e-05
223	0xb8804868	-6.117002e-05
224	0xb8900742	-6.867807e-05
225	0x38629190	5.4018165e-05
226	0x381c7efc	3.731156e-05
227	0x392e6087	0.00016629892
228	0xb9094635	-0.00013091492
229	0x3808b5a4	3.2594093e-05
230	0x391a93b9	0.00014741615
231	0x37984178	1.8150298e-05
232	0xb928117a	-0.00016028239
233	0x38171b34	3.602654e-05
234	0x39160a90	0.0001430905
235	0xb93c9e3e	-0.00017988027
236	0xb8e5498a	-0.00010933269
237	0x37d4cd58	2.536799e-05
238	0x401ec88a	2.48099
239	0xb8c21208	-9.2539995e-05
240	0x39294c35	0.00016145485
241	0x37ea8628	2.7957445e-05
242	0x38e4fcc6	0.0001091897
243	0xb8c25e54	-9.268211e-05
244	0x38b2b3a6	8.5211635e-05
245	0x38e58812	0.00010944916
246	0xb907c6e6	-0.00012948699
247	0xb86ce808	-5.648288e-05
248	0xb924b3db	-0.0001570726
249	0xb71677d0	-8.968593e-06
250	0xb9589ac1	-0.00020657016
251	0x3f10bf9c	0.5654237
252	0xb960b4f2	-0.00021429712
253	0x37c026e0	2.2906286e-05
254	0xb8641500	-5.4378994e-05
255	0x38ececfc	0.00011297499
