RECAP_clustering_breast_cancer/results_trainings/K_2/cluster_2/training_results/cluster_1_model.pt (torch, 19919 bytes, 4 tensors)

weight f4 [5, 404]
4.4819055e-05 7.1768314e-05 0.030046301 -0.00019971318 -6.091452e-05 -0.00012162997 0.00016958761 7.7992605e-05
-2.4008696e-05 -2.1947824e-05 5.7357145e-05 -0.00010068636 0.35913008 7.79152e-05 0.07402605 1.9990606e-05
-1.9845538e-05 0.00011915743 -7.1142e-05 0.00016452168 0.00012289415 -0.00015779959 -9.81864e-05 0.00014239183
1.3518642e-05 0.00020754809 5.8163452e-05 -3.808667e-05 -0.00016029312 -4.5866633e-05 4.403983e-05 -7.745008e-05
0.00012739807 4.3449283e-05 -0.0001371212 3.0908996e-06 0.00019636418 0.0022542088 -2.517701e-05 9.072952e-05
4.5768567e-05 5.954935e-07 0.00016951557 0.025276672 7.670373e-06 0.00012431794 1.1397802e-05 -0.00018539526
0.00019649527 -1.5752768e-05 -8.607855e-05 9.514952e-05 0.00014695583 9.2040136e-05 1.4026381 0.000114499155
0.00019534804 -3.4816534e-05 0.0001266646 -3.9317383e-05 4.579182e-06 6.4361215e-05 0.0001755836 5.1416457e-05
-0.00011194752 0.08091119 0.00016782379 2.576191e-05 0.00014554993 7.7876146e-05 0.00015210673 -3.955979e-05
0.00015430052 0.000157419 -5.5548342e-05 6.371418e-05 8.937651e-05 -0.00015440946 0.00017831051 6.5467902e-06
9.443093e-05 1.8179999e-05 -0.00014666625 -2.6942522e-05 -1.4793564e-05 -0.00010155096 0.00021472473 -4.1083345e-05
0.00017435824 0.00010236965 0.00016911428 -6.657267e-05 -0.00011369554 0.36596674 0.0003137597 0.00015494984
-0.00016221766 1.3869954e-05 -0.00017073889 -0.00014631216 -0.00016915998 9.773794e-06 1.0084383 0.00020685191
0.00012844778 0.00012972753 2.729785e-05 0.00022278937 3.54363e-05 -0.00015566684 5.3545824e-05 -0.00017846203
1.9188301e-05 0.00019336483 0.00014030734 0.0001632887 -0.00012696163 -0.00018115438 6.716541e-05 0.00016975527
1.495819e-05 6.179772e-05 0.00017685766 -3.975202e-05 -0.00016381695 8.602807e-05 -0.0001142485 2.238364e-05
4.5863097e-05 7.559919e-05 1.5598612 0.00019217005 -0.00016488881 0.000117634816 -7.66055e-06 0.00014237195
6.1818835e-05 -0.0001300045 0.00014253033 -5.8741163e-05 4.060945e-06 0.00013989337 -6.652308e-05 -8.687239e-05
-0.00016308641 -0.0001807554 6.768109e-05 -7.4519485e-06 -1.2483113e-05 2.1387212e-05 0.00012517217 -0.00019333129
1.1624696e-05 9.078717e-05 9.330959e-05 0.00012499464 9.633612e-05 -8.9566354e-05 -0.00017775611 4.3087755e-05
3.1318094e-05 4.9377035e-05 0.0001711359 6.447204e-05 -1.2046847e-05 -7.360149e-05 -0.00015208208 1.8476567e-06
-0.000106362495 -9.4661475e-05 0.00013731718 0.00011234885 0.00019818918 -8.752316e-05 -0.00012842534 0.00017228187
-0.000117777745 6.0628852e-05 0.0001518228 7.4059353e-06 2.1422224e-05 5.6659395e-05 -6.084569e-05 -0.00017415467
0.00017373476 6.3012674e-05 -1.1090029e-05 0.00015571981 0.00017133121 1.1874909 1.02663835e-05 -0.00010541304
-2.079396e-05 0.0001878796 0.000111235255 0.00013039321 2.294287e-05 7.2575e-05 0.84500825 0.9461883
-4.980981e-05 -2.8504015e-05 -4.338092e-05 -3.5685094e-05 0.00018454102 -0.00013712434 -5.6196892e-05 -4.5923298e-05
0.00019355626 -0.00017383328 -2.9189774e-05 0.00015027885 5.1786134e-05 0.0001309178 6.126161e-05 8.804821e-05
-9.9473255e-05 4.7413647e-05 8.3939274e-05 6.9459784e-05 -3.967699e-05 0.00021306389 -8.940397e-05 -7.75856e-05
-3.6491198e-05 8.079407e-05 0.000111361165 2.3266504e-05 -0.0001188546 0.00018278895 0.31799424 0.00017854264
0.000101313664 -1.0314398e-06 -6.772105e-06 9.388976e-05 -0.00012677498 0.00017557491 -9.476622e-05 4.3829874e-05
-2.1742839e-05 -0.00015334079 -5.1475334e-05 0.00010074838 0.000104405786 -0.00010921167 -5.3607015e-05 -9.625779e-05
0.0001546828 0.00012435511 4.5387875e-05 -0.00013256325 -2.8007053e-06 0.00015187866 -0.00015941769 -0.0001773868
00000000: 18fc 3b38 5282 9638 a923 f63c 196a 51b9
00000010: 787e 7fb8 9813 ffb8 54d3 3139 f68f a338
00000020: 4866 c9b7 981c b8b7 c492 7038 9427 d3b8
00000030: e6df b73e 6866 a338 f89a 973d 80b1 a737
00000040: f879 a6b7 28e4 f938 1232 95b8 7483 2c39
00000050: 26dd 0039 0177 25b9 6ce9 cdb8 044f 1539
00000060: 20ce 6237 44a1 5939 88f4 7338 40bf 1fb8
00000070: 5b14 28b9 ec60 40b8 68b7 3838 b26c a2b8
00000080: 2996 0539 503d 3638 31c8 0fb9 406d 4f36
00000090: 1ce7 4d39 59bb 133b 3833 d3b7 0a46 be38
000000a0: a0f7 3f38 00da 1f35 fdbf 3139 0611 cf3c
000000b0: 00b0 0037 585b 0239 3039 3f37 a966 42b9
000000c0: 4c0a 4e39 d024 84b7 1285 b4b8 028b c738
000000d0: 2818 1a39 ac05 c138 a589 b33f 441f f038
000000e0: 57d6 4c39 f807 12b8 45d1 0439 b8e8 24b8
000000f0: e0a6 9936 aaf9 8638 dd1c 3839 00a8 5738
00000100: 5ec5 eab8 c4b4 a53d dbf9 2f39 481b d837
00000110: c39e 1839 7051 a338 d77e 1f39 00ed 25b8
00000120: bbcb 2139 d710 2539 94fc 68b8 4a9e 8538
00000130: a66f bb38 f9e8 21b9 ddf8 3a39 80ac db36
00000140: 3809 c638 4081 9837 6cca 19b9 a002 e2b7
00000150: e031 78b7 c2f7 d4b8 bb27 6139 e850 2cb8
00000160: efd3 3639 4aaf d638 4554 3139 ee9c 8bb8
00000170: d46f eeb8 fe5f bb3e 1d80 a439 087a 2239
00000180: f918 2ab9 00b3 6837 5f08 33b9 5f6b 19b9
00000190: 8960 31b9 20fa 2337 8214 813f 63e6 5839
000001a0: f0af 0639 7807 0839 b0fd e437 919c 6939
000001b0: 70a1 1438 803a 23b9 6496 6038 8921 3bb9
000001c0: 90f6 a037 fac1 4a39 771f 1339 7a38 2b39
000001d0: 0121 05b9 42f4 3db9 28db 8c38 5500 3239
000001e0: f0f4 7a37 6699 8138 de72 3939 68bb 26b8
000001f0: 47c6 2bb9 f869 b438 b298 efb8 80c4 bb37
00000200: 205d 4038 028b 9e38 88a9 c73f 4181 4939
00000210: 01e6 2cb9 b6b2 f638 d085 00b7 ae49 1539
00000220: bca4 8138 d151 08b9 3274 1539 d860 76b8
00000230: 4043 8836 57b0 1239 4e82 8bb8 422f b6b8
00000240: 2d02 2bb9 2989 3db9 02f0 8d38 c00b fab6
00000250: 906e 51b7 b068 b337 a640 0339 f9b8 4ab9
00000260: b007 4337 fe64 be38 34af c338 fe10 0339
00000270: 1008 ca38 92d5 bbb8 0b64 3ab9 20b9 3438
00000280: 8c5b 0338 301a 4f38 f172 3339 2a35 8738
00000290: d01c 4ab7 805a 9ab8 3978 1fb9 00fd f735
000002a0: ee0e dfb8 fe84 c6b8 cdfc 0f39 d49c eb38
000002b0: 01d1 4f39 a48c b7b8 eaa9 06b9 90a6 3439
000002c0: 72ff f6b8 bc4b 7e38 9f32 1f39 8080 f836
000002d0: e0b3 b337 90a5 6d38 9034 7fb8 4a9d 36b9
000002e0: 922c 3639 ac25 8438 500f 3ab7 b848 2339
000002f0: 5fa7 3339 b4ff 973f c83d 2c37 3211 ddb8
00000300: b06e aeb7 8c01 4539 f946 e938 29ba 0839
00000310: 7075 c037 6833 9838 7652 583f 6539 723f
00000320: e0ea 50b8 e81b efb7 e8f3 35b8 94ac 15b8
00000330: 5a81 4139 09c9 0fb9 f4b4 6bb8 c49d 40b8
00000340: 5df5 4a39 0447 36b9 90dc f4b7 2c94 1d39
00000350: f034 5938 fb46 0939 9479 8038 86a6 b838
00000360: 4c9c d0b8 04de 4638 8e08 b038 f0aa 9138
00000370: d86a 26b8 e769 5f39 647e bbb8 74b5 a2b8
00000380: 200e 19b8 fc6f a938 928a e938 702c c337
00000390: 9441 f9b8 09ab 3f39 24d0 a23e 2d37 3b39
000003a0: 5c78 d438 0070 8ab5 f03b e3b6 aee6 c438
000003b0: e6ee 04b9 881a 3839 3abd c6b8 f8d5 3738
000003c0: 6464 b6b7 1bca 20b9 38e7 57b8 e048 d338
000003d0: 6ef4 da38 9208 e5b8 18d8 60b8 02de c9b8
000003e0: 5932 2239 5265 0239 dc5e 3e38 ad00 0bb9
000003f0: c0f3 3bb6 9e41 1f39 5c29 27b9 e800 3ab9

bias f4 [5]
-1.3425972 0.61086833 -1.7605228 -2.4555688 -2.5403152
00000000: 3ada abbf de61 1c3f d058 e1bf 0a28 1dc0
00000010: 8694 22c0

weight f4 [384, 5]
9.2097864e-05 -2.8638577e-05 3.0152522e-05 0.00019663066 -4.7084803e-05 3.4265235e-05 -2.823236e-05 0.0001953157
0.00015580854 -7.408959e-05 -0.6707695 -0.5540667 -0.12251187 -0.62420297 -0.57551074 0.00013028552
-0.0001314152 1.8667939e-05 0.0002286796 0.0002476857 -3.763748e-05 -4.07505e-05 0.00014357187 0.00021213594
-4.611806e-05 0.0001794575 0.012549152 -5.17745e-05 -0.0902325 -0.23002778 0.23190485 0.00016532905
-0.00015508638 -7.655131e-05 -6.534856e-05 -0.00032935 0.00014022323 3.2563985e-06 -0.00019655068 5.952746e-05
0.0001719187 0.09768553 -0.009301958 -0.18725766 -0.30334103 -0.15296413 0.00018700858 -0.00015949504
-0.0002774671 -0.00012328016 0.0083414 -6.905575e-05 -6.582655e-05 8.586903e-05 0.00023739005 -0.00020186629
-3.3297467e-05 0.000113604736 3.7670106e-06 0.00016802229 -0.120047934 2.9338771e-05 -0.24358349 -0.6947166
-0.9498005 -6.554731e-05 4.628607e-05 -0.13025221 -0.009939859 -0.010795474 8.85377e-05 0.19032894
-0.10417153 -0.21501938 -0.43919098 -0.00013866462 0.00011634601 -3.936322e-06 -0.00012630332 9.0354544e-05
-2.208502e-05 0.00025403313 -0.00037121624 -0.05007503 -0.0002924672 -0.00016892108 -7.8438476e-05 -0.00017841408
-0.00027909607 -0.048116833 -0.000117291376 -0.09085794 -0.2684823 -0.3614068 -0.70353633 0.00012682125
0.11280081 -0.00019237134 -0.001369776 -0.38234064 -0.00019919316 -5.7196026e-05 3.585097e-05 -0.00020001494
5.6833072e-05 0.00019785146 -0.0002667592 0.00021669306 0.04939125 0.00022352554 -0.00010229664 -0.00015678549
0.0002361274 -8.965297e-06 0.00027383128 -5.288054e-05 0.0002025099 -0.00020040333 -0.00013331608 -0.0002250401
1.3695346e-05 -0.00015142567 0.00021345852 0.00026370597 0.00012999601 -0.00013825085 -0.0001316446 -0.00010199185
-0.00025119184 -0.0002047147 0.0003158299 0.00010975878 4.944022e-05 0.00018268992 -5.084816e-05 -0.00021271402
2.3108863e-05 -0.0003818476 -8.946914e-05 -7.746707e-05 -1.4394711e-05 -4.5975736e-05 -2.6946553e-05 7.214959e-05
0.0001246077 7.214883e-06 -0.00020292425 0.00025617 0.00021926581 0.00029531293 -8.997493e-05 -4.331363e-06
0.00016164817 0.00028379163 0.00021164064 0.00014491582 -5.5219105e-05 0.00013292223 4.3056047e-05 0.00016498734
0.00019021271 -3.36707e-05 -0.00018880334 -0.0017932667 -0.0018488884 0.00023627857 -0.00020765839 0.00018816898
-5.2176125e-05 0.00017295468 0.0002032828 -1.1200078e-05 -2.2191627e-05 -0.00024308519 9.487005e-06 0.3972332
0.00019397362 -2.6364465e-05 -0.11137853 -0.00034802296 -3.6292317e-05 0.0002071928 0.00015917543 -1.4576028e-05
-2.6911002e-05 -0.00012420025 -3.3503682e-05 -0.03439571 -0.6430355 -0.17647786 3.0119947e-05 -0.00011601452
-0.00015659575 -4.7108115e-05 0.0001810188 0.079873085 0.000111427944 -0.00016821858 6.595443e-05 4.5652996e-05
7.029953e-05 -8.1704624e-05 -5.295658e-05 -1.22201345e-05 -0.00028146908 0.00012865213 4.222094e-05 0.00020777044
0.00017499618 0.000102505845 -0.00010074636 -0.00017191158 0.00015003316 -2.5012047e-05 0.00018807108 -1.0373985
-0.11420482 -0.24228014 -0.83752877 -0.31168696 1.4529724e-05 -7.465611e-05 4.347638e-05 2.6608817e-05
0.00018073918 0.00036657194 5.7295343e-05 5.1314113e-05 0.00024289248 0.00012510073 0.0002530206 -0.00023913993
-8.8643705e-05 6.7657646e-05 4.6156783e-05 -8.440556e-05 5.191206e-05 0.00020229374 0.00013425044 0.00014441292
0.00031188878 -0.0001606179 5.9712336e-05 -6.2978797e-06 -6.090381e-05 0.00011727198 0.0001469775 -7.8198966e-05
-0.0001487708 -4.3516397e-05 -3.6295096e-05 -0.0001625977 5.0648407e-05 0.03638734 0.00019712129 6.157292e-05
00000000: aa24 c138 e03c f0b7 0cf0 fc37 a42e 4e39
00000010: ec7c 45b8 04b8 0f38 88d4 ecb7 a9cd 4c39
00000020: 8960 2339 8c60 9bb8 8db7 2bbf 51d7 0dbf
00000030: 81e7 fabd c4cb 1fbf ac54 13bf 419d 0839
00000040: 80cc 09b9 1899 9c37 b6c9 6f39 d0db 8139
00000050: f0dc 1db8 84eb 2ab8 c88b 1639 cf70 5e39
00000060: e46e 41b8 c12c 3c39 f59a 4d3c 7228 59b8
00000070: d1cb b8bd 678c 6bbe 7778 6d3e 2e5c 2d39
00000080: af9e 22b9 2c8a a0b8 be0b 89b8 9cac acb9
00000090: e308 1339 8088 5a36 2c19 4eb9 20ad 7938
000000a0: 1345 3439 5a0f c83d 3d67 18bc 79c0 3fbe
000000b0: 844f 9bbe a1a2 1cbe bc17 4439 203e 27b9
000000c0: 0179 91b9 c444 01b9 5eaa 083c 06d2 90b8
000000d0: 5c0c 8ab8 9614 b438 e8eb 7839 12ac 53b9
000000e0: e2a8 0bb8 143f ee38 c0cc 7c36 242f 3039
000000f0: b1db f5bd 881c f637 f36d 79be f2d8 31bf
00000100: 2026 73bf 7276 89b8 4a23 4238 d660 05be
00000110: cada 22bc 80df 30bc 51ad b938 97e5 423e
00000120: e257 d5bd 0a2e 5cbe a4dd e0be 8066 11b9
00000130: cafe f338 c014 84b6 4a70 04b9 ba7c bd38
00000140: 3843 b9b7 c02f 8539 cd9f c2b9 7a1b 4dbd
00000150: 4856 99b9 6820 31b9 567f a4b8 aa14 3bb9
00000160: a453 92b9 2816 45bd 54fa f5b8 ba13 babd
00000170: 8376 89be 500a b9be f51a 34bf 52fb 0439
00000180: 1c04 e73d 4ab7 49b9 0e8a b3ba 27c2 c3be
00000190: 82de 50b9 c4e5 6fb8 b05e 1638 1abb 51b9
000001a0: 0c60 6e38 5976 4f39 d0db 8bb9 1a38 6339
000001b0: 7b4e 4a3d 2e62 6a39 1788 d6b8 c966 24b9
000001c0: f798 7739 a869 16b7 0391 8f39 0ccc 5db8
000001d0: d658 5439 5c23 52b9 c3ca 0bb9 bef8 6bb9
000001e0: 10c5 6537 05c8 1eb9 d6d3 5f39 0442 8a39
000001f0: 8a4f 0839 6ef7 10b9 140a 0ab9 75e4 d5b8
00000200: 66b2 83b9 afa8 56b9 f995 a539 4c2e e638
00000210: 085e 4f38 7490 3f39 cc45 55b8 fc0b 5fb9
00000220: e8d9 c137 b832 c8b9 61a1 bbb8 d175 a2b8
00000230: d080 71b7 12d6 40b8 480b e2b7 044f 9738
00000240: 20a9 0239 6017 f236 10c8 54b9 8e4e 8639
00000250: b8ea 6539 3bd4 9a39 ecb0 bcb8 2056 91b6
00000260: 1a80 2939 dec9 9439 daeb 5d39 8bf4 1739
00000270: 109b 67b8 0a61 0b39 1497 3438 7400 2d39
00000280: d673 4739 a439 0db8 83f9 45b9 0c0c ebba
00000290: 6656 f2ba 8cc1 7739 e0be 59b9 3a4f 4539
000002a0: b0d7 5ab8 2b5b 3539 5028 5539 f8e7 3bb7
000002b0: 2828 bab7 afe4 7eb9 602a 1f37 2662 cb3e
000002c0: 6665 4b39 4229 ddb7 6d1a e4bd da76 b6b9
000002d0: 9438 18b8 e541 5939 54e8 2639 908b 74b7
000002e0: f0be e1b7 c03b 02b9 4e86 0cb8 84e2 0cbd
000002f0: f99d 24bf 9db6 34be 18aa fc37 d24c f3b8
00000300: da33 24b9 f495 45b8 ddcf 3d39 8094 a33d
00000310: 6cae e938 d563 30b9 0451 8a38 887b 3f38
00000320: c66d 9338 d658 abb8 b21d 5eb8 1405 4db7
00000330: 2492 93b9 cbe6 0639 6416 3138 f4dc 5939
00000340: 2e7f 3739 68f8 d638 ca47 d3b8 2a43 34b9
00000350: 3852 1d39 f6d0 d1b7 f234 4539 79c9 84bf
00000360: 37e4 e9bd 4918 78be 4968 56bf 6f95 9fbe
00000370: b0c4 7337 b290 9cb8 685a 3638 0036 df37
00000380: ce84 3d39 7430 c039 6850 7038 1c3a 5738
00000390: f4b0 7e39 792d 0339 daa7 8439 a3c1 7ab9
000003a0: 3ae6 b9b8 6ce3 8d38 7898 4138 e402 b1b8
000003b0: 26bc 5938 d01e 5439 94c5 0c39 8c6d 1739
000003c0: 0185 a339 8a6b 28b9 a273 7a38 6052 d3b6
000003d0: f872 7fb8 eaef f538 f91d 1a39 c0fe a3b8
000003e0: 5cff 1bb9 6085 36b8 903b 18b8 fd7e 2ab9
000003f0: 506f 5438 e40a 153d 58b2 4e39 b620 8138

bias f4 [384]
-0.00018086914 -6.743548e-05 0.82211107 -1.774443e-05 4.991585e-05 0.0038342737 -2.7129892e-05 -4.6286936e-05
0.22680451 0.00033900322 -0.00014058876 -0.00016025022 0.9343814 0.16974738 0.09912494 -7.635089e-05
0.0004761895 0.00033671362 0.65873843 0.1532216 -8.2725266e-05 -0.000107684915 -0.00028078508 -8.687703e-05
-0.00026860563 7.4645846e-05 -0.00025283912 0.00022439624 -0.00031397122 -7.264705e-05 -0.00023234342 -0.00018104915
0.0026442388 -5.4041826e-05 0.00020308743 7.678997e-05 0.00012851114 0.62252384 0.000108169756 -0.000109571076
0.0007576845 -1.3853205e-05 -0.10019507 0.76177114 1.28588e-05 -0.000225553 -1.641213e-05 2.7725328e-05
-0.00016080611 -9.859943e-05 -0.00028042507 -0.07976242 9.679621e-05 0.00010861222 2.0344627 0.00018871285
-1.1203039e-05 -0.00016792749 -6.136237e-06 -9.489703e-05 0.37306926 2.5806934e-05 -1.3133929e-05 0.0002281418
0.09487677 0.10764992 -0.00017393369 -0.00022264202 -0.00030631985 0.113370195 -7.0488866e-05 -9.147734e-06
-0.00017294333 5.3193005e-05 -0.00017012996 -0.00015772146 3.5303136e-05 -0.00026024814 -0.00028868887 6.5633474e-05
0.50311744 0.00012261407 -2.6733585e-05 -0.00018191242 0.60964924 -8.2700295e-05 0.0016805202 -0.00024101758
-0.00025880424 -0.00022738976 0.00029824884 -0.00013622029 0.00015199342 1.061188 0.47853893 0.00028060787
-1.8512714e-05 4.0848987e-05 -4.2241823e-05 -0.08180041 -6.129017e-05 -0.12981981 1.6182172 -6.2467705e-05
-3.2721175e-05 -1.4907186e-05 -7.776145e-05 -0.00024292493 0.33525884 -0.000119362245 -0.025936708 -0.00022172868
-0.00025280775 -7.953739e-05 0.02541486 7.3729956e-05 0.032118447 -5.000626e-05 4.286121e-05 0.00021578756
-5.0561765e-05 0.20011361 0.8014029 -0.0003068665 -9.574996e-05 4.0589217e-05 8.7561384e-05 1.1750366e-05
0.00015308068 5.8615668e-05 1.8364882 7.455752e-05 -0.00020597549 0.00012656703 0.19999154 -0.00017195047
0.2297985 -0.00026494125 -0.000151343 -9.893457e-05 6.2996354e-05 -0.00019403512 0.00011358048 -4.870231e-05
-0.00011930302 -0.00015387552 -0.00012219288 -0.13752855 -0.00014082025 -4.301891e-05 8.2968516e-05 -0.015086013
-0.00024258443 -8.294618e-05 -4.5281748e-05 -0.1961738 8.236566e-05 -0.0001690457 7.512569e-05 0.00010886883
-4.2544067e-05 0.00017592107 -0.0002876559 -9.406039e-05 0.00028615358 -0.00019398596 4.774792e-05 -5.5333672e-05
-0.00018140105 0.054621026 -0.00022728514 -6.5048007e-06 5.3441094e-05 2.0040752e-06 -0.00020115603 -0.00021314221
0.0060642213 -2.3915629e-05 0.0001759948 7.645157e-05 0.00028088965 0.21943063 0.31443 -0.00014654569
2.238038e-05 -0.00037917725 0.00019236871 0.01713258 6.148084e-05 0.80901015 0.46639928 -0.00010957358
0.0001303631 0.00021253931 0.00018038394 1.1752203e-05 1.0970725e-05 -0.00015617885 0.5939919 1.760203
-0.00026306085 -1.842971e-05 -0.00011953848 -0.00015359507 6.094398e-05 -0.00015086494 7.790292e-05 4.9795068e-05
-2.6531066e-05 0.19214033 0.00025468392 0.019994453 -0.00019458565 0.00018350403 -0.00015371553 -7.711324e-05
-0.00028411485 -0.0001762613 4.2192074e-05 -0.00014936831 -0.00020939845 -0.00019297023 0.00051334215 -7.751622e-05
0.00015147346 -0.00026335206 -0.00024205686 9.04403e-05 -0.00019511729 8.9859735e-05 0.57004803 -8.2962186e-05
0.23520188 4.5916968e-05 0.22582613 -1.9963336e-05 -0.028891286 0.520498 0.35911158 0.24743167
0.11443092 -5.9032973e-05 -0.04663236 0.10539165 2.6179398e-05 5.0686547e-05 -0.00018376835 -0.00012363681
-5.6840654e-05 -6.427098e-05 -0.00012738004 7.8663055e-05 1.3002413e-05 -0.0002618278 0.00010852111 4.8250833e-05
00000000: b1a7 3db9 266c 8db8 df75 523f e0d9 94b7
00000010: bc5c 5138 7048 7b3b 0095 e3b7 3824 42b8
00000020: 713f 683e 3ebc b139 026b 13b9 d708 28b9
00000030: 9f33 6f3f 42d2 2d3e 0402 cb3d 921e a0b8
00000040: 13a9 f939 f088 b039 15a3 283f 20e6 1c3e
00000050: ca7c adb8 e6d4 e1b8 5636 93b9 c031 b6b8
00000060: a3d3 8cb9 2f8b 9c38 7e8f 84b9 e84b 6b39
00000070: 819c a4b9 175a 98b8 36a1 73b9 03d8 3db9
00000080: f74a 2d3b f8aa 62b8 def3 5439 4d0a a138
00000090: f2c0 0639 b95d 1f3f 32d9 e238 86c9 e5b8
000000a0: 599f 463a 106b 68b7 1333 cdbd 6f03 433f
000000b0: 20bc 5737 6c82 6cb9 c8ac 89b7 b093 e837
000000c0: 109e 28b9 2ac7 ceb8 0406 93b9 7b5a a3bd
000000d0: 12ff ca38 bec6 e338 a334 0240 38e1 4539
000000e0: b0f4 3bb7 b115 30b9 e0e5 cdb6 7403 c7b8
000000f0: ef02 bf3e f87b d837 cc59 5cb7 5939 6f39
00000100: c14e c23d 9077 dc3d f861 36b9 0375 69b9
00000110: 8e99 a0b9 a22e e83d 6cd3 93b8 3879 19b7
00000120: 1f58 35b9 8e1b 5f38 ea64 32b9 0862 25b9
00000130: 7412 1438 ea71 88b9 2a5b 97b9 b4a4 8938
00000140: 4ecc 003f f791 0039 f041 e0b7 bebf 3eb9
00000150: f911 1c3f 626f adb8 e744 dc3a aab9 7cb9
00000160: 1eb0 87b9 796f 6eb9 485e 9c39 5bd6 0eb9
00000170: 6c60 1f39 02d5 873f 0e03 f53e 8d1e 9339
00000180: c04b 9bb7 4455 2b38 d02c 31b8 f986 a7bd
00000190: e988 80b8 7cef 04be be21 cf3f 1801 83b8
000001a0: 183e 09b8 e019 7ab7 dc13 a3b8 aab9 7eb9
000001b0: 0ca7 ab3e 1e52 fab8 3879 d4bc d77f 68b9
000001c0: 488b 84b9 50cd a6b8 d332 d03c 789f 9a38
000001d0: a28e 033d d0bd 51b8 e0c5 3338 0845 6239
000001e0: 4812 54b8 95ea 4c3e be28 4d3f ede2 a0b9
000001f0: 5ecd c8b8 573e 2a38 29a1 b738 7023 4537
00000200: 4884 2039 18da 7538 0c12 eb3f c45b 9c38
00000210: 20fb 57b9 14b7 0439 95ca 4c3e 9a4d 34b9
00000220: 4c50 6b3e d0e7 8ab9 d4b1 1eb9 187b cfb8
00000230: e91c 8438 e875 4bb9 0e32 ee38 b545 4cb8
00000240: 5232 fab8 a559 21b9 e720 00b9 49d4 0cbe
00000250: 26a9 13b9 346f 34b8 62ff ad38 532b 77bc
00000260: 435e 7eb9 64f3 adb8 e8ec 3db8 c9e1 48be
00000270: babb ac38 dc41 31b9 cc8c 9d38 8250 e438
00000280: 5871 32b8 7477 3839 85d0 96b9 4a42 c5b8
00000290: e206 9639 b668 4bb9 f044 4838 1416 68b8
000002a0: 7936 3eb9 4cba 5f3d 6453 6eb9 d043 dab6
000002b0: f025 6038 c07d 0636 69ed 52b9 ed7e 5fb9
000002c0: 60b6 c63b 6c9e c8b7 3f8b 3839 a054 a038
000002d0: 5f44 9339 6cb2 603e f8fc a03e 0faa 19b9
000002e0: 80bd bb37 4fcc c6b9 95b6 4939 a059 8c3c
000002f0: 46ef 8038 4a1b 4f3f e3cb ee3e deca e5b8
00000300: 14b2 0839 16dd 5e39 7225 3d39 542b 4537
00000310: e80e 3837 f1c3 23b9 da0f 183f 554e e13f
00000320: 6eeb 89b9 8099 9ab7 bcb0 fab8 5d0e 21b9
00000330: 1a9e 7f38 8031 1eb9 d05f a338 0cdb 5038
00000340: 088f deb7 6fc0 443e 1987 8539 68cb a33c
00000350: b009 4cb9 fd6a 4039 b32e 21b9 dbb7 a1b8
00000360: 40f5 94b9 c8d2 38b9 65f7 3038 c09f 1cb9
00000370: f891 5bb9 0d58 4ab9 cf91 063a 3490 a2b8
00000380: d9d4 1e39 8412 8ab9 a5d0 7db9 c4aa bd38
00000390: 6698 4cb9 1473 bc38 abee 113f fcfb adb8
000003a0: c3d8 703e f896 4038 f73e 673e f076 a7b7
000003b0: 6bad ecbc 5b3f 053f 79dd b73e ba5e 7d3e
000003c0: c25a ea3d 2c9a 77b8 9301 3fbd 94d7 d73d
000003d0: d49b db37 4498 5438 f1b1 40b9 81a4 01b9
000003e0: 3068 6eb8 38c9 86b8 5291 05b9 e8f7 a438
000003f0: f024 5a37 ef45 89b9 d495 e338 f060 4a38
