iterative_k_clustering_AML/second_algorithm_results/cluster_2/training_results/model.pt (torch, 3795 bytes, 4 tensors)

weight f4 [5, 41]
0	0x3b646217	0.0034848505
1	0x3fcac358	1.5840864
2	0x3b229555	0.0024808247
3	0xbb2adaf5	-0.002607045
4	0x3b203105	0.002444328
5	0x3b85d9fa	0.0040848227
6	0xbb82ba0d	-0.003989464
7	0xbab6b09a	-0.0013938129
8	0x3b8a6b5c	0.004224224
9	0xb983b019	-0.0002511747
10	0xbb32ba9f	-0.002727188
11	0x3fe43ab0	1.783041
12	0xbfa2cd9d	-1.2718998
13	0xbb43e568	-0.0029891375
14	0xbb6f9656	-0.0036558113
15	0x3ea4b2c7	0.32167646
16	0x3b9e7083	0.00483519
17	0x39b766b3	0.00034980997
18	0xba890a69	-0.0010455373
19	0xb9bf61ea	-0.0003650331
20	0xbb40f293	-0.002944146
21	0xbfba7b2c	-1.4568839
22	0xbbcd9a0e	-0.0062744683
23	0x3eba9099	0.36438444
24	0x3eed47ef	0.46343943
25	0x3f6c1045	0.92212325
26	0xbb0b057d	-0.0021212988
27	0x3a67add5	0.00088378537
28	0xbab7bf88	-0.0014018873
29	0x3a114ed5	0.0005543058
30	0xba2d45d5	-0.0006609832
31	0xb9fe7819	-0.00048536135
32	0xbb5048d5	-0.0031781693
33	0xba29cad5	-0.00064770627
34	0xbb05235c	-0.0020315265
35	0xbaf30dd8	-0.0018543554
36	0x3a6513d5	0.0008738612
37	0xbb8f03a2	-0.0043644467
38	0x3b89f162	0.0042096833
39	0x3b4711e4	0.0030375654
40	0x3a92a2f2	0.0011187478
41	0xba8e29cf	-0.00108462
42	0x3b33ef0c	0.0027455715
43	0x3ad6e1c2	0.0016394185
44	0xbad5a4f6	-0.0016299773
45	0xb8e4c272	-0.000109081055
46	0x37bdda9e	2.2632357e-05
47	0x3a56b7f5	0.0008190864
48	0xbade9b22	-0.0016983489
49	0x3aea4c4c	0.0017875521
50	0xbb89949b	-0.0041986234
51	0xbb3386ad	-0.0027393505
52	0x3e0da3d7	0.13832031
53	0x3b5bc2d0	0.0033532865
54	0x3af19f21	0.0018434265
55	0x3b56ebb8	0.0032794308
56	0x3b12c969	0.0022397882
57	0xbabdd608	-0.0014483342
58	0x3ac56350	0.0015059505
59	0xbb012c80	-0.0019710362
60	0xbb7c3406	-0.0038483157
61	0x3b8feb6f	0.0043920795
62	0x3b83652d	0.004009864
63	0x3aad773b	0.0013234386
64	0x3ad968c8	0.0016587013
65	0x3b47d4d6	0.003049185
66	0x3b478287	0.003044279
67	0x3afbc065	0.0019207118
68	0xba1707d5	-0.000576136
69	0xbb7bbb44	-0.003841118
70	0x3b0b8b44	0.0021292726
71	0xb9097153	-0.00013107555
72	0xba4e1155	-0.0007860859
73	0x3a7da3d5	0.0009675597
74	0xbb7298c4	-0.0037017325
75	0x3b91e722	0.004452602
76	0x3afabdea	0.0019130085
77	0xbb6af997	-0.0035854334
78	0x3b79131c	0.0038005775
79	0x3a78db89	0.00094931625
80	0xba50a5d5	-0.0007959281
81	0xbabb7f6a	-0.001430494
82	0x3eb0c43a	0.3452471
83	0x3bb31d38	0.0054661296
84	0x3ac5df82	0.0015096518
85	0x3e0a38eb	0.13498275
86	0x3ac02f10	0.0014662463
87	0x3b1a1e3c	0.0023516556
88	0xbb636a14	-0.0034700679
89	0xbab471a2	-0.0013766775
90	0x3a1a5a98	0.00058881333
91	0xbae49170	-0.0017438363
92	0xb9cd9fa3	-0.00039219586
93	0xbf9013a2	-1.1255991
94	0xbb4637f7	-0.003024576
95	0xbabf57ee	-0.0014598349
96	0x3b097926	0.002097675
97	0x389cfdb0	7.485913e-05
98	0x3a4130d0	0.00073696394
99	0x3b533ae4	0.0032231146
100	0x3b259664	0.0025266642
101	0xbb87a7ea	-0.00413989
102	0xbb33b56f	-0.0027421375
103	0xb99cca7f	-0.0002990551
104	0xbb517a82	-0.003196389
105	0xbb23ff94	-0.0025024163
106	0x3a6535c0	0.0008743666
107	0xbb1e2cd0	-0.0024135597
108	0x3b5cc39b	0.0033685926
109	0xbb918936	-0.0044414056
110	0xbb31c355	-0.0027124484
111	0xba361955	-0.0006946524
112	0x3b923c62	0.0044627646
113	0xba4c77d5	-0.0007799839
114	0xb9ef0c19	-0.00045594646
115	0x3b8c3802	0.0042791376
116	0x3a3480d5	0.00068856525
117	0x3a30bcd5	0.00067420054
118	0x3ae7e208	0.0017691264
119	0xba0e8dad	-0.00054379815
120	0x3b784604	0.003788353
121	0x3a9dd2ea	0.0012041007
122	0x3a452729	0.0007520789
123	0x3977d953	0.00023636715
124	0x3ac7661e	0.0015212928
125	0x3a4a2c31	0.00077122735
126	0xbafdece9	-0.0019372973
127	0x3b1a8fbc	0.0023584208
128	0xba9aa910	-0.0011799652
129	0xbac2df6b	-0.0014867609
130	0xbb362c1c	-0.0027797287
131	0x3ab2300a	0.0013594639
132	0xba7094e9	-0.0009177463
133	0x3a273ef5	0.0006379926
134	0x3b91b43b	0.004446534
135	0xbb63ca44	-0.003475801
136	0x3b2c68ac	0.0026307506
137	0x3b89d093	0.004205772
138	0x3b875362	0.004129813
139	0x3b71cf1b	0.0036897126
140	0x3b252080	0.0025196373
141	0x3b14533a	0.0022632615
142	0xba46f75b	-0.00075899594
143	0xbb137926	-0.002250263
144	0xbb8de156	-0.0043298407
145	0x3b634c03	0.0034682758
146	0xbb3422a4	-0.0027486468
147	0xbb57b57f	-0.0032914577
148	0x3b8d23ea	0.00430726
149	0x3b126953	0.002234061
150	0xbb8034e2	-0.003912554
151	0x3b796084	0.0038051913
152	0xbb4e3179	-0.0031462593
153	0x39c5b2d9	0.0003770802
154	0xbab2626a	-0.0013609652
155	0xba1830d5	-0.00058056164
156	0xbb2f0944	-0.0026708404
157	0xba2ec3d5	-0.00066667545
158	0x3ae4a0f2	0.0017442985
159	0x3aa6e498	0.0012732921
160	0xbb3ab3c4	-0.0028488496
161	0x3aeec42a	0.001821642
162	0xba1e7709	-0.00060449593
163	0xbad57e58	-0.0016288264
164	0x3b8291dc	0.003984673
165	0x3b568922	0.0032735546
166	0xbb77141c	-0.0037701195
167	0xbb6e74ec	-0.003638561
168	0xbb13cf6f	-0.002255406
169	0x3acefb44	0.0015791436
170	0xbaa7b99e	-0.0012796407
171	0xb851b21b	-4.9995357e-05
172	0x3b5f8c7e	0.003411084
173	0x3b40aaaa	0.0029398599
174	0x3b02b8fb	0.0019946683
175	0x3b773d5f	0.003772579
176	0xba9b8936	-0.0011866454
177	0xbb64d8c6	-0.0034919246
178	0x3b34941a	0.0027554096
179	0x3b4e9626	0.00315226
180	0xba7b565e	-0.000958776
181	0x3a545e2b	0.00081011903
182	0xbb7dc4c9	-0.003872203
183	0x392e6ca6	0.00016634408
184	0xbb792be9	-0.0038020557
185	0x3ad184d1	0.0015985017
186	0xbb06a68b	-0.0020546045
187	0xbb8d434f	-0.0043110023
188	0xbb118a46	-0.0022207662
189	0xbb3e7e66	-0.0029067039
190	0x3b6581a5	0.00350199
191	0x3b6f7387	0.0036537366
192	0x3b4527f4	0.0030083628
193	0x3b713aa6	0.0036808639
194	0x3b83fdd3	0.004028061
195	0xbabcb3e8	-0.0014396878
196	0xbb642186	-0.003481002
197	0xbb7276c6	-0.0036997064
198	0x3b8517b3	0.004061663
199	0x3b5e1946	0.0033889576
200	0x3b4d0e86	0.0031289174
201	0x3b24ba26	0.0025135367
202	0xbb7f6ac6	-0.0038973554
203	0xbadf2e74	-0.0017027394
204	0x3b63299e	0.0034662257

bias f4 [5]
0	0xbeb2248c	-0.34793508
1	0x3fa44c38	1.283576
2	0x3e75a199	0.23987426
3	0x3f9a9330	1.2076168
4	0xbfad6f9c	-1.3549685

weight f4 [21, 5]
0	0x3aca06c8	0.0015413398
1	0xbe71e19f	-0.23621224
2	0xbb5b6c24	-0.0033481205
3	0xb8c5dc28	-9.434699e-05
4	0x3b82a52e	0.003986976
5	0xbf8d1699	-1.1022521
6	0x3988ca11	0.00026090493
7	0xba5fb092	-0.0008533086
8	0x3b8e5af7	0.00434434
9	0xbedf26ba	-0.43584234
10	0xbb5e8105	-0.0033951413
11	0x3a8ac1ac	0.0010586283
12	0x3b85fe4a	0.0040891515
13	0xbea7148b	-0.3263286
14	0x3e9a038f	0.3008084
15	0x3f859e57	1.0438946
16	0xb716566f	-8.960821e-06
17	0xbba3249b	-0.004978729
18	0x3e1f3b66	0.15550002
19	0xbb47845c	-0.0030443883
20	0x3a1061b3	0.00055077224
21	0x3bc079cc	0.0058738943
22	0x3b26f69d	0.0025476583
23	0x3f1504dc	0.5821054
24	0xbf2303c3	-0.63677615
25	0xbb895088	-0.0041905083
26	0xbe94b9f6	-0.29048127
27	0xba8a79dc	-0.0010564881
28	0xbaf421fb	-0.001862585
29	0x3ea9e5de	0.33183187
30	0xbe97ab48	-0.29622865
31	0xbe8ab783	-0.27093133
32	0xbb0748b3	-0.0020642697
33	0x3a7f466d	0.0009737972
34	0xbb8c85ac	-0.004288396
35	0xbf3319e9	-0.6996141
36	0x3e26105f	0.16217183
37	0x39b0bbad	0.00033709165
38	0x3939ff40	0.00017738063
39	0xbae7bed6	-0.0017680775
40	0x3b4cc257	0.0031243765
41	0xbe814811	-0.25250295
42	0xba90177b	-0.0010993326
43	0xbeb36698	-0.3503921
44	0x3e9a6621	0.30156043
45	0x3b37e661	0.00280609
46	0xbeae36af	-0.34026095
47	0xbe1405b3	-0.14455299
48	0xbee5a839	-0.44854906
49	0x3f03631b	0.513231
50	0xbb4655ec	-0.0030263616
51	0x3ec2b611	0.3802953
52	0xbf1b3164	-0.6062224
53	0xba2dc5bc	-0.0006628891
54	0xb8960e93	-7.155272e-05
55	0x3b102fa1	0.0022001045
56	0x3e959878	0.29217887
57	0xbaedee3c	-0.0018152664
58	0x3e55abff	0.20866393
59	0xbb2455da	-0.0025075586
60	0xbb3e1214	-0.0029002475
61	0x3a390277	0.0007057557
62	0xbed3a0fb	-0.41333756
63	0x3b168a88	0.0022970755
64	0x3a59b169	0.0008304329
65	0x3baa4c95	0.0051971176
66	0x3e504fbb	0.20342915
67	0xbf3fa587	-0.7486195
68	0x3e3971eb	0.18109863
69	0xbb1b69c9	-0.0023714176
70	0x3ed3ad9b	0.41343388
71	0x3b80a7c7	0.0039262506
72	0x3f0d45e1	0.5518475
73	0xbb80c414	-0.0039296243
74	0xbb339e34	-0.0027407529
75	0xbb4fd9e1	-0.003171556
76	0xbeacc403	-0.33743295
77	0xba79b893	-0.00095261
78	0xbe1cc9ca	-0.15311351
79	0x3b8de5c9	0.004330371
80	0xba3a6b81	-0.0007111356
81	0xbf7185f3	-0.94345015
82	0xbac82c92	-0.0015272072
83	0x3b14a991	0.0022684077
84	0x3ba64d01	0.0050750975
85	0xb9cf9d08	-0.00039599114
86	0xba60015b	-0.0008545124
87	0x3eec229d	0.46120158
88	0x3e9481e2	0.29005343
89	0xbb978b17	-0.004624735
90	0xbe7669fb	-0.24063866
91	0xbe82d7b7	-0.25555202
92	0x3b368821	0.0027852135
93	0x3949f4e3	0.00019260081
94	0xbb442d31	-0.0029934163
95	0x3b664fc8	0.0035142768
96	0x3b2e145e	0.0026562433
97	0x3b792776	0.0038017905
98	0x37bd3400	2.255477e-05
99	0x3ddd68d8	0.10811013
100	0x3e4da506	0.20082483
101	0x3b089192	0.002083872
102	0xba580ca0	-0.00082416274
103	0x3b56c7b9	0.0032772853
104	0xbf0e18a0	-0.55506325

bias f4 [21]
0	0x39847bac	0.00025269145
1	0x3b194931	0.0023389573
2	0xbf329c1d	-0.6976946
3	0x3ebf880b	0.3740848
4	0x3b81d86e	0.003962568
5	0xbf18fc7d	-0.59760267
6	0xba6121ab	-0.0008588086
7	0x3ef70dd1	0.4825273
8	0xbec739f2	-0.38911396
9	0xbb93995b	-0.0045043654
10	0x3e6d70e6	0.23187599
11	0x3eef13ea	0.4669488
12	0x3fd3876e	1.6525705
13	0x3e8363de	0.2566213
14	0x3ab22866	0.0013592362
15	0x3b65fa59	0.0035091846
16	0x3b577d96	0.0032881252
17	0x3b86c258	0.004112523
18	0xb8c39e40	-9.327801e-05
19	0xba8366ea	-0.0010025178
20	0x3b5d84d4	0.0033801096
