iterative_k_clustering_breast_cancer/second_algorithm_results/cluster_1/training_results/model.pt (torch, 19539 bytes, 4 tensors)

weight f4 [5, 399]
-0.00014085749 7.151674e-05 0.00014346895 0.00013030678 -0.00014546896 2.0531137e-05 0.00016109188 0.00019204723
-6.065666e-05 7.4176525e-05 0.00014180323 -0.0001845899 0.4687787 -5.2578296e-05 -2.6700705e-05 0.00023296324
-8.517364e-05 -1.3071913e-05 0.00010559344 0.00016253261 5.9268e-05 0.00014970495 0.00018101496 -0.0001143156
8.022296e-05 -0.00015087223 -0.00016095676 1.7431477e-05 5.1363037e-05 -0.00013721462 -0.00012457251 5.8569465e-05
0.00018174062 -0.00010128933 -3.6092402e-05 1.2085686e-05 1.2890523e-06 -0.00010033695 0.00011731728 8.2179875e-05
0.00023880141 0.000102364385 4.3317064e-05 0.1019857 0.00014684792 -7.901032e-05 0.00018165617 3.3769596e-05
-8.934332e-05 0.00018074496 0.00016426673 0.00011286663 2.7406262e-05 -4.129116e-05 1.2079072 -0.0001353708
-2.7595146e-05 -0.00018637635 -0.00012106293 0.0001239313 -0.0001386279 -6.9974485e-05 0.00015114155 5.463953e-07
-4.224472e-05 0.00018440816 -9.5089796e-05 0.00010345236 -0.00019212418 5.1566327e-05 -0.00018885864 0.00011581267
0.00020065323 -8.80329e-05 0.00019153509 -0.00018556758 0.0002501426 2.2506298e-05 -1.1625249e-05 -4.8513903e-05
0.00012887822 0.000118536045 -1.8098217e-07 0.00011863053 0.00010850378 8.5632535e-05 -0.0001053037 -6.528452e-05
-0.00015314482 -0.00017110254 6.6888446e-05 -0.0001302212 4.756103e-05 0.00014031726 0.00030309687 -0.000102758684
0.00020306486 1.6202423e-05 0.00020630485 0.00012241131 -3.8740007e-05 0.00016014115 -0.0001981329 0.63498354
6.7741086e-05 0.00010466695 -3.2439086e-05 -7.423152e-05 4.4963526e-05 0.00013312156 -9.865679e-05 -0.00011973201
0.000103564555 -0.00011364026 0.00014931751 4.486197e-05 0.00010749744 0.00018392029 -0.00010929693 0.00014321963
-0.00012933197 -0.000108831926 -8.362759e-05 -0.00012033098 0.00012547377 -0.0001621977 9.320985e-05 -6.371031e-05
0.00016491665 -6.7074434e-05 1.1290591 2.079799e-05 0.00016361478 6.090921e-05 0.00012446733 -9.767269e-05
0.00010805113 -7.5717806e-05 0.00012227832 -6.8183e-06 -0.00010292283 -5.260929e-05 -3.30021e-05 0.00013236319
-9.338914e-05 6.4202264e-05 -9.41538e-06 -0.00017980601 0.00019188077 -4.477652e-05 8.713172e-05 1.6513513e-05
0.0001573617 -7.65243e-06 -0.00010759807 -1.2760574e-07 0.00020634197 0.00019204941 -9.7065364e-05 -9.126727e-05
6.041478e-05 -0.000101660145 -6.0745195e-05 0.00020978638 8.8220666e-05 9.36928e-05 1.8476625e-05 5.6154808e-05
0.00020482764 -3.206992e-05 -7.3702846e-05 0.00014813441 -6.543768e-05 5.6325356e-05 -0.00017555835 4.8544884e-05
2.6141366e-05 -9.365125e-05 0.00020588531 0.00020194644 -4.1164603e-06 -0.00010685461 0.00012712156 -0.0001558603
-0.00010758781 6.9971284e-06 -3.4630997e-05 0.5758226 -2.2699776e-05 0.00012213201 -0.00012607982 0.00012077372
0.00017088806 -0.00015479454 -5.574245e-05 0.20184396 0.956705 -8.400282e-05 9.2647315e-05 -0.0001773373
0.00013596016 5.4829186e-05 -9.4368545e-05 0.00013564079 -1.7524668e-05 -5.8524165e-06 6.90811e-05 -3.5469406e-05
-9.4752584e-05 0.00013193412 -2.7274276e-05 -0.000107961445 0.00011534606 -0.0001870682 0.00013346258 -0.00018747222
8.5765176e-05 2.5861693e-05 -0.00014744664 1.1517623e-05 -9.884559e-05 6.608099e-05 0.00014471615 -0.0001736292
9.464666e-05 -1.6484526e-05 0.00018953485 -5.0423492e-05 0.29881975 -2.8634895e-05 1.8891238e-05 -7.285047e-05
-9.65581e-05 -0.00016897405 1.170655e-05 7.427385e-05 -1.9366693e-05 4.4770524e-05 -6.7715446e-06 2.8918235e-05
1.33661815e-05 0.00012571918 0.00015413425 0.00017306469 -7.446173e-05 0.00019685905 3.0059746e-05 -5.0007962e-05
0.00021154786 -3.8859696e-05 4.257371e-05 0.00018838228 0.00014043048 2.9271789e-05 -0.00015546342 -5.435117e-05
00000000: 25b3 13b9 42fb 9538 2770 1639 f6a2 0839
00000010: 0789 18b9 483a ac37 c6ea 2839 4960 4939
00000020: 9869 7eb8 388f 9b38 04b1 1439 798e 41b9
00000030: c303 f03e 8487 5cb8 54fb dfb7 9847 7439
00000040: 409f b2b8 704f 5bb7 0c72 dd38 846d 2a39
00000050: 8896 7838 1efa 1c39 d5ce 3d39 b8bc efb8
00000060: 603d a838 7533 1eb9 80c6 28b9 d039 9237
00000070: a46e 5738 45e1 0fb9 ae9f 02b9 7ca8 7538
00000080: a091 3e39 4c6b d4b8 ec61 17b8 a0c3 4a37
00000090: 8003 ad35 fd6b d2b8 3c08 f638 fc57 ac38
000000a0: c466 7a39 76ac d638 58af 3538 e1dd d03d
000000b0: 30fb 1939 58b2 a5b8 f57a 3e39 d4a3 0d38
000000c0: d45d bbb8 5b86 3d39 043f 2c39 d0b2 ec38
000000d0: 80e6 e537 0c30 2db8 b49c 9a3f 53f2 0db9
000000e0: 207c e7b7 056e 43b9 2ae3 fdb8 8ef3 0139
000000f0: a55c 11b9 44bf 92b8 c07b 1e39 00ac 1235
00000100: ec2f 31b8 b05d 4139 f26a c7b8 90f4 d838
00000110: f174 49b9 ec48 5838 5b08 46b9 74e0 f238
00000120: 7166 5239 4e9e b8b8 cfd6 4839 eb94 42b9
00000130: 9225 8339 e8cb bc37 100a 43b7 687b 4bb8
00000140: 7c23 0739 8e96 f838 0054 42b4 48c9 f838
00000150: 868c e338 9e95 b338 7ed6 dcb8 5ce9 88b8
00000160: 8095 20b9 fd69 33b9 7646 8c38 fd8b 08b9
00000170: 447c 4738 2122 1339 f9e8 9e39 2680 d7b8
00000180: cfed 5439 70ea 8737 8953 5839 895b 0039
00000190: c47c 22b8 90eb 2739 e5c1 4fb9 488e 223f
000001a0: 3810 8e38 a480 db38 340f 08b8 beac 9bb8
000001b0: 3897 3c38 8c96 0b39 f6e5 ceb8 a218 fbb8
000001c0: cc30 d938 2652 eeb8 1d92 1c39 2c2a 3c38
000001d0: 4070 e138 bada 4039 5836 e5b8 3a2d 1639
000001e0: 499d 07b9 b23c e4b8 3861 afb8 345a fcb8
000001f0: 9c91 0339 9d13 2ab9 a879 c338 369c 85b8
00000200: 7aed 2c39 50aa 8cb8 0285 903f 5877 ae37
00000210: 0290 2b39 c478 7f38 7283 0239 a0d5 ccb8
00000220: 8299 e238 b0ca 9eb8 d637 0039 c0c8 e4b6
00000230: 46d8 d7b8 cca8 5cb8 bc6b 0ab8 f9ca 0a39
00000240: ead9 c3b8 54a4 8638 c0f6 1db7 4f8a 3cb9
00000250: 9a33 4939 6cce 3bb8 7cba b638 8086 8a37
00000260: 7601 2539 f062 00b7 46a6 e1b8 0004 09b4
00000270: 805d 5839 df60 4939 928f cbb8 be66 bfb8
00000280: e065 7d38 6032 d5b8 a8c8 7eb8 1afa 5b39
00000290: 1c03 b938 f07c c438 40fe 9a37 c487 6b38
000002a0: 00c7 5639 d082 06b8 ea90 9ab8 8754 1b39
000002b0: 963b 89b8 e43e 6c38 1616 38b9 ac9c 4b38
000002c0: 284a db37 a266 c4b8 ebe2 5739 96c1 5339
000002d0: 2020 8ab6 2217 e0b8 ef4b 0539 6e6e 23b9
000002e0: c4a0 e1b8 e0c8 ea36 c040 11b8 1c69 133f
000002f0: 666b beb7 9010 0039 4b34 04b9 e647 fd38
00000300: 6a30 3339 5850 22b9 00cd 69b8 2fb0 4e3e
00000310: 9eea 743f ac2a b0b8 a64b c238 9ef3 39b9
00000320: 8790 0e39 64f8 6538 bae7 c5b8 cc3a 0e39
00000330: f001 93b7 e05f c4b6 a2df 9038 fcc4 14b8
00000340: e8b5 c6b8 cc57 0a39 10cb e4b7 5c69 e2b8
00000350: f2e5 f138 bd27 44b9 17f2 0b39 3194 44b9
00000360: d4dc b338 90f1 d837 e89b 1ab9 d03b 4137
00000370: 524b cfb8 f694 8a38 f2be 1739 3c10 36b9
00000380: 0a7d c638 4048 8ab7 e0bd 4639 d07d 53b8
00000390: e7fe 983e f834 f0b7 a078 9e37 4cc7 98b8
000003a0: 3c7f cab8 a02e 31b9 4067 4437 78c3 9b38
000003b0: a875 a2b7 fcc7 3b38 2037 e3b6 7095 f237
000003c0: 503f 6037 7cd3 0339 199f 2139 b378 3539
000003d0: 5628 9cb8 f36b 4e39 d028 fc37 a4bf 51b8
000003e0: f2d2 5d39 48fd 22b8 2c91 3238 7c88 4539
000003f0: 8540 1339 b08c f537 e503 23b9 20f7 63b8

bias f4 [5]
0.20917623 -1.3373415 2.3384328 2.0705047 -2.0809095
00000000: 4b32 563e 022e abbf e2a8 1540 2683 0440
00000010: 9f2d 05c0

weight f4 [379, 5]
-0.00012469581 0.00013942528 0.00012391954 8.994198e-05 4.4632834e-05 0.00010456485 0.0002152256 -0.00019583941
-0.00021317673 0.00019886975 -0.66309446 -0.84155095 0.50908875 0.04350905 -0.3053708 0.000108522494
0.000103911385 5.2231568e-05 -0.00011277251 0.00025642535 0.000112646856 3.5049306e-05 -2.3448054e-05 -0.00017149711
0.00020627645 -6.3901185e-05 3.629006e-05 0.00033499935 0.0001277319 -0.00030870084 -7.6392505e-05 -8.655508e-05
0.00013691827 3.1637566e-05 7.434566e-05 9.532814e-07 0.00016612411 0.000120295415 -0.00015922528 3.8199534e-05
0.00013993062 -9.7582975e-05 0.21306902 0.00019496541 -0.00021440754 6.567962e-05 -0.00024540932 0.0001205924
-7.937287e-05 3.147484e-05 0.00020084751 -8.704093e-05 3.0457086e-05 0.00011178329 7.387926e-05 -0.00022256383
0.00012786996 9.243519e-05 0.00018211664 -0.00014134288 0.00018821926 -0.41152018 0.49292687 0.04585497
-0.63297236 -0.00016561762 -0.00016150199 -1.2642555e-05 0.00033102994 4.5378074e-06 0.00020014078 -2.3518121e-05
0.04559722 0.12549171 -0.27458152 -2.8499686e-05 1.6356964e-05 7.781449e-05 0.00015573282 0.00015003148
-5.0269766e-05 -0.00013667818 0.0002374949 -2.3424705e-05 -0.00016180525 8.6203596e-05 -2.735207e-06 0.00017790815
3.059872e-05 7.645108e-05 -4.2050335e-05 -0.09418213 0.06973213 0.06684102 -0.39158237 0.08953525
-0.0002943102 0.010938238 0.0049867546 -0.004447899 9.189768e-05 4.2101718e-05 0.00014702254 0.00013395594
-0.00012995326 0.00014452168 -5.5683573e-05 -0.0002600915 6.755715e-05 0.00016138576 -7.83195e-05 0.000107344706
-0.00025798907 -0.00016103954 0.00028159426 -1.5383528e-05 -0.00015771 -0.00015318673 -0.00018421172 6.890659e-05
0.00014098303 0.00026174486 -8.981717e-05 -0.00019641138 0.00013042189 0.00019499194 -3.3774748e-05 0.00010853863
4.02749e-05 -0.00017735781 1.6940743e-05 4.596646e-05 -0.00020772142 -0.000101147496 -6.818259e-05 0.00012208978
1.7112732e-05 0.00028932854 -6.808986e-05 -3.968439e-05 -7.897295e-05 -5.6725396e-05 -4.9575596e-05 0.0002342299
8.576288e-05 9.11011e-06 0.00022450733 1.0100965e-05 -8.904854e-05 3.496607e-06 6.3514162e-06 -4.7800844e-05
5.679518e-05 -0.00016385788 -7.652807e-05 8.751366e-05 -6.050644e-05 -0.00017525541 -0.00028315184 0.00018010927
0.00021969226 9.266344e-05 0.0001132119 0.00026189798 -9.7081494e-05 0.00011428313 0.00020529903 9.353156e-05
-0.0002155853 2.103021e-06 0.00018164916 4.1182575e-05 -0.00011754602 0.00017306037 3.4680415e-06 7.459445e-05
-6.351313e-05 0.00018610751 -0.0001459362 -3.5368124e-05 0.00014583612 9.520291e-05 0.00020459827 0.00021881217
-0.000216573 2.1054613e-05 -0.00027027985 0.08565618 0.061660364 -0.12306294 2.8700437e-05 0.0001378586
8.524049e-05 -0.00022389974 0.0002299447 5.342356e-05 -8.0135476e-05 8.1363876e-05 1.6768623e-05 7.31785e-05
0.0001363669 -0.00019320918 -4.9289083e-06 -0.00011627516 7.274999e-05 -0.000114580966 0.0002304558 -0.00023542525
-0.00015650387 2.4325833e-05 0.000141524 4.282598e-05 8.141552e-05 -6.7462184e-05 -1.5084675e-05 -0.6972037
-0.6716168 0.12807482 0.3069344 -0.00019373992 7.321774e-05 -2.9719042e-05 9.7203185e-05 -0.0002066339
5.4442484e-05 -7.1303e-05 0.00022424589 3.840853e-05 7.73426e-05 -4.7096255e-05 6.788374e-05 0.00016569292
-0.0001992169 -9.2142305e-05 -0.00010090131 0.00013724805 -0.00011994538 -0.00015090728 -0.00021967539 7.73154e-05
-0.00016104666 7.52108e-05 -0.00012542124 -0.00017464465 -2.413139e-05 0.00015775766 -0.00016456009 -0.00023956933
-0.00024238028 -0.00010579302 4.6842644e-05 2.5439513e-06 -0.0001456388 -3.6247511e-06 0.00020867995 -7.023268e-05
00000000: c7c0 02b9 b032 1239 66f0 0139 3c9f bc38
00000010: 2434 3b38 d449 db38 2fae 6139 3e5a 4db9
00000020: 3188 5fb9 b187 5039 8fc0 29bf e26f 57bf
00000030: a453 023f 8c36 323d 9059 9cbe 9296 e338
00000040: 00eb d938 3813 5b38 4880 ecb8 d470 8639
00000050: d23c ec38 e801 1338 50b2 c4b7 e8d3 33b9
00000060: ea4b 5839 b002 86b8 2836 1838 daa2 af39
00000070: c5ef 0539 20d9 a1b9 ea34 a0b8 e884 b5b8
00000080: b891 0f39 94b2 0438 06ea 9b38 00e5 7f35
00000090: 9a31 2e39 1c47 fc38 b6f5 26b9 7038 2038
000000a0: 57ba 1239 76a5 ccb8 c42e 5a3e a16f 4c39
000000b0: 96d2 60b9 7abd 8938 48aa 80b9 8de6 fc38
000000c0: fc74 a6b8 da03 0438 989a 5239 be89 b6b8
000000d0: 187e ff37 326d ea38 a0ef 9a38 0660 69b9
000000e0: d514 0639 c4d9 c138 90f6 3e39 7135 14b9
000000f0: b95c 4539 c6b2 d2be e960 fc3e 6cd2 3b3d
00000100: 7a0a 22bf a4a9 2db9 dc58 29b9 5c1b 54b7
00000110: 168e ad39 7843 9836 e2dc 5139 c848 c5b7
00000120: 27c4 3a3d e680 003e f395 8cbe 9c12 efb7
00000130: 5036 8937 5630 a338 364c 2339 c551 1d39
00000140: c0d8 52b8 4551 0fb9 0d08 7939 2c80 c4b7
00000150: 44aa 29b9 34c8 b438 808e 37b6 db8c 3a39
00000160: 2057 0038 5c54 a038 345f 30b8 90e2 c0bd
00000170: b8cf 8e3d f2e3 883d 7c7d c8be 425e b73d
00000180: a54d 9ab9 4c36 333c ee67 a33b aebf 91bb
00000190: 31b9 c038 6096 3038 102a 1a39 8676 0c39
000001a0: 1044 08b9 be8a 1739 c88d 69b8 e45c 88b9
000001b0: 78ad 8d38 a939 2939 763f a4b8 401e e138
000001c0: b542 87b9 b9dc 28b9 f1a2 9339 e00b 81b7
000001d0: f55e 25b9 c0a0 20b9 f528 41b9 f281 9038
000001e0: d8d4 1339 cd3a 8939 3a5c bcb8 c7f3 4db9
000001f0: dcc1 0839 c076 4c39 5ca9 0db8 3c9f e338
00000200: d8ec 2838 20f9 39b9 f81b 8e37 1ccc 4038
00000210: cbcf 59b9 261f d4b8 40fd 8eb8 3a05 0039
00000220: 508d 8f37 05b1 9739 77cb 8eb8 ca72 26b8
00000230: 489e a5b8 6eec 6db8 64ef 4fb8 9c9b 7539
00000240: 98db b338 a0d7 1837 ba69 6b39 5077 2937
00000250: 92bf bab8 40a7 6a36 401e d536 c47d 48b8
00000260: 5c37 6e38 44d1 2bb9 b27d a0b8 8a87 b738
00000270: 4cc8 7db8 c4c4 37b9 ff73 94b9 b7db 3c39
00000280: 315d 6639 4e54 c238 2d6c ed38 5a4f 8939
00000290: 3b98 cbb8 4aab ef38 8a45 5739 6026 c438
000002a0: bd0e 62b9 a021 0d36 1379 3e39 74bb 2c38
000002b0: 0a83 f6b8 8a77 3539 80bc 6836 976f 9c38
000002c0: 5a32 85b8 db25 4339 7306 19b9 3c58 14b8
000002d0: 96eb 1839 aca7 c738 6e89 5639 f270 6539
000002e0: df17 63b9 709e b037 59b4 8db9 826c af3d
000002f0: 948f 7c3d 6c08 fcbd b8c1 f037 238e 1039
00000300: 24c3 b238 a1c6 6ab9 4f1d 7139 1c13 6038
00000310: 680e a8b8 e6a1 aa38 58aa 8c37 6877 9938
00000320: b6fd 0e39 3298 4ab9 0063 a5b6 c0d8 f3b8
00000330: 5a91 9838 304b f0b8 82a6 7139 7cdc 76b9
00000340: 301b 24b9 540f cc37 0f66 1439 0ca0 3338
00000350: a0bd aa38 7c7a 8db8 3014 7db7 f17b 32bf
00000360: 14ef 2bbf 0c26 033e 8126 9d3e aa26 4bb9
00000370: 7a8c 9938 284d f9b7 90d9 cb38 ddab 58b9
00000380: 2c59 6438 8288 95b8 8c23 6b39 d818 2138
00000390: fe32 a238 3889 45b8 ce5c 8e38 dbbd 2d39
000003a0: e1e4 50b9 863c c1b8 fa9a d3b8 3eea 0f39
000003b0: 308b fbb8 dd3c 1eb9 aa58 66b9 6424 a238
000003c0: a2de 28b9 7eba 9d38 8283 03b9 d120 37b9
000003d0: c46d cab7 c06b 2539 c38d 2cb9 e734 7bb9
000003e0: 7627 7eb9 32dd ddb8 e878 4438 c0b8 2a36
000003f0: 9eb6 18b9 c040 73b6 19d1 5a39 e249 93b8

bias f4 [379]
7.0371985e-05 -0.000115931354 0.28595057 5.7078883e-05 -0.0002581238 0.006317034 0.00010925585 -7.7595905e-06
0.00032159543 5.506812e-05 -3.1465577e-05 -5.8900216e-05 0.9031259 0.00020933143 0.16884282 0.00015972594
0.00017819743 0.00020741567 0.61855215 0.30290574 2.4664107e-05 -0.00027381687 -0.00027581782 -0.00012368882
3.242056e-05 0.000105105646 8.791538e-05 2.7350718e-05 0.000115910465 1.8716055e-05 -9.7936914e-05 -0.00018314461
0.0002362885 5.299579e-05 8.553002e-05 7.078008e-06 0.00016843453 0.60639286 -3.4110053e-05 0.0001433771
-0.00012479314 -0.00023096826 3.129999e-05 1.0098724 0.0001008817 -0.00018880269 -9.622687e-05 1.818088e-05
5.9135506e-05 -1.1346259e-05 3.6489117e-05 -0.00015062754 7.626094e-05 6.2231557e-06 0.9183226 3.4029334e-05
-0.00012353856 -5.3789307e-05 -0.00012377554 4.6223868e-05 0.22389825 0.00033845718 2.4091714e-05 0.0002365844
0.000107056636 0.13193902 -0.0001793693 -0.00015005672 -0.00019519593 0.00021736516 -0.0001318632 -0.0002363957
-0.00010194444 9.815683e-05 -4.9351947e-05 0.00016313576 -0.0001292933 9.422471e-05 -2.4579742e-05 -5.2283656e-05
0.00014728153 0.0001431947 9.857962e-06 1.0419411e-05 -0.00011757403 -5.0878592e-05 -0.00024626905 0.3261503
2.3024506e-05 -5.683709e-05 -0.00014745684 -9.928917e-06 9.570253e-05 0.00016365897 0.9417687 0.0014377346
-9.980811e-05 -0.00020096223 0.00015104694 -0.00013773183 8.099259e-05 1.560725e-05 -0.00020150555 1.2531725
-0.00012290372 -0.00016563816 -0.0001752073 3.5197445e-06 -0.00024004206 0.18758005 0.00012652112 -0.00021592993
-0.0001120254 -1.3994664e-05 -3.701361e-05 -2.668488e-05 0.00017984965 -2.7056332e-05 7.084849e-05 6.033483e-05
3.859657e-05 0.17653078 0.3087764 -2.2483771e-05 4.4966248e-05 5.28589e-05 -0.0001675412 -0.00021448368
-0.00022818118 -0.00016236583 1.0719912 0.00015220117 0.00011986286 0.000105014915 -1.1023745e-05 5.3795775e-06
-0.00024787898 -0.0002571154 -0.00014115954 -5.9781385e-05 -5.4084478e-05 5.525384e-05 -5.3795695e-05 7.416018e-05
6.455423e-05 -4.800815e-05 -0.00020742802 -4.922574e-05 -0.0001528572 5.1362862e-05 -2.391811e-05 -7.4170457e-06
-7.8521494e-05 -0.00022489339 -0.00019172321 -0.00015366096 8.582271e-05 -0.00011247974 -9.3742565e-05 6.174274e-05
-5.8103396e-05 0.00014070762 0.00015728001 -5.010562e-05 -0.00017058387 -4.731622e-05 -0.00020998869 -8.1313156e-05
3.202047e-05 -0.00013667703 -0.00014540233 0.0001560206 5.3070326e-05 -7.176242e-05 0.00013818977 -0.00023402038
0.00016205222 0.00011582805 0.00023677974 4.0157538e-05 0.00031092414 0.00016467087 -3.2985816e-05 -0.0001868161
0.00021821244 0.279265 -0.00017217583 0.8843762 0.6506366 4.5278575e-05 0.00011692809 3.0813244e-05
-0.00028415245 2.487401e-05 -0.00014763729 0.34090975 0.7412347 6.474671e-05 4.414264e-05 -4.1970736e-05
0.00012502386 -0.0001758492 -0.00012317965 -0.00022204437 -7.1420305e-05 -3.2085227e-05 -5.4630902e-05 0.40479413
0.00010807335 0.00015077753 -8.431639e-05 -7.474802e-05 -3.778824e-05 -0.00016259978 9.142551e-05 -0.00023708527
0.00017797446 -0.00018373274 -0.00011421964 -5.7194266e-05 0.00024863053 -5.0009126e-05 5.2099538e-05 9.626543e-05
-0.00017570094 -0.0002321513 9.539565e-05 -0.00020223926 1.0571246 0.59712183 0.00013724744 -8.938376e-05
0.00012057653 0.00011402785 0.00020854971 0.0006846279 7.8880905e-05 0.0002041721 -0.00013480555 -0.00014878096
0.022813808 -5.8896607e-05 4.6218993e-05 -8.601608e-05 -2.8888186e-05 3.8302373e-05 -0.00020060754 -2.3927147e-05
0.00017082086 2.8512848e-05 1.1122247e-05 -1.0616743e-05 -0.00019447743 0.0001278013 -5.991591e-05 3.7544305e-05
00000000: ac94 9338 2c20 f3b8 1d68 923e fc67 6f38
00000010: ca54 87b9 1fff ce3b 4a20 e538 302f 02b7
00000020: cf9b a839 f2f8 6638 e8f9 03b8 a00b 77b8
00000030: 4233 673f fa7f 5b39 22e5 2c3e 1b7c 2739
00000040: 82da 3a39 b87d 5939 6f59 1e3f 7616 9b3e
00000050: c4e5 ce37 148f 8fb9 a49b 90b9 77b2 01b9
00000060: 50fb 0738 2a6c dc38 365f b838 386f e537
00000070: f514 f338 6c00 9d37 7b63 cdb8 820a 40b9
00000080: 36c4 7739 cc47 5e38 945e b338 a07f ed36
00000090: cd9d 3039 903c 1b3f 6411 0fb8 7f57 1639
000000a0: e7da 02b9 1230 72b9 1c48 0338 8043 813f
000000b0: 7390 d338 56f9 45b9 68cd c9b8 2483 9837
000000c0: 4408 7838 d05b 3eb7 e40b 1938 c6f1 1db9
000000d0: 48ee 9f38 80d0 d036 3117 6b3f b8ba 0e38
000000e0: 218a 01b9 d49b 61b8 bec9 01b9 80e0 4138
000000f0: 9545 653e f472 b139 9018 ca37 a413 7839
00000100: 9883 e038 061b 073e 1415 3cb9 8b58 1db9
00000110: 82ad 4cb9 84ec 6339 c244 0ab9 fde0 77b9
00000120: 01cb d5b8 8cd9 cd38 40ff 4eb8 6c0f 2b39
00000130: e892 07b9 829a c538 9830 ceb7 264b 5bb8
00000140: 966f 1a39 8926 1639 a063 2537 08cf 2e37
00000150: 1492 f6b8 7966 55b8 ac1d 81b9 2cfd a63e
00000160: c024 c137 5c64 6eb8 a59e 1ab9 6094 26b7
00000170: e8b3 c838 df9b 2b39 c117 713f 5e72 bc3a
00000180: 1250 d1b8 63b9 52b9 5b62 1e39 1b6c 10b9
00000190: 91da a938 50ec 8237 3c4b 53b9 f567 a03f
000001a0: b7df 00b9 28af 2db9 dab7 37b9 c034 6c36
000001b0: cdb3 7bb9 fc14 403e c1aa 0439 406b 62b9
000001c0: 2eef eab8 a0ca 6ab7 103f 1bb8 58d9 dfb7
000001d0: 0696 3c39 08f7 e2b7 7e94 9438 0810 7d38
000001e0: c0e2 2138 7cc4 343e f117 9e3e 889b bcb7
000001f0: 249a 3c38 d0b4 5d38 00ae 2fb9 06e7 60b9
00000200: eb43 6fb9 bf40 2ab9 0237 893f 3198 1f39
00000210: e25e fb38 743b dc38 a0f2 38b7 3882 b436
00000220: c1f5 81b9 72cd 86b9 3a04 14b9 c6bd 7ab8
00000230: c4d8 62b8 5cc0 6738 b0a2 61b8 7286 9b38
00000240: 4a61 8738 5c5c 49b8 0981 59b9 bc77 4eb8
00000250: 4b48 20b9 746e 5738 c0a3 c8b7 f0df f8b6
00000260: e8ab a4b8 5cd1 6bb9 4f09 49b9 0d20 21b9
00000270: b7fb b338 1ae3 ebb8 a897 c4b8 e27b 8138
00000280: 0cb4 73b8 ea8a 1339 88eb 2439 8028 52b8
00000290: c2de 32b9 6875 46b8 6930 5cb9 ab86 aab8
000002a0: b84d 0638 f650 0fb9 2477 18b9 7699 2339
000002b0: d497 5e38 287f 96b8 09e7 1039 5e63 75b9
000002c0: 90ec 2939 b6e8 f238 1448 7839 d46e 2838
000002d0: 8803 a339 80ab 2c39 405a 0ab8 11e4 43b9
000002e0: f5cf 6439 d2fb 8e3e 198a 34b9 7b66 623f
000002f0: 1f90 263f 80e9 3d38 4a37 f538 783d 0138
00000300: 4cfa 94b9 88a8 d037 15cf 1ab9 b98b ae3e
00000310: 8fc1 3d3f a0c8 8738 cc25 3938 bc09 30b8
00000320: d618 0339 2964 38b9 c929 01b9 95d4 68b9
00000330: 7cc7 95b8 4093 06b8 7c23 65b8 2d41 cf3e
00000340: 70a5 e238 091a 1e39 04d3 b0b8 0ac2 9cb8
00000350: d07e 1eb8 8c7f 2ab9 b2bb bf38 189a 78b9
00000360: a89e 3a39 62a8 40b9 3489 efb8 e0e3 6fb8
00000370: a05a 8239 e4c0 51b8 7485 5a38 1ce2 c938
00000380: 5d3c 38b9 a46d 73b9 260f c838 3010 54b9
00000390: dc4f 873f fadc 183f 14ea 0f39 8a73 bbb8
000003a0: 08de fc38 3c22 ef38 23ae 5a39 9a78 333a
000003b0: dd6c a538 0817 5639 975a 0db9 1602 1cb9
000003c0: 06e4 ba3c c007 77b8 44db 4138 8863 b4b8
000003d0: e854 f2b7 dca6 2038 2d5a 52b9 28b7 c8b7
000003e0: 601e 3339 e02e ef37 b099 3a37 901e 32b7
000003f0: a3ec 4bb9 6602 0639 384e 7bb8 e478 1d38
