iterative_k_clustering_AML/training_on_clusterings_second_algorithm/K_3/cluster_2/training_results/cluster_1_model.pt (torch, 3855 bytes, 4 tensors)

weight f4 [5, 40]
000000 d5 de 3e 3a d4 01 94 ba 23 f7 7f 3f 04 f9 73 bb
       0.00072811294 -0.0011292049 0.99986476 -0.0037227282
000010 ee 00 58 3b 2f 41 8a bb c4 07 73 3b 17 24 ab 39
       0.0032959539 -0.0042191963 0.0037083486 0.0003264255
000020 ee b3 10 3f db e1 3b ba c8 e0 59 3b 1b 76 18 40
       0.5652455 -0.0007167139 0.0033245552 2.3822086
000030 f3 75 dc bf c2 57 6d 3b 64 a9 65 3b 38 09 32 ba
       -1.7223495 0.0036215638 0.0035043592 -0.0006791535
000040 66 e0 47 3f a4 a7 b7 bb 92 70 0c 3f 13 2b 2c 3a
       0.7807678 -0.005604701 0.5485927 0.0006567698
000050 1a e7 b1 bf 26 01 10 bf c9 df 83 3e 21 59 e1 3b
       -1.3898652 -0.5625175 0.25756672 0.00687708
000060 d5 8e 61 3a a9 0a d5 b9 84 a5 6e bb 55 28 51 bb
       0.00086043525 -0.00040634468 -0.0036414573 -0.003191491
000070 c4 5a 7f 3b e4 93 72 3b 4b 2d 5a 38 04 18 66 bb
       0.0038964013 0.003701442 5.2017433e-05 -0.003510953
000080 d5 72 33 3a ea e7 a6 3a a4 b6 47 3b eb 1a 87 bb
       0.00068454194 0.0012733911 0.0030473853 -0.004123082
000090 d5 98 17 3a d5 01 66 ba d2 e6 85 3b f5 ea 2b 3b
       0.00057829666 -0.00087740767 0.004086354 0.0026232575
0000a0 f5 2e 03 bb 16 1b 8b 3b 84 5a 00 3b 04 52 71 bb
       -0.0020017002 0.0042451723 0.0019585202 -0.0036822567
0000b0 a0 e6 19 3b 5d 55 83 bb b7 6f 64 3b d6 5c a7 3a
       0.002348341 -0.004007979 0.0034856626 0.0012768756
0000c0 21 8e 87 3b 5d 32 84 3b af a0 fc 3a fc 9c 7f 3b
       0.004136816 0.004034324 0.0019273962 0.0039003482
0000d0 a0 19 23 3b d5 d5 86 bb d5 be 42 3a 7f 84 ea 38
       0.00248871 -0.0041148462 0.0007428949 0.00011182669
0000e0 98 0c 52 bb 2a af 6a 3a ae 51 fe 3a 78 b6 0a 3b
       -0.0032050963 0.0008952493 0.0019403005 0.0021165889
0000f0 01 71 7d 3b 19 6d 48 3b f9 6d 37 3b 58 59 e4 ba
       0.0038672092 0.0030582605 0.0027989133 -0.0017421646
000100 09 14 6f ba c8 82 ae 3a 65 a1 a5 b8 c2 05 80 bb
       -0.0009120112 0.0013314122 -7.897875e-05 -0.0039069364
000110 d5 53 3c ba d5 84 7c 3a 47 b4 45 bb 55 36 12 ba
       -0.0007184123 0.00096328306 -0.0030167268 -0.0005577554
000120 ac cc 39 bb 22 1a 86 bb 96 67 87 bb aa 0e b2 ba
       -0.0028350754 -0.0040924707 -0.0041322215 -0.0013584692
000130 d5 1a 77 ba 42 87 8f 3b c4 7a 6a 3b 44 74 7c 3b
       -0.00094263005 0.0043801377 0.003577874 0.0038521448
000140 e4 da 5f 3b 00 19 a8 ba 30 80 5d 3f 9c 35 39 bb
       0.0034157569 -0.0012824833 0.86523724 -0.0028260713
000150 d0 71 dc ba e2 18 07 3f 97 b8 6d bb b1 2a 95 38
       -0.0016818587 0.52772343 -0.0036273354 7.1128256e-05
000160 43 a4 ca 3e bd 21 5f 3b 9d d4 89 bb 3d ee a8 bf
       0.39578447 0.003404721 -0.0042062537 -1.3197705
000170 c2 ce ee ba c3 82 49 3b 6c b2 3f 3b 21 0a 10 bb
       -0.0018219578 0.0030748106 0.0029250635 -0.0021978694
000180 5b a4 91 ba 20 10 21 3e e3 4c 35 bb f5 12 87 3c
       -0.0011111604 0.15728807 -0.0027664236 0.016488532
000190 c9 48 9d 3a 72 74 96 ba 63 d3 4e 3b f0 c4 8d ba
       0.0011999841 -0.0011478795 0.0031559102 -0.0010816138
0001a0 d5 61 4d ba f7 9d 5f 3b 53 77 4f 39 75 9f 58 bb
       -0.00078347075 0.0034121254 0.0001978551 -0.0033054028
0001b0 c4 ca 25 bb c4 47 92 3a f3 3d 88 bb d5 3e 67 3a
       -0.002529786 0.0011160304 -0.0041577755 0.00088213134
0001c0 d5 e1 7f 3a aa 30 9d 3a d5 db 21 ba b7 ef 6b bb
       0.00097611296 0.0011992652 -0.000617442 -0.0036001035
0001d0 4c e3 59 bb f3 7a 91 bb 6a 9b 82 3a d5 42 49 3a
       -0.0033247052 -0.0044397055 0.000996453 0.00076775
0001e0 d5 d0 72 3a 32 d5 c7 ba 58 ac 33 3f 5b 75 85 3b
       0.0009262686 -0.0015246032 0.7018485 0.0040728278
0001f0 56 2f 8b 3b e4 92 61 3a 2d 59 12 ba 15 78 90 3b
       0.0042475862 0.0008604957 -0.0005582746 0.004408846
000200 e3 55 4e bb c2 2e 31 bb 6b a3 64 bb 9e 74 04 3b
       -0.0031484298 -0.0027035926 -0.0034887444 0.002021111
000210 9d f1 32 bb c1 1f 01 3b 09 69 24 3a 9a 0f f6 ba
       -0.0027304657 0.0019702765 0.0006271755 -0.001877296
000220 46 3c 8c 3a 7f 52 23 39 70 9a 9d ba aa 74 c4 3e
       0.0010699115 0.00015575624 -0.0012024175 0.38370258
000230 e2 e3 4b bb fb 92 06 ba 1f 56 18 3b 1f 70 1f bb
       -0.003111117 -0.0005133596 0.0023244692 -0.0024328304
000240 a4 ff 78 3b a5 0e 87 38 c4 65 66 3b 84 e3 6e 3b
       0.003799417 6.4400294e-05 0.0035155872 0.0036451528
000250 d5 ba 7c 3a eb b2 91 bb 04 c9 76 bb 84 f7 9a ba
       0.0009640877 -0.0044463775 -0.0037656436 -0.0011823033
000260 f5 4d 46 bb ea 4a 88 3a a4 40 5a 3b 84 36 06 bb
       -0.0030258868 0.0010398303 0.003330269 -0.0020479271
000270 a9 54 ce b9 44 1c 26 bb c4 f0 70 3b 88 cd a6 ba
       -0.0003935446 -0.0025346437 0.0036764601 -0.0012726048
000280 19 84 ad 39 cc 32 02 39 f4 f7 92 39 04 bf 6e bb
       0.00033095552 0.0001241669 0.0002803203 -0.0036429772
000290 16 8f 5f 3b a6 c9 31 bb 65 91 ae 38 35 bb 87 3b
       0.0034112385 -0.0027128248 8.3240484e-05 0.00414219
0002a0 b1 a5 89 3b a8 ae d0 ba 7b ea 70 bb 18 af ba bd
       0.00420066 -0.0015921192 -0.0036760855 -0.09115428
0002b0 a2 99 0f bb 73 e8 8c bb 04 9e 3a bb 05 3d b4 3a
       -0.002191164 -0.004300171 -0.0028475532 0.0013751095
0002c0 a6 4c 88 ba 9a 07 8e 3b 19 8b 26 bb 7b 0d 0f 3b
       -0.001039882 0.0043344023 -0.0025412499 0.0021828103
0002d0 e3 87 29 bf c2 2a 47 bb 1e 84 d5 3a 3a 8e b7 ba
       -0.6622297 -0.0030390476 0.0016289984 -0.0014004179
0002e0 06 f0 85 bb 77 2d 7f 3b a2 73 8d 3b 1d 87 7f ba
       -0.004087451 0.0038937011 0.004316763 -0.00097476115
0002f0 f5 cf 1d 3b d5 62 32 ba 04 ba 70 3b d5 20 45 3a
       0.002408025 -0.0006804888 0.0036731968 0.0007519846
000300 d0 ff c8 39 c6 40 59 bb 86 4b 75 bb 86 6c 6d bb
       0.00038337568 -0.003315018 -0.0037429049 -0.0036228015
000310 00 95 5d b8 a8 6c cd ba b6 32 71 bb 9e 88 4a bb
       -5.2829273e-05 -0.0015672641 -0.0036803908 -0.0030904184

bias f4 [5]
000000 fa 95 31 bf 12 08 70 bf 7c 26 7a be e2 d5 0f 3f
       -0.6936947 -0.93762314 -0.24428743 0.56185734
000010 db 7c 93 bf
       -1.1522478

weight f4 [20, 5]
000000 6d b6 b3 ba cd 37 08 3f 41 0c 95 3b 5f 7e 13 bb
       -0.0013710983 0.53210145 0.00454858 -0.0022505743
000010 7b a3 69 3f f4 af c5 ba cf ed 9f bb 79 09 75 3e
       0.91265076 -0.0015082345 -0.004880644 0.23929395
000020 00 06 e4 3a b9 cd 16 3b c0 c0 b8 bf af 17 1e bb
       0.0017396808 0.0023010804 -1.4433823 -0.0024123003
000030 e8 57 8a be a9 3b cd ba 37 79 a4 3b 69 ea 91 b9
       -0.27020192 -0.0015658039 0.0050193327 -0.00027831204
000040 60 15 a3 3b ff 70 81 3b 6f 77 75 3b c5 10 8a 3f
       0.0049769133 0.0039502378 0.0037455221 1.0786368
000050 9a 10 f7 ba c1 c0 1d 3b 55 46 90 bb be 85 3f 39
       -0.0018849552 0.002407119 -0.0044029155 0.00018265002
000060 53 80 44 bb 39 b6 d7 3a 3c cf 5d be 89 ef 75 bb
       -0.0029983714 0.0016457505 -0.21661085 -0.0037526807
000070 bc ec 59 3f d8 6b 4c bf ea 06 fe ba 3d e4 8b 3e
       0.85126853 -0.79852057 -0.0019380723 0.2732257
000080 4a 9c a1 3a 30 0f 9a 3a 3d ed 73 3b 26 a4 31 be
       0.0012329903 0.0011753794 0.0037220262 -0.17347774
000090 7e da e5 3e d9 51 f9 b9 cb f0 90 bb 3e 1a 61 ba
       0.4489326 -0.00047553962 -0.004423236 -0.0008586979
0000a0 59 2f 5d ba 73 82 a3 bb 4f ce 23 3b 7c 7f 90 3b
       -0.00084375363 -0.004989916 0.0024994796 0.0044097286
0000b0 3c f6 b5 bf 7b 7b 53 3f 1a fe ab 3a d0 fa b3 be
       -1.421577 0.8261029 0.0013121993 -0.35152292
0000c0 f8 41 81 be ee 0b 93 3b 7a fa 70 ba 0c 23 86 ba
       -0.25245643 0.004487506 -0.00091925974 -0.0010233833
0000d0 69 36 95 3a 9e 6f 0c 3f 16 17 89 3b b4 e7 2b 3b
       0.0011384013 0.54857814 0.0041836603 0.0026230635
0000e0 3d de 76 bb 68 f5 06 40 e2 c4 89 3f 22 e3 d3 3a
       -0.0037669085 2.1087284 1.0763209 0.0016165713
0000f0 26 59 87 3e 6c 2b b8 b9 d7 ed d8 39 01 47 f8 3e
       0.26435202 -0.00035127567 0.00041375935 0.48491672
000100 5b c9 5f bf 08 21 a4 3b b2 cb 52 ba 50 21 3b bb
       -0.8741662 0.0050088204 -0.0008041217 -0.0028553791
000110 5e 7c 8e b9 91 17 ea 3a d1 d4 0c 3b 79 23 55 39
       -0.0002717701 0.0017859807 0.0021489153 0.00020326478
000120 f8 9f 44 3b 17 8b ad 3a 88 da d0 3e 4a 08 22 bb
       0.0030002575 0.0013240305 0.40791726 -0.002472418
000130 29 ce e1 ba db 66 82 b8 eb 7e 4b bb ef 52 74 bb
       -0.0017227578 -6.2180414e-05 -0.003105099 -0.0037280878
000140 49 b8 20 bb fe 40 b9 ba 6e 41 81 3b c0 25 4c b7
       -0.0024523905 -0.0014133749 0.0039445674 -1.2168137e-05
000150 af 81 97 bb 18 c6 ee b9 3e c5 6f b9 71 94 1f 3f
       -0.004623614 -0.0004554249 -0.00022866295 0.6233588
000160 22 f3 21 3b 61 ba 84 ba 31 31 fc b9 e8 a6 76 3b
       0.002471157 -0.0010126346 -0.00048101836 0.0037636105
000170 ac 2c 71 bb 61 2e fb be a7 99 1e bb e8 f7 90 3e
       -0.0036800308 -0.49058822 -0.002420047 0.28314137
000180 b5 8d b3 bb 72 f8 0c bf 83 ed e2 3d c4 b0 c9 be
       -0.0054795393 -0.550666 0.11080458 -0.39392674

bias f4 [20]
000000 a1 f9 68 3b 59 9c 25 3b 04 da c6 3e fa 1e 93 bb
       0.003554918 0.0025270192 0.38838208 -0.0044897767
000010 d6 e6 84 3e 10 24 37 bb 68 02 77 bf d3 68 ba ba
       0.25957364 -0.002794508 -0.96488047 -0.0014221914
000020 d7 06 de ba 31 9c a4 be d7 76 a5 38 65 e3 3b 3f
       -0.0016939294 -0.32150415 7.889949e-05 0.7339385
000030 1e d8 5b 3f fb 57 a6 be bb ad 1c ba 91 d1 dc be
       0.85876644 -0.32489 -0.00059768156 -0.43128636
000040 08 84 ea ba 9d 9f b0 3b 9c 95 f1 3a fd c6 93 ba
       -0.0017892132 0.005390121 0.0018431428 -0.0011274513
