iterative_k_clustering_breast_cancer/training_on_clusterings_second_algorithm/K_2/cluster_2/training_results/cluster_1_model.pt (torch, 20431 bytes, 4 tensors)

weight f4 [5, 417]
00000000: f4d3 e1b8 d057 8137 5625 8338 38c0 09b8
00000010: 32ba 8eb8 9210 acb8 6ec6 8d38 2049 9f38
00000020: 2e5a 88b8 b65b d538 0624 3ab9 a283 2d39
00000030: 72b5 de3e 4660 9bb8 e761 9d3c 545d d6b8
00000040: 3bfa 4d39 8323 3d39 68f4 cc38 982e 5bb7
00000050: 9029 e937 be5c cab8 a02e cb37 d9fe 2039
00000060: 9cd2 2439 eabf 8638 be22 1339 8068 7ab7
00000070: c21e cc38 23a2 3bb9 d597 3cb9 e47b c238
00000080: 4ce1 fc38 dfe4 33b9 9244 3839 d866 1938
00000090: 1423 d0b8 1053 2538 b418 3a39 98ef e4b8
000000a0: 2c33 0ab9 d38c 1bb9 89f3 39b9 c0b0 9bb6
000000b0: 9cbe fc38 c6b2 91b8 38c6 ae37 e015 e237
000000c0: 8268 25b9 5e6d e1b8 e58e 2639 e304 0139
000000d0: 1221 b0b8 f0a8 98b8 44c6 9b3f 4c40 5cb8
000000e0: b441 b838 6262 ccb8 4950 16b9 3827 ae37
000000f0: d05a a138 b8c2 8d37 4444 46b8 1c3e 10b8
00000100: e299 ebb8 c0fe 8038 388b 6f39 b77d 08b9
00000110: 8bbc 5839 c6e2 35b9 cefa 18b9 3851 cb37
00000120: b2ef 6639 4e14 13b9 add6 03b9 a45f 6f39
00000130: 12c3 c838 003c b6b7 c96e 24b9 f2f7 da38
00000140: f8ca 6c38 244a ce38 888b c237 62ff 9bb8
00000150: d845 4839 0e7e 5c39 4484 03b8 d38c 19b9
00000160: 50de c237 90d0 f837 0089 5b35 983f cd38
00000170: f554 5e39 149c 4039 4aad 5339 4acb 3a39
00000180: a4e5 d238 f4a0 6ab8 78de 9538 571f 2ab9
00000190: c6f3 8438 a00c 1439 586a d738 daf9 0a3f
000001a0: d71b 2db9 6025 56b7 ec75 1238 f8e1 c0b7
000001b0: 626d c138 f095 2337 d344 0839 a2ad a5b8
000001c0: 5464 5cb8 acf9 bab8 45ec 0339 a24c 2239
000001d0: 3e63 1439 d0f3 5cb7 3d48 38b9 6441 7bb8
000001e0: 403e 51b8 c3d1 15b9 0d98 4d39 cfe6 9939
000001f0: 176f 0939 ac2a 61b8 6016 39b8 8bbf 4d39
00000200: 6d68 0739 ced3 2cb9 0208 a9b8 21ba 4d3f
00000210: e291 94b8 0470 42b8 c692 30b9 2868 c938
00000220: abcc 2039 10e9 76b7 34ea 61b8 e053 88b6
00000230: ae18 a238 58a3 6738 b1ad 1db9 fe29 9fb8
00000240: b82c 5db8 2034 f1b6 11d6 00b9 289f e9b7
00000250: 5067 bbb8 a01f 99b6 1285 e638 6c0c b638
00000260: 282b ef37 5050 64b8 2827 33b8 9ec1 1eb9
00000270: eacd adb8 9879 b7b7 905f da37 a874 e6b7
00000280: 0195 3939 4c39 b938 e0a9 1ab7 c430 5838
00000290: fea1 b7b8 c4d8 4b38 7580 3a39 3635 2139
000002a0: a88c 02b8 50af 3439 34ff 6938 5ae4 8d38
000002b0: 0278 bdb8 684c 9537 6d7a 7f39 c64b f638
000002c0: 8020 71b8 625c 9eb8 603a 1fb9 96e8 a938
000002d0: b3f7 3a39 3080 3a37 9845 09b8 905d 70b8
000002e0: e0d4 4639 9b50 0939 dcbe 6338 5bbe 4ab9
000002f0: 9c0f e1b8 e086 7438 8e7d 2939 06c8 19b9
00000300: 7097 8539 50da b837 0f19 ce3e c427 223d
00000310: 602d 1237 748d 6cb8 fcca ee38 f94e 0939
00000320: 5d1b 4839 bedf 0f39 bc12 44b8 a3f1 9e3e
00000330: 137c 753f 3abb 85b8 b6b9 27b9 8869 d0b7
00000340: 0578 5339 bcc1 2c39 b6a0 c438 6bff 1fb9
00000350: e088 7638 c84e d737 4273 c5b8 60e4 5c39
00000360: f8fb 4638 7400 8339 9c6a 29b9 e8e8 8d38
00000370: 2005 79b8 405f f336 5456 e1b8 f891 f038
00000380: 689d d6b7 d590 10b9 da9d cc38 8705 49b9
00000390: 7f10 6639 fcb7 c9b8 d0f5 8cb8 e8ec 02b9
000003a0: aa1d 1ab9 b8ea be37 3cd1 16b8 acfb 513e
000003b0: ae76 ab38 6d14 3039 590a 5f39 bcab 8039
000003c0: 31e3 19b9 f496 9038 fd31 4ab9 7cc5 4b39
000003d0: 18b1 8238 958f 6839 0c4b 2639 8488 c138
000003e0: 820e 2b39 a8cb e0b7 7a48 de38 c6f1 0c39
000003f0: a0b5 3b37 d01a b137 1414 f238 6ce3 4d38
-0.000107683154 1.541889e-05 6.253521e-05 -3.2842363e-05 -6.805769e-05 -8.2046856e-05 6.760364e-05 7.5953314e-05
-6.5017826e-05 0.00010173714 -0.00017751762 0.00016547603 0.43497807 -7.408908e-05 0.019211723 -0.00010221699
0.00019643542 0.00018037674 9.773002e-05 -1.3064266e-05 2.7795119e-05 -9.649385e-05 2.4221197e-05 0.00015353727
0.00015718717 6.425365e-05 0.00014031955 -1.4925492e-05 9.733207e-05 -0.0001789411 -0.00017985639 9.273717e-05
0.00012058261 -0.00017156031 0.00017573152 3.6573823e-05 -9.924747e-05 3.9416424e-05 0.00017747545 -0.00010916515
-0.00013179769 -0.00014834413 -0.00017733699 -4.6399364e-06 0.000120518 -6.947438e-05 2.083472e-05 2.6951486e-05
-0.00015774558 -0.00010749207 0.00015884226 0.00012304219 -8.398494e-05 -7.279392e-05 1.2169881 -5.251197e-05
8.786042e-05 -9.745803e-05 -0.00014335023 2.0760679e-05 7.6939934e-05 1.6899183e-05 -4.7270456e-05 -3.439012e-05
-0.00011234336 6.1509665e-05 0.00022844679 -0.00013016803 0.00020669603 -0.00017345985 -0.00014589282 2.4237306e-05
0.00022023803 -0.00014026577 -0.00012573107 0.00022828445 9.573078e-05 -2.172403e-05 -0.0001568153 0.000104412335
5.6455814e-05 9.836655e-05 2.3191576e-05 -7.438545e-05 0.00019099505 0.00021027794 -3.1356016e-05 -0.00014643678
2.3230124e-05 2.9661023e-05 8.178322e-07 9.787007e-05 0.00021203219 0.0001836869 0.00020187083 0.00017814073
0.00010056354 -5.5939847e-05 7.146312e-05 -0.00016224138 6.339657e-05 0.00014119083 0.00010271807 0.54287493
-0.00016508937 -1.2764096e-05 3.4918936e-05 -2.2993408e-05 9.223331e-05 9.750467e-06 0.0001299561 -7.900155e-05
-5.2545525e-05 -8.915676e-05 0.00012581151 0.00015478072 0.0001415135 -1.3169789e-05 -0.00017574518 -5.9903963e-05
-4.9887458e-05 -0.0001428789 0.00019606967 0.000293544 0.00013106722 -5.368392e-05 -4.4128275e-05 0.00019621679
0.00012913505 -0.00016482102 -8.0600395e-05 0.80362135 -7.084363e-05 -4.6357527e-05 -0.00016839345 9.6038275e-05
0.00015335034 -1.4717007e-05 -5.38623e-05 -4.06288e-06 7.729359e-05 5.5226817e-05 -0.00015037392 -7.5895325e-05
-5.2732154e-05 -7.188428e-06 -0.00012286777 -2.7849877e-05 -8.936098e-05 -4.563437e-06 0.00010992041 8.68075e-05
2.8511116e-05 -5.4434233e-05 -4.2713393e-05 -0.00015140182 -8.287637e-05 -2.1871921e-05 2.6032125e-05 -2.7472459e-05
0.00017698483 8.83216e-05 -9.218667e-06 5.154383e-05 -8.7562934e-05 4.860085e-05 0.00017786196 0.00015373979
-3.112541e-05 0.00017231447 5.5789205e-05 6.765938e-05 -9.0345755e-05 1.7797764e-05 0.00024364302 0.00011744308
-5.7489146e-05 -7.551235e-05 -0.00015185168 8.1018705e-05 0.00017830617 1.111631e-05 -3.272816e-05 -5.7307596e-05
0.00018962054 0.00013095366 5.429877e-05 -0.00019335134 -0.000107317435 5.8299745e-05 0.00016163869 -0.00014665732
0.00025480567 2.2036169e-05 0.40253493 0.039588705 8.712843e-06 -5.6398523e-05 0.00011386533 0.00013094758
0.0001908368 0.00013720893 -4.674749e-05 0.3104373 0.9589245 -6.376808e-05 -0.00015995544 -2.4844674e-05
0.00020167239 0.0001647537 9.375943e-05 -0.00015258572 5.8778445e-05 2.5666683e-05 -9.4151605e-05 0.00021065911
4.7441543e-05 0.00024986605 -0.00016156811 6.766786e-05 -5.9371e-05 7.253053e-06 -0.00010744916 0.000114712806
-2.5584086e-05 -0.00013786864 9.75688e-05 -0.00019170913 0.00021940655 -9.618697e-05 -6.721506e-05 -0.0001248602
-0.00014697635 2.2759064e-05 -3.595765e-05 0.20506161 8.176021e-05 0.00016792277 0.00021270792 0.00024542015
-0.00014675852 6.894572e-05 -0.00019282843 0.00019433157 6.231869e-05 0.00022178733 0.00015858951 9.228385e-05
0.00016313235 -2.6797716e-05 0.00010599285 0.00013441508 1.1188356e-05 2.111253e-05 0.00011543199 4.9087612e-05

bias f4 [5]
00000000: fc8d 7c3f 73e6 12c0 5969 edbf a6e7 0c40
00000010: c511 0ec0
0.9865415 -2.2953155 -1.8547775 2.2016387 -2.2198346

weight f4 [397, 5]
00000000: c279 c438 52a1 8238 eeb7 0f39 8f39 42b9
00000010: 4edb f938 9762 1039 5736 3f39 e4fe 8cb8
00000020: f393 4cb9 e005 0fb8 4af6 25bf e6ad dbbe
00000030: 40cd 9db9 b796 a53b b929 afbe 86f5 3139
00000040: c01a acb7 486f c437 2c47 29b8 f8cc 7638
00000050: b00f 3c39 8b73 8f39 9604 3238 78c3 3bb7
00000060: 02a4 fe38 8782 e938 9af4 00b9 35a0 2fb9
00000070: de26 1739 3010 e437 5cd4 5bb8 7aca c0b8
00000080: 8154 4139 602e 19b7 566c c2b8 8067 ca37
00000090: 4e19 98b8 bf54 3e39 fcb3 efb8 2afa 9bb8
000000a0: 3cfa 3d39 4ed9 9fb9 896a 0fbe 38aa db38
000000b0: eee1 70b9 1054 5b38 a0c6 80b8 f69c 8db9
000000c0: 0894 2439 b5a7 12b9 78ba ab38 8c96 a7b8
000000d0: c0ab ae37 ea44 abb8 a46f 8f38 04ef 39b8
000000e0: 2aa5 44b9 aca2 30b9 eab0 c438 04bd 9938
000000f0: a104 f038 6c7b 46bf a3a3 d6bd 496d 173f
00000100: 639d a6be f67c fb38 3e2d 7eb9 bc6f 97b9
00000110: 15b0 07b8 2c87 a1b9 a874 3739 b5dd 2dbb
00000120: c1c4 29ba 950e 053a 5d31 1cbe b06b d937
00000130: 6675 c1b8 9029 1db8 4e8b a2b8 bd52 4fb9
00000140: 8847 0a39 7a56 a738 97a3 58b9 80a2 1036
00000150: 0871 79b9 36b0 15b9 b8d9 0eb9 5b49 51b9
00000160: ab53 6639 1cd5 e738 00c5 4637 f5cc f9be
00000170: e588 8dbe 52c3 123e a4c7 1bbb 9028 f83e
00000180: 23d6 85bb d4f9 79b9 2a60 933b 9862 1dbb
00000190: c1ed 4139 0021 8836 d858 83b9 50d0 98b7
000001a0: 54af 8ab8 266a ba38 5d87 8ab8 8618 5e38
000001b0: a4d2 90b9 da16 8c39 2cae 8638 0050 6b36
000001c0: 823f 71b9 de73 8039 f4e3 2a38 7430 41b9
000001d0: aa0c 7639 36fb 8239 0cce e938 523b 6839
000001e0: 0cf9 c438 80bb 6937 047b e5b8 c5c8 0d39
000001f0: 72c4 f438 d0a2 a437 bea1 2739 6a42 2c39
00000200: 8e21 e7b8 7a14 dd38 e0f3 8537 cca8 7bb8
00000210: 4cc2 5638 bedc 20b8 e8be 0bb9 7fb3 5839
00000220: 051b 50b9 25e5 c338 1b25 b6b8 007a 8634
00000230: 2eb2 73b9 3e57 8639 32f7 9fb8 3c9c 34b8
00000240: bc9c 6fb8 94c4 3338 d03f 6db8 0bea 7e39
00000250: c062 a8b6 dc62 ecb8 27b5 1e39 2da8 8539
00000260: 8019 f236 bd05 99b9 2655 b138 2261 0938
00000270: 82b1 02b9 50bf a336 ae18 5a39 c0d1 e536
00000280: 7a48 fc38 422b 5b39 56e9 8039 e0c4 5438
00000290: 7ec1 bf38 3760 3a39 b8cc 6538 6f30 12b9
000002a0: 3e69 09b9 dbba 1fb9 2446 1739 074b 0739
000002b0: e09d a337 2892 0539 b057 6838 025c 5539
000002c0: 0a16 fa38 0005 3535 40d2 b4b8 8469 ae38
000002d0: 343f 38b8 4549 94bc 8736 c4be 2255 b43d
000002e0: 3abd d0be 26d8 ca38 e20c b238 d907 7539
000002f0: 888c 5738 c205 7439 ac47 8739 eca5 ddb8
00000300: f041 5938 3095 1239 b24d 32b9 c844 ccb7
00000310: 02a5 9e38 ec25 2cb8 0cc6 57b8 9c71 6c38
00000320: bdbf 1d39 f6e5 bb38 d495 3d39 ea09 50b9
00000330: bd81 6639 cc9d f5b8 36ae 21b9 ece4 5f38
00000340: 6fc2 1939 b4d1 0b38 a2cd 42b9 2e23 d938
00000350: 4aa0 9a39 7bfa dbb8 b41e 4639 f46d 09bf
00000360: b47a 0abe a66e d5be 5235 a63e cb00 24be
00000370: 9924 3ab9 3ce9 7fb8 909d e3b8 a017 5ab8
00000380: bc08 b1b8 5476 aeb8 565c 4139 34f5 b238
00000390: d2f3 ecb8 39ab 03b9 ac2b 4439 0ed7 9d38
000003a0: 178c 8e39 a441 90b9 67fb dfb8 5073 61b8
000003b0: 90fa 6d39 19dd 3e39 d0e9 0139 e299 85b8
000003c0: 6888 37b9 48cb acb7 3c5d 7b39 9b0e 05b9
000003d0: 86a2 9238 e01a 4ab8 fe0c 1539 80f5 08b9
000003e0: f856 9037 3823 0db8 f56c 49b9 e7f4 6c39
000003f0: 9077 6439 4ff3 8db9 5a53 ddb8 0e7c 6bb9
9.3686875e-05 6.228931e-05 0.00013706062 -0.00018522724 0.00011914094 0.00013769638 0.00018235423 -6.723197e-05
-0.00019510071 -3.409933e-05 -0.6482893 -0.4290611 -0.00030098297 0.005053367 -0.3421152 0.000169715
-2.0516454e-05 2.341684e-05 -4.0359024e-05 5.8841862e-05 0.00017934921 0.00027361172 4.2442778e-05 -1.119158e-05
0.00012142213 0.000111346184 -0.00012298152 -0.00016748982 0.00014414961 2.7187256e-05 -5.2411444e-05 -9.1929876e-05
0.00018437394 -9.130308e-06 -9.27082e-05 2.4128472e-05 -7.252638e-05 0.00018151382 -0.00011429933 -7.437573e-05
0.00018117664 -0.00030488748 -0.14005484 0.000104744395 -0.00022972349 5.2291958e-05 -6.1405124e-05 -0.0002701056
0.00015695405 -0.00013986121 8.188648e-05 -7.991222e-05 2.0822394e-05 -8.166752e-05 6.839566e-05 -4.4330038e-05
-0.00018753545 -0.00016845268 9.378961e-05 7.3308154e-05 0.00011444954 -0.77532077 -0.1048043 0.5915113
-0.32541952 0.000119918885 -0.00024240182 -0.00028884213 -3.2350497e-05 -0.00030809024 0.00017495698 -0.0026529853
-0.0006476157 0.000507572 -0.15253206 2.5918562e-05 -9.224824e-05 -3.7470425e-05 -7.7507095e-05 -0.00019771881
0.00013187353 7.979288e-05 -0.00020660307 2.155226e-06 -0.00023788598 -0.00014275391 -0.00013623282 -0.0001995912
0.00021965678 0.00011054633 1.1847587e-05 -0.48789182 -0.27643505 0.14332321 -0.0023770118 0.48468447
-0.004084365 -0.00023839559 0.0044975476 -0.0024015065 0.00018494485 4.0569576e-06 -0.0002505246 -1.8216815e-05
-6.61301e-05 8.888943e-05 -6.605566e-05 5.2951764e-05 -0.0002762276 0.00026719907 6.42206e-05 3.5064295e-06
-0.0002300721 0.0002450039 4.0743456e-05 -0.00018423965 0.00023465106 0.000249827 0.00011148685 0.00022147343
9.392397e-05 1.3931538e-05 -0.000109424844 0.000135216 0.000116714175 1.9626139e-05 0.00015986615 0.0001642794
-0.000110211884 0.00010541915 1.5968399e-05 -6.0000268e-05 5.120253e-05 -3.8352555e-05 -0.00013327191 0.00020666233
-0.00019846491 9.341006e-05 -8.685348e-05 2.5048212e-07 -0.00023240663 0.00025623472 -7.6277545e-05 -4.306085e-05
-5.712801e-05 4.2860003e-05 -5.6564633e-05 0.00024310515 -5.018286e-06 -0.00011271771 0.00015135539 0.00025493038
7.2151306e-06 -0.0002918671 8.455878e-05 3.2753807e-05 -0.00012463893 4.8800503e-06 0.00020799294 6.84915e-06
0.00012029796 0.00020901582 0.0002458791 5.0728093e-05 9.1436305e-05 0.00017774185 5.4788514e-05 -0.00013941688
-0.00013104544 -0.0001523303 0.00014426612 0.00012902553 1.950463e-05 0.00012738316 5.5394776e-05 0.00020347539
0.00011925034 6.743503e-07 -8.622231e-05 8.3166204e-05 -4.392788e-05 -0.018101344 -0.3832285 0.088053
-0.40769368 9.6723714e-05 8.490101e-05 0.00023367944 5.1390874e-05 0.00023271798 0.00025802606 -0.000105690066
5.179824e-05 0.00013979222 -0.00017004347 -2.4350724e-05 7.564762e-05 -4.1043313e-05 -5.144444e-05 5.637259e-05
0.00015044115 8.9596884e-05 0.0001808026 -0.00019840119 0.0002198284 -0.00011711902 -0.00015419055 5.3380543e-05
0.00014663649 3.3335484e-05 -0.00018577886 0.00010353919 0.00029492594 -0.000104893894 0.00018894189 -0.536834
-0.1352337 -0.4168598 0.32462555 -0.16015927 -0.00017751976 -6.1013954e-05 -0.00010853552 -5.1997253e-05
-8.4416446e-05 -8.319007e-05 0.00018440312 8.533374e-05 -0.00011298772 -0.00012556919 0.00018708286 7.5264004e-05
0.00027188726 -0.00027514726 -0.00010680296 -5.3751573e-05 0.00022695423 0.00018202177 0.000123895 -6.370597e-05
-0.00017503055 -2.0598658e-05 0.00023971958 -0.0001268931 6.992095e-05 -4.8185582e-05 0.00014214587 -0.00013061427
1.7206636e-05 -3.364982e-05 -0.00019209443 0.00022597947 0.00021788315 -0.00027074895 -0.000105536266 -0.0002245756

bias f4 [397]
00000000: 5a1e 9f38 9c55 de38 cbf2 333f aabc f1b8
00000010: 377c adb8 664d a8b8 9476 0c38 4bd5 15b9
00000020: fe11 5d39 1466 4f38 9902 40b9 c8e7 aab7
00000030: c6ce cc3e 2814 733d 8e41 173f d13b 3739
00000040: 9893 0c39 008c 06b7 f8c2 a33d a4af c93e
00000050: 6533 1539 6dd0 f3b8 5511 8539 6404 5438
00000060: 9455 f438 a286 1eb9 db10 0339 481e 5738
00000070: fa0c 2fb9 dee8 b9b8 b704 94b9 705c 7c39
00000080: 5415 0738 7ca8 dab8 5e13 1939 3025 9438
00000090: 75c4 b23d 3292 ecb8 c4bc a838 8447 39b9
000000a0: 40f6 09b6 0794 6339 cec4 9eb8 a4ec d33e
000000b0: 04e7 84b8 d224 88b9 87fc 65b9 28ef a8b8
000000c0: 4ccc 2438 a986 1c39 f080 74b7 2753 52b9
000000d0: a0e9 8bb8 b077 8438 996c 9a3f 4e5d deb8
000000e0: d05b 1bb8 36ab cd38 6405 6eb9 9371 8439
000000f0: 3abd 8b39 50bf 09b8 686b 6d38 d4f5 73b8
00000100: da6f 1e3b dcaa 7ab8 3c44 8838 956a 70b9
00000110: 60b2 3539 42b5 b038 d41f b0b8 3534 64b9
00000120: 8804 ccb8 7eb0 c238 767b e238 59c9 35b9
00000130: 4b57 8cb9 5cf8 83b8 50ba cdb8 c28a 8539
00000140: fbff 50b9 348a dd38 e0c0 cc38 bec4 7b38
00000150: 9817 9fb7 ce10 0338 26f3 b2b8 6585 dc3d
00000160: 0d08 a338 7092 a6b7 c46a 0739 5cea 9939
00000170: eca4 6238 ab3d 4939 ee6b 063e d2db 3739
00000180: ac97 ec38 f376 8f38 58ee c2b7 13b1 59b9
00000190: f1b3 83b9 de54 fcb8 48d3 1d38 c0cd 3d3f
000001a0: 2208 ecb8 0006 54b7 bc80 0a39 70bb 6238
000001b0: 36dd 4cb9 8f3b 853e 9068 4738 64fb 2cb9
000001c0: 0cf9 8db8 7179 77b9 078e 8bb9 1bd2 1f39
000001d0: d821 dbb7 66a0 0b39 d093 f6b8 bbc6 67b9
000001e0: 7caf 38b8 d4ac d9b8 03d2 8b3c f615 423f
000001f0: c1dc 37b9 c4ba 38b9 f075 5bb8 26f6 52b9
00000200: 3e9d b738 44ac 2cb9 44ab a7b8 dc93 413f
00000210: 84cd 4439 9058 06b9 a67a c938 549e aeb8
00000220: 704d 5c38 960a d53c 3cd6 eb38 5c94 c238
00000230: 1093 be36 91ec 8a38 79a7 1739 2b91 a3b8
00000240: d9b5 1db9 4aab 0ab9 ebcb 17b9 c06e 3c36
00000250: 04d4 2e38 e00e a536 3cf1 8fb9 0c9d f9b8
00000260: dafc 87b8 7e1b e338 e0c4 8038 d5a1 29b9
00000270: a0ed e337 79a4 70b9 3578 5d39 5843 b7b8
00000280: 2a7b d2b8 0ea8 04b8 fc8f 57b9 0056 0c37
00000290: bcd9 05b9 381b 5eb8 80f2 e237 58e5 2538
000002a0: 5cb9 f838 00e0 ceb5 d07e 22b8 64df adb8
000002b0: a04c 2bb7 1262 a2b8 36cc 8239 263b 6739
000002c0: 901f 08b8 b086 7d37 f4f2 9838 e889 9037
000002d0: 08a7 e337 a03d 2238 f370 0bb9 8e71 a238
000002e0: aa36 0239 10c6 60b7 3491 7239 c5cc 0239
000002f0: 2056 7a38 3d0e 1639 8421 d8b8 f8a6 6b39
00000300: 7e99 8c3d 07c9 2039 4d27 d93e 9e97 1e3e
00000310: e45c 2eb9 7682 23b9 54a3 0ab8 fbcc 1439
00000320: f124 99b9 da09 fc38 5481 1d38 1a44 b93e
00000330: 3616 373f a449 5338 8045 09b8 5436 7cb9
00000340: 40f3 79b8 6052 c5b6 1003 3037 b85a 2238
00000350: 221a 2eb9 c3bd 5a39 307d 88b9 1b90 6c39
00000360: 94fe 2839 f81a 81b7 e5f5 13b9 b493 3439
00000370: 7f7d 78b9 7515 88b9 6089 33b8 08d8 3438
00000380: 8e29 3ab9 a224 e838 550a 08b9 f66a 3a39
00000390: bc22 1e38 d6a4 82b9 0032 ebb5 9890 87b9
000003a0: 10e3 f7b7 1203 67b9 8017 dcb5 26c2 323f
000003b0: cbdc 08b9 9ca8 e13e cc71 9ab8 eb22 d938
000003c0: ba3e ac38 eff2 65b9 449e 84b9 a978 d93d
000003d0: c8f3 db3c fb79 b4b8 b092 d336 c8e5 f6b7
000003e0: 9864 92b9 e412 8739 4e14 3cb9 8a53 d138
000003f0: 3c92 2c38 e01e 2e38 26ce 42b9 00e5 31b8
7.587364e-05 0.00010601731 0.7029235 -0.00011526917 -8.27242e-05 -8.025281e-05 3.3489036e-05 -0.00014289205
0.00021082905 4.9447714e-05 -0.00018311515 -2.037351e-05 0.40001506 0.059345394 0.59084404 0.00017474523
0.00013406423 -8.019619e-06 0.07996172 0.39391816 0.00014228893 -0.00011625965 0.0002538065 5.0548828e-05
0.00011650767 -0.00015118209 0.00012499413 5.1288196e-05 -0.00016694135 -8.864862e-05 -0.00028232273 0.00024067028
3.220637e-05 -0.00010426433 0.00014598432 7.064117e-05 0.087288775 -0.00011280588 8.0460246e-05 -0.00017669616
-2.0557927e-06 0.00021703551 -7.570685e-05 0.4139148 -6.3372805e-05 -0.00025967375 -0.00021933216 -8.0554106e-05
3.9290913e-05 0.00014927484 -1.4573554e-05 -0.00020058137 -6.6715525e-05 6.316544e-05 1.2064391 -0.00010603164
-3.7040387e-05 9.807052e-05 -0.00022699457 0.0002526162 0.0002665313 -3.284152e-05 5.6605233e-05 -5.816466e-05
0.0024175555 -5.976377e-05 6.497695e-05 -0.00022927888 0.00017327955 8.426096e-05 -8.3982624e-05 -0.00021763223
-9.728322e-05 9.283515e-05 0.00010799516 -0.00017336513 -0.0002676792 -6.292827e-05 -9.809865e-05 0.0002547112
-0.00019931786 0.000105638435 9.763404e-05 6.0026294e-05 -1.8965264e-05 3.1248484e-05 -8.532991e-05 0.107676305
7.773945e-05 -1.9856932e-05 0.00012914377 0.00029357045 5.4036194e-05 0.00019191827 0.1312711 0.0001753413
0.00011281608 6.8409274e-05 -2.323759e-05 -0.00020760698 -0.00025120334 -0.00012032104 3.7628488e-05 0.74142075
-0.00011254872 -1.2637582e-05 0.00013208663 5.4057164e-05 -0.00019537364 0.26022002 4.754268e-05 -0.00016496849
-6.7697925e-05 -0.00023600996 -0.00026617965 0.00015241692 -2.6122594e-05 0.00013315826 -0.00011757726 -0.0002210391
-4.403245e-05 -0.00010379558 0.017067915 0.7581476 -0.00017534477 -0.00017617183 -5.2323507e-05 -0.00020118858
8.7554086e-05 -0.00016467372 -7.995081e-05 0.7561624 0.00018768577 -0.00012812228 9.607272e-05 -8.3264575e-05
5.2524207e-05 0.026006024 0.000112455775 9.278275e-05 5.6795616e-06 6.624417e-05 0.0001446287 -7.799485e-05
-0.0001504043 -0.00013224516 -0.00014476448 2.8078648e-06 4.1682288e-05 4.919115e-06 -0.0002745482 -0.000119024975
-6.484399e-05 0.00010829324 6.1401865e-05 -0.00016177383 2.7171161e-05 -0.00022949454 0.00021120983 -8.738664e-05
-0.000100365214 -3.1627766e-05 -0.00020557636 8.364674e-06 -0.00012764981 -5.2954274e-05 2.7054222e-05 3.955266e-05
0.000118600874 -1.5413389e-06 -3.8741913e-05 -8.2908926e-05 -1.0210235e-05 -7.743029e-05 0.0002494768 0.00022051911
-3.245432e-05 1.51113345e-05 7.293178e-05 1.7230355e-05 2.7138289e-05 3.8681203e-05 -0.0001329815 7.745913e-05
0.0001241813 -1.3397555e-05 0.00023133011 0.00012474049 5.9684855e-05 0.00014310419 -0.000103059254 0.00022473547
0.06865214 0.00015333678 0.42412797 0.15487525 -0.00016628538 -0.00015593492 -3.3053875e-05 0.00014190741
-0.00029209958 0.000120181314 3.7552163e-05 0.3618477 0.71518266 5.0374903e-05 -3.2728072e-05 -0.00024052832
-5.959277e-05 -5.880647e-06 1.04911305e-05 3.87083e-05 -0.00016603668 0.00020860792 -0.00026033213 0.00022560397
0.00016116566 -1.5390557e-05 -0.00014110615 0.00017221161 -0.00023697874 -0.00025955928 -4.2804866e-05 4.311654e-05
-0.00017753823 0.000110694455 -0.0001297382 0.00017778188 3.7702484e-05 -0.00024918345 -1.7523416e-06 -0.00025856937
-2.9550429e-05 -0.0002203102 -1.6398117e-06 0.69827497 -0.00013052222 0.4407395 -7.3644886e-05 0.0001035387
8.213283e-05 -0.00021929642 -0.0002529492 0.10618717 0.026849642 -8.6057895e-05 6.3053667e-06 -2.9432485e-05
-0.00027922238 0.0002576328 -0.00017936641 9.981457e-05 4.1144187e-05 4.1513587e-05 -0.00018578078 -4.241336e-05
