iterative_k_clustering_AML/training_on_clusterings_second_algorithm/K_4/cluster_1/training_results/cluster_0_model.pt (torch, 3727 bytes, 4 tensors)

weight f4 [5, 37]
0	0x3ae44fea	0.0017418836
1	0xbb8ab27b	-0.0042327023
2	0x3f69b0cb	0.9128539
3	0xbb735884	-0.0037131617
4	0xbb62d6d1	-0.0034612904
5	0x39c5740a	0.00037661224
6	0xbb345144	-0.0027514258
7	0xbb760684	-0.0037540505
8	0x3a23f39f	0.0006254259
9	0x3b454c04	0.0030105123
10	0x3f16629d	0.5874422
11	0xbb3c9863	-0.0028777353
12	0xba3aeb8d	-0.0007130437
13	0x3a72dad5	0.0009264176
14	0x3b7b1204	0.0038310299
15	0x3b825fba	0.0039786967
16	0x3f1b93e0	0.60772514
17	0xbf951ba9	-1.1649066
18	0xbb3b438a	-0.0028574192
19	0x3fdac02e	1.7089899
20	0xba6bb4d5	-0.00089914846
21	0xba7b54d5	-0.0009587531
22	0x3b879612	0.004137763
23	0x3b630464	0.0034640068
24	0x3b7e2664	0.0038780207
25	0x3b45ef0c	0.0030202297
26	0x3b5beaf7	0.0033556798
27	0x3a60cc89	0.00085754
28	0x3adf0c6a	0.001701725
29	0xba7962d5	-0.00095133233
30	0xbae6a4aa	-0.0017596681
31	0xbad0cfea	-0.0015931104
32	0x3b779f04	0.003778399
33	0x39d60819	0.00040823294
34	0x3a6b8ad5	0.0008985226
35	0xbb62cbc4	-0.0034606317
36	0xbb07e4f9	-0.0020735844
37	0xba5986d5	-0.00082979846
38	0x3b7297e7	0.003701681
39	0xbb830ce6	-0.0039993403
40	0x3b6db5c4	0.003627167
41	0x3b946c83	0.004529537
42	0xb9913fcc	-0.00027704088
43	0x3aeb26ea	0.0017940674
44	0xbb402d15	-0.0029323746
45	0x39fe51b8	0.0004850754
46	0xbb09e738	-0.0021042358
47	0x3b84650c	0.004040366
48	0xbad4882d	-0.00162149
49	0x3a69e82c	0.0008922841
50	0x3b81f162	0.0039655427
51	0xbb193c55	-0.0023381908
52	0x3afcd4e7	0.0019289524
53	0x3b152722	0.002275892
54	0x3b1ef8a6	0.0024257093
55	0x3ee0f16f	0.439342
56	0xbaab1a9d	-0.0013054196
57	0xbb796fb7	-0.0038060972
58	0xba82acea	-0.0009969745
59	0xbb6ad484	-0.0035832236
60	0x3b80a3e2	0.0039257864
61	0xbb764504	-0.0037577758
62	0xba482dd5	-0.0007636224
63	0xbb4a40ac	-0.0030861301
64	0xbb244d07	-0.0025070326
65	0xba410109	-0.000736252
66	0x3ab578ea	0.0013845239
67	0x3af7b6ea	0.0018899117
68	0xbb794884	-0.0038037607
69	0x3a246ed5	0.0006272619
70	0xba99cf84	-0.0011734818
71	0x394bb8b3	0.00019428394
72	0x3a673ed5	0.00088213134
73	0xbb856376	-0.0040706946
74	0x3b7bc684	0.0038417885
75	0xbb675684	-0.003529937
76	0x3b82540a	0.0039773034
77	0x3a30391d	0.0006722378
78	0x3b0bb67b	0.0021318484
79	0xb7ab30c8	-2.0407504e-05
80	0x3b0b6c39	0.0021274223
81	0xbb915637	-0.0044353264
82	0xbb149071	-0.0022669102
83	0xbb91e9ca	-0.0044529187
84	0x3ae46915	0.0017426336
85	0xbad53a94	-0.0016268068
86	0x3b846c58	0.004041236
87	0xb9720f53	-0.00023084627
88	0x3b3c3e2c	0.002872358
89	0x3b858f6d	0.0040759356
90	0x3af23079	0.0018477581
91	0x3b8caa4b	0.0042927614
92	0x3a59c801	0.0008307696
93	0xbb10e7f7	-0.0022110918
94	0x3a7cd8d5	0.00096453476
95	0x3a614cd5	0.0008594518
96	0xbb6d7344	-0.0036232034
97	0x3a6610d5	0.0008776312
98	0x3b8ab30e	0.0042327708
99	0xba4d40d5	-0.000782979
100	0xbb4acd44	-0.0030945102
101	0xbb685c84	-0.0035455534
102	0x3a104ed5	0.0005504911
103	0xbb3b079c	-0.002853847
104	0x3a7a28d5	0.00095428276
105	0xbb57025c	-0.0032807803
106	0xbb012984	-0.0019708583
107	0x3a107a0d	0.0005511351
108	0x3a7a4cd5	0.0009548192
109	0x375db52b	1.3214808e-05
110	0x3b86d612	0.0041148746
111	0xbb91f9d7	-0.004454832
112	0x3b420404	0.0029604444
113	0xbb739c5c	-0.0037172055
114	0xbb6b0f84	-0.0035867402
115	0xb92029b5	-0.00015274326
116	0xbac6fcc2	-0.0015181529
117	0xbb816b42	-0.0039495537
118	0xbb0ffac4	-0.0021969536
119	0x3b3757cd	0.0027975917
120	0xba7ba9c5	-0.0009600188
121	0xbafd0977	-0.0019305189
122	0x3f9de28e	1.2334764
123	0x3b154d39	0.0022781624
124	0x3b5554ac	0.003255169
125	0x39806259	0.00024487337
126	0x3b97ad11	0.0046287854
127	0xbb6fbd35	-0.0036581282
128	0xb869b74c	-5.5722237e-05
129	0x3b5c05b8	0.0033572745
130	0x3b1eeaa7	0.002424875
131	0xbb0ec395	-0.0021784056
132	0xbb50c544	-0.003185586
133	0x3b6b17a4	0.0035872245
134	0xba644f29	-0.00087093055
135	0xbb3daa84	-0.0028940747
136	0xba169ad5	-0.00057451177
137	0xbac857b8	-0.0015284931
138	0xbb2abb35	-0.0026051525
139	0x3b80a1fd	0.0039255605
140	0xbad9c0ea	-0.0016613279
141	0x3894c4a5	7.093818e-05
142	0x3b62a0b7	0.0034580657
143	0x3b667fc4	0.003517137
144	0xba2e9bd5	-0.0006660794
145	0x3b048324	0.0020219767
146	0xbb75a004	-0.003747941
147	0x3ac02638	0.0014659828
148	0x3b6733c4	0.0035278657
149	0xba1702d5	-0.0005760615
150	0xbab6495e	-0.0013907363
151	0xbb8f077d	-0.0043649063
152	0xbb68674e	-0.0035461965
153	0x3a278bb5	0.00063913624
154	0x3b7c9244	0.003853933
155	0xba8fa084	-0.0010957872
156	0x39d25939	0.00040120797
157	0x39fb63f9	0.00047948936
158	0xbad26d66	-0.0016054332
159	0xb8db6572	-0.000104616294
160	0xbb5e3001	-0.0033903124
161	0x3a7524d5	0.00093514967
162	0x3b4473c4	0.0029976228
163	0x3b53557f	0.0032247005
164	0xba1e4e2a	-0.0006038869
165	0xba692932	-0.0008894383
166	0xbb126c7a	-0.002234249
167	0x3b2c708e	0.0026312205
168	0xbb7e9284	-0.0038844654
169	0x3b7e7fc4	0.0038833478
170	0x3b796744	0.0038055936
171	0xbb331f55	-0.0027331908
172	0xbb845ee2	-0.004039631
173	0xbb91aad7	-0.0044454145
174	0xba376129	-0.0006995374
175	0x3a5d68d5	0.0008446102
176	0xbb4481d4	-0.002998461
177	0xbae1f58c	-0.0017239316
178	0x3a47ddd0	0.00076243
179	0x3a7e7cd0	0.00097079296
180	0xbb7d9206	-0.0038691773
181	0xb9f74ca0	-0.000471686
182	0x3b5c8ea6	0.003365436
183	0x3a2534d0	0.000630212
184	0x38f0ee80	0.00011488516

bias f4 [5]
0	0x3e5051e7	0.20343743
1	0x3f91cc2b	1.1390432
2	0xbf405f90	-0.75145817
3	0xbedd8c85	-0.4327127
4	0xbfb3387e	-1.4001615

weight f4 [17, 5]
0	0x37e580d3	2.7358916e-05
1	0xbed15d59	-0.4089153
2	0xbac6b425	-0.0015159888
3	0xbaa20f07	-0.0012364098
4	0xbb645119	-0.0034838377
5	0xba934787	-0.0011236527
6	0xbef4f685	-0.4784433
7	0x3e8d31a3	0.27576932
8	0xbb8c3822	-0.0042791525
9	0x3f187b4d	0.5956314
10	0x3ab925a5	0.0014125599
11	0xba326de1	-0.00068065344
12	0x39b4c3f2	0.00034478266
13	0xbb14694d	-0.0022645772
14	0xbef0aced	-0.47006932
15	0x3b18f635	0.002334011
16	0xbee227df	-0.44171044
17	0x3a69efef	0.00089239975
18	0xba0f8ec5	-0.00054762914
19	0x3edd98a0	0.43280506
20	0x3e8560aa	0.2605031
21	0xb98bcba9	-0.00026663885
22	0xbb08b50b	-0.0020859863
23	0x3b2a1d96	0.0025957576
24	0xba9ca58e	-0.0011951195
25	0xba109ee7	-0.00055168424
26	0x3b312b7f	0.0027033982
27	0xbefb9cc3	-0.49143037
28	0x3ed2e89e	0.41193098
29	0xba2394dc	-0.00062401383
30	0x3a51ac3d	0.0007998383
31	0xbb9e2a15	-0.004826794
32	0x3a1edfa4	0.0006060547
33	0xbb5534f9	-0.0032532795
34	0xb93fc5f4	-0.00018288923
35	0x3982851a	0.000248947
36	0xba56aa9f	-0.00081888767
37	0xba833e7c	-0.0010013129
38	0xbb3b0f8a	-0.0028543198
39	0x3f4b8c8d	0.7951134
40	0x3e822bd1	0.25424054
41	0x3b9888ea	0.0046549933
42	0xbb0ffd30	-0.002197098
43	0xbe81eaf6	-0.25374573
44	0xbeacce1d	-0.33751002
45	0xbaf76df2	-0.0018877371
46	0x3aa5ae32	0.0012640415
47	0xbaafe58e	-0.0013419853
48	0xba707422	-0.00091725786
49	0xb8a6c34a	-7.951872e-05
50	0x3fc981cb	1.5742735
51	0x3f56ad3b	0.8385808
52	0xbb193789	-0.0023379049
53	0x3ab64ac9	0.0013907786
54	0xbe10e403	-0.1414948
55	0x3b6967fc	0.0035614958
56	0x3e999e2c	0.30003488
57	0xbde41592	-0.11136927
58	0xbf695ee8	-0.9116044
59	0x3b1cb236	0.0023909933
60	0xbed28337	-0.41115734
61	0xbe0670e0	-0.13128996
62	0x3b621cc9	0.003450202
63	0xba9b3c04	-0.0011843448
64	0xbb03f7fc	-0.0020136824
65	0xbb252c83	-0.0025203533
66	0xbad64c8d	-0.0016349718
67	0x3828574a	4.0135616e-05
68	0x3f5c0bbe	0.8595542
69	0x3b398878	0.0028310101
70	0x3da009bd	0.078143574
71	0xbf4f5d84	-0.8100207
72	0xbb4b7a5a	-0.003104827
73	0x3ad3960d	0.0016142741
74	0xba927366	-0.0011173307
75	0x3acb31eb	0.0015502548
76	0x3a58d0ad	0.0008270841
77	0xbb5c26c9	-0.0033592454
78	0x3b59403f	0.0033149866
79	0xbf045b9e	-0.51702297
80	0xbbac618c	-0.005260652
81	0x3bbbc1a3	0.0057298704
82	0xbb4f7fca	-0.0031661862
83	0xbb47131a	-0.0030376376
84	0x3abba3ca	0.0014315781

bias f4 [17]
0	0xbf4fe4b3	-0.8120834
1	0x3a9c5213	0.0011926315
2	0x3f5301bc	0.8242452
3	0xbf0c1ca6	-0.54731214
4	0x3b8ca8c0	0.0042925775
5	0x3a9fabfc	0.0012181993
6	0x3a8eb279	0.0010886929
7	0x3b06e19d	0.0020581253
8	0x3e2c2fea	0.16815153
9	0xbb0ec280	-0.0021783412
10	0x3f0858d6	0.5326055
11	0x3f9c0480	1.2188873
12	0x3b883787	0.00415701
13	0xbb0b31ef	-0.002123948
14	0x3a8dea2c	0.0010827235
15	0x390fa14f	0.00013697635
16	0xba9f3776	-0.0012147266
