iterative_k_clustering_breast_cancer/training_on_clusterings_second_algorithm/K_4/cluster_4/training_results/cluster_3_model.pt (torch, 19535 bytes, 4 tensors)

weight f4 [5, 397]
0.00018607917 1.267741e-05 -1.7464248e-05 0.00011898803 0.00014916592 -0.00013624375 3.664443e-05 -8.202827e-06
9.127449e-05 -1.1282362e-05 -5.2725445e-05 0.48018613 0.00019163394 0.059849095 -5.0665214e-05 -1.527954e-05
0.00020074425 7.906178e-05 7.443407e-05 -0.0001631628 2.1008804e-05 0.00012534547 -0.00019545371 2.7813265e-05
-5.5887533e-05 -0.00013015294 3.386468e-05 0.00014020057 8.017916e-05 -0.00018439001 0.00017700606 0.00015825505
-0.00014276383 5.080631e-05 0.00018083077 0.00020218943 -4.186615e-06 2.6775102e-05 7.388648e-05 2.9692921e-05
8.171251e-05 9.0067755e-05 0.00015440655 -0.00010305343 9.375377e-05 0.00019888856 -0.00013071706 0.00014619259
-8.44193e-05 0.00010111391 -0.000108533364 1.0253222 0.00020474251 8.80337e-05 -4.852547e-05 9.2607166e-05
0.0001853695 0.00015134813 0.00011149935 -7.5345495e-05 -0.00016507397 0.0002322437 -8.94798e-05 -8.537313e-05
0.00016429102 0.00019937629 5.831504e-05 6.501633e-05 -0.000116639436 0.00015301984 0.00021429671 0.00015997079
0.00018619139 -0.00017865509 7.319954e-05 -0.00015443833 0.00021362718 0.00022230671 8.79164e-05 -9.147392e-06
0.00020261532 -0.00017056773 0.00014086816 -9.3479306e-05 9.012285e-05 -5.709847e-05 3.5894423e-05 -0.00017983692
2.9314513e-05 -8.663534e-05 -4.2069296e-05 9.829698e-05 -9.414888e-05 -5.3029682e-05 -6.650141e-05 0.00015225899
-5.6504796e-06 -8.7430584e-05 0.29059735 -0.00016683039 6.939753e-05 -0.00015363921 0.00013254005 0.0001504986
0.00027282367 0.00014085659 -1.1228054e-05 8.8534565e-05 0.00017943601 -9.311551e-05 -5.1685915e-05 0.00012081463
-9.250393e-05 -0.00012171405 -0.00011481758 -7.992853e-05 0.00017733284 0.00024867753 9.3749506e-05 5.327254e-05
-4.4018627e-05 -0.00013790526 -0.00013364134 0.00020084358 0.0001130287 0.57168674 0.0002170923 0.00017705314
0.00017511995 -2.9239527e-05 -0.00018111932 0.00022199232 -0.000120855824 5.990338e-05 0.00014809334 -1.36401795e-05
-0.00017831229 1.5367434e-05 8.080606e-05 0.00011368505 0.00016844505 -0.00020092198 0.00013450194 -0.00015455067
0.00010606831 0.00018036671 0.00018922403 -0.00011106943 -0.00013482793 -3.4619647e-05 -0.00014833109 -0.00013499393
-7.284165e-05 0.00019366913 0.00016629623 -4.5964625e-05 -2.5251356e-05 7.555123e-05 -8.7191685e-05 -0.00015646085
-6.7185276e-05 -9.790894e-05 2.004161e-05 -0.0001634612 -0.00014526154 -4.2157742e-05 -0.00017815341 0.00016842734
-4.4954795e-05 9.557523e-05 0.00010992693 0.00015494555 -0.00018830363 0.00012676128 -0.00013520256 -0.0001489322
0.00017836271 0.00015867408 -6.129836e-05 -8.2790546e-05 4.612567e-05 1.1709199e-05 0.00017489625 -3.0082258e-05
0.3944342 0.104694314 0.00012850763 0.00019205117 0.00018976419 0.00011298912 -5.412774e-05 0.0001892943
0.19177137 0.608504 -0.00019065298 6.155427e-05 0.00010861631 -0.000121041216 0.00021046793 0.00019340462
-1.0498232e-05 7.682505e-05 0.000101637765 -0.00013004735 1.4356425e-05 6.8356414e-05 0.00014584459 -0.0001276758
-9.9804165e-05 7.7339326e-05 3.4858604e-05 0.00024669833 8.335644e-05 -0.00014055832 2.9660237e-05 0.00015447348
0.00010821018 0.00020880536 -8.4577914e-05 -2.2542154e-05 9.2501854e-05 5.511634e-05 -0.00013026032 0.19502959
8.6912405e-05 0.000107317726 -1.9235027e-05 -7.878043e-06 4.498739e-05 8.1173974e-05 -0.00010983131 0.00020069849
-2.8792856e-05 0.00015719965 -0.00012210866 2.7549133e-05 2.761968e-06 -2.0929234e-05 0.00015671153 7.8530924e-05
0.00016240326 -7.9646634e-05 3.3799777e-05 0.00011795969 0.0001964296 -0.00012306277 4.181551e-06 -3.3276534e-05
0.000110511435 -3.0078008e-05 6.779155e-07 0.00011810727 6.007972e-05 2.886742e-05 1.4855446 0.00015606507
00000000: 3f1e 4339 10b1 5437 3080 92b7 3689 f938
00000010: 6c69 1c39 a7dc 0eb9 a8b2 1938 e09e 09b7
00000020: 9e6a bf38 6049 3db7 8425 5db8 f5da f53e
00000030: 58f1 4839 5324 753d 5c81 54b8 902c 80b7
00000040: e07e 5239 f8cd a538 7d19 9c38 ae16 2bb9
00000050: 103c b037 2b6f 0339 b5f2 4cb9 8850 e937
00000060: c868 6ab8 aa79 08b9 ec09 0e38 ce02 1339
00000070: dc25 a838 d158 41b9 b49a 3939 44f1 2539
00000080: e0b2 15b9 dc18 5538 649d 3d39 d002 5439
00000090: c07a 8cb6 189b e037 80f3 9a38 1015 f937
000000a0: 125d ab38 c2e2 bc38 31e8 2139 641e d8b8
000000b0: ac9d c438 be8c 5039 1811 09b9 464b 1939
000000c0: 440a b1b8 1e0d d438 689c e3b8 c23d 833f
000000d0: 26b0 5639 bc9e b838 d487 4bb8 1836 c238
000000e0: bf5f 4239 34b3 1e39 c2d4 e938 ce02 9eb8
000000f0: b517 2db9 7286 7339 1aa7 bbb8 5a0a b3b8
00000100: 8945 2c39 aa0f 5139 4c97 7438 6059 8838
00000110: 529c f4b8 f373 2039 d6b4 6039 d5bd 2739
00000120: 5f3c 4339 5c55 3bb9 b482 9938 b9f0 21b9
00000130: 1c01 6039 011b 6939 c25f b838 c077 19b7
00000140: 2375 5439 6dda 32b9 02b6 1339 520a c4b8
00000150: 5600 bd38 047d 6fb8 588d 1638 9b92 3cb9
00000160: 70e8 f537 feaf b5b8 9073 30b8 ca24 ce38
00000170: cc71 c5b8 306c 5eb8 ac76 8bb8 b6a7 1f39
00000180: 4099 bdb6 f05a b7b8 2dc9 943e 31ef 2eb9
00000190: 8489 9138 361a 21b9 73fa 0a39 29cf 1d39
000001a0: c609 8f39 e7b2 1339 2060 3cb7 a2ab b938
000001b0: fd26 3c39 0247 c3b8 54c9 58b8 dc5d fd38
000001c0: abfe c1b8 bc40 ffb8 38ca f0b8 4e9f a7b8
000001d0: 6cf2 3939 ef60 8239 629b c438 f470 5f38
000001e0: a4a0 38b8 a99a 10b9 1322 0cb9 8a99 5239
000001f0: d209 ed38 105a 123f 45a3 6339 57a7 3939
00000200: 67a0 3739 6847 f5b7 d9ea 3db9 9cc6 6839
00000210: fa73 fdb8 c440 7b38 8149 1b39 20d8 64b7
00000220: 57f9 3ab9 50e9 8037 6c76 a938 326a ee38
00000230: a0a0 3039 95ae 52b9 1709 0d39 e10e 22b9
00000240: fe70 de38 d220 3d39 706a 4639 f2ed e8b8
00000250: 9960 0db9 9034 11b8 5389 1bb9 288d 0db9
00000260: 90c2 98b8 a913 4b39 ce5f 2e39 24ca 40b8
00000270: e0d2 d3b7 4271 9e38 aeda b6b8 a40f 24b9
00000280: d2e5 8cb8 7654 cdb8 081f a837 c866 2bb9
00000290: 5951 18b9 88d2 30b8 b1ce 3ab9 df9b 3039
000002a0: d88d 3cb8 906f c838 9288 e638 e178 2239
000002b0: 5f73 45b9 39eb 0439 29c5 0db9 af2a 1cb9
000002c0: e006 3b39 c061 2639 4e8d 80b8 d69f adb8
000002d0: 1077 4138 a072 4437 5b64 3739 2859 fcb7
000002e0: 48f3 c93e f969 d63d 01c0 0639 5861 4939
000002f0: 70fb 4639 92f4 ec38 3807 63b8 4d7d 4639
00000300: b75f 443e ebc6 1b3f 05ea 47b9 b216 8138
00000310: f0c8 e338 82d7 fdb8 0eb1 5c39 a8cc 4a39
00000320: 9021 30b7 221d a138 5c26 d538 525d 08b9
00000330: 60dc 7037 925a 8f38 dced 1839 b6e0 05b9
00000340: f44d d1b8 3c31 a238 2435 1238 4a57 8139
00000350: a6cf ae38 d662 13b9 e0ce f837 29fa 2139
00000360: e6ee e238 c3f2 5a39 6c5f b1b8 e818 bdb7
00000370: 8efd c138 b82c 6738 7d96 08b9 d6b5 473e
00000380: be44 b638 c40f e138 e85a a1b7 f02b 04b7
00000390: d8b0 3c38 f23b aa38 3c55 e6b8 9772 5239
000003a0: 3088 f1b7 f6d5 2439 4b0a 00b9 5019 e737
000003b0: 405a 3936 3091 afb7 ee52 2439 f8b0 a438
000003c0: cb4a 2a39 f607 a7b8 3cc4 0d38 2061 f738
000003d0: abf8 4d39 690a 01b9 404f 8c36 6892 0bb8
000003e0: 60c2 e738 0850 fcb7 00fa 3535 5cb0 f738
000003f0: 1cfe 7b38 5028 f237 5326 be3f 66a5 2339

bias f4 [5]
0.46944878 1.5942067 -2.116566 -2.0644383 2.0616078
00000000: 975b f03e f70e cc3f d175 07c0 c21f 04c0
00000010: 62f1 0340

weight f4 [377, 5]
7.0387396e-05 -1.4102334e-05 6.571834e-05 7.025679e-05 0.000106376814 -0.00034766292 0.13002291 -0.24879135
-0.0067429296 0.4332215 -5.130531e-05 8.963019e-05 6.9810456e-05 7.050374e-05 5.719572e-06 0.00011790481
-0.00015917543 4.265354e-05 0.00019915076 -1.433467e-05 0.00018512858 0.00013164747 9.711308e-05 0.00011438994
-2.9162926e-05 -0.00018625133 0.0001292658 -7.90185e-05 0.0001733542 -0.00022200425 -5.512328e-05 -0.00023720156
8.342831e-06 -0.00010976456 3.9599297e-05 0.00018777192 2.5751498e-05 -0.0003205163 -0.00018041817 7.3869924e-05
2.4978144e-05 0.00010130619 -0.00019213272 -0.00018165412 -7.601996e-05 -2.527851e-05 9.870528e-05 -0.00016220532
2.8041264e-05 -2.9242598e-05 2.5573987e-05 -0.00013874326 0.00012126347 -0.00019145792 4.7636815e-05 -0.0001874119
0.0002402075 -0.530623 -0.38448685 0.41441447 8.8550776e-05 0.00018163174 -0.06947941 -0.00017447468
0.00033339596 3.6311983e-05 0.00019628959 -0.00046576565 -0.35299858 0.24596658 7.354889e-05 0.00016279846
-4.850955e-05 0.00011083673 6.728915e-05 -4.7200956e-06 -0.00012293727 -0.00019093658 -0.0001196707 -0.00012384118
0.00014374361 3.968262e-05 -0.00016947335 -0.00017550305 3.917147e-05 0.29999983 1.887399e-05 -0.21055576
-0.35561612 0.02950228 0.00028271927 0.00012155412 -0.00031301475 -0.00019987428 0.24456795 -8.3836116e-05
-7.075256e-05 -9.10222e-05 4.1142448e-05 0.00017708163 -0.0001281186 -0.0001467643 -7.172249e-05 -7.170627e-05
-0.00011027556 -5.6338715e-05 -7.920229e-06 0.0001174013 4.51831e-05 6.1043305e-05 -0.00016842027 -6.0719598e-05
-0.00013203369 -0.0001370405 -0.00012799485 -8.1678765e-05 0.00016909602 8.7851484e-05 7.6392156e-05 0.00023020754
3.9771738e-05 -0.00015230163 -9.672513e-07 0.00016720792 -7.526712e-05 3.4978366e-05 5.827917e-05 0.00011231647
8.0628466e-05 0.00015868848 -4.9892988e-06 5.542586e-05 -7.152707e-05 2.7488903e-05 7.555849e-05 -2.4146357e-05
-0.00024306678 -7.194677e-05 -7.4801166e-05 -0.00011842702 -0.00017290981 -0.00012203002 0.0002034196 0.00017585757
-4.289151e-05 -0.00010457287 -4.2649554e-05 0.000108277105 5.0476076e-05 -0.00019182102 -3.9391933e-05 5.740694e-05
-8.155928e-05 -6.2347404e-05 0.00025424224 -0.00018958388 -0.00018275027 9.503176e-05 1.3830082e-05 -7.038888e-05
0.00018410402 0.00013820193 5.72851e-05 -6.3710177e-06 -0.00024625502 -1.9418876e-06 -6.052069e-06 -0.0002091563
0.0001286436 7.310588e-05 -3.489948e-05 8.8077446e-05 2.6474256e-05 9.236866e-05 -1.66448e-05 8.752948e-06
0.0001981807 -0.00034221855 -0.19175644 9.67694e-05 -9.084013e-05 -2.3117216e-05 0.00011823082 -5.2743722e-05
-0.00013885312 -0.00010987709 -0.0001421263 -8.595985e-05 0.0001252606 1.151477e-05 -0.00019546412 -0.0001333066
-0.00014952505 0.000112237176 9.3124065e-05 -0.00015995244 -0.00014311414 0.00015340667 -8.466115e-05 -8.3386156e-05
9.191988e-05 6.189945e-05 8.613719e-05 3.4090684e-05 -0.00010205804 4.0933286e-05 0.06441385 -0.11306481
-0.0021235119 0.021823414 -9.186966e-05 -0.00026071654 -8.781808e-05 0.00017356555 -6.294278e-05 0.00014623307
0.000114365335 -5.0365023e-05 8.803012e-05 6.6218476e-05 2.0212887e-05 9.030091e-05 0.0002139394 3.0524476e-05
-0.00022243714 -0.00019974049 1.5079524e-05 -1.7590792e-06 0.00023726579 -0.00021949151 0.00013719242 -0.00013655759
-9.21076e-05 -0.00011447711 -0.00012032519 0.000171315 -0.00016031777 -0.00017167315 -0.00015224876 0.000105248095
-4.4336673e-05 -0.00018606009 -0.00013190467 0.00015352709 8.1900114e-05 8.27488e-05 -1.8632563e-05 0.00013908184
9.177976e-05 -1.578193e-05 3.7543941e-06 6.4227934e-06 -3.377344e-05 3.7668215e-05 -0.0001612361 -0.9505734
00000000: f29c 9338 1099 6cb7 44d2 8938 d456 9338
00000010: 9e16 df38 8746 b6b9 ba24 053e 29c3 7ebe
00000020: cbf3 dcbb 35cf dd3e a830 57b8 d8f7 bb38
00000030: 3467 9238 68db 9338 c0ea bf36 aa43 f738
00000040: 54e8 26b9 e4e6 3238 20d3 5039 f07e 70b7
00000050: 131f 4239 d90a 0a39 30a9 cb38 a2e4 ef38
00000060: e8a2 f4b7 764c 43b9 868b 0739 bcb6 a5b8
00000070: 6ac6 3539 d0c9 68b9 2c34 67b8 4fb9 78b9
00000080: 30f8 0b37 6631 e6b8 6c17 2638 a4e4 4439
00000090: ec04 d837 f80a a8b9 a22e 3db9 9dea 9a38
000000a0: 2888 d137 5974 d438 3c77 49b9 687a 3eb9
000000b0: e86c 9fb8 300d d4b7 feff ce38 a915 2ab9
000000c0: 283a eb37 004e f5b7 b887 d637 9c7b 11b9
000000d0: d44e fe38 18c2 48b9 a4cd 4738 0084 44b9
000000e0: 36e0 7b39 e9d6 07bf 76db c4be 222e d43e
000000f0: 56b4 b938 6674 3e39 394b 8ebd 31f3 36b9
00000100: a6cb ae39 b24d 1838 16d3 4d39 0232 f4b9
00000110: 3bbc b4be aade 7b3e 423e 9a38 e1b4 2a39
00000120: bc76 4bb8 0471 e838 961d 8d38 5061 9eb6
00000130: b9e8 00b9 2636 48b9 b8f7 fab8 5ddb 01b9
00000140: e2b9 1639 e470 2638 a8b4 31b9 3e07 38b9
00000150: 0c4c 2438 9499 993e 9653 9e37 ee9b 57be
00000160: 5113 b6be c4ae f13c f039 9439 dfea fe38
00000170: 211c a4b9 5895 51b9 0570 7a3e 2cd1 afb8
00000180: fe60 94b8 2ce3 beb8 5e90 2c38 fdae 3939
00000190: 9357 06b9 bee4 19b9 b869 96b8 0361 96b8
000001a0: be43 e7b8 3c4d 6cb8 20e1 04b7 5835 f638
000001b0: fc82 3d38 6004 8038 f999 30b9 2cad 7eb8
000001c0: 8672 0ab9 87b2 0fb9 5b36 06b9 f44a abb8
000001d0: 5e4f 3139 e83c b838 ba34 a038 de63 7139
000001e0: 94d0 2638 28b3 1fb9 80d2 81b5 8954 2f39
000001f0: bad8 9db8 bcb5 1238 c870 7438 728b eb38
00000200: 1417 a938 9d65 2639 c069 a7b6 1079 6838
00000210: ce00 96b8 f897 e637 2875 9e38 e88d cab7
00000220: bedf 7eb9 21e2 96b8 92de 9cb8 065c f8b8
00000230: 204f 35b9 5eea ffb8 084d 5539 6866 3839
00000240: 68e6 33b8 224e dbb8 9ce2 32b8 d412 e338
00000250: 46b6 5338 9023 49b9 c438 25b8 3cc8 7038
00000260: ce0a abb8 82c0 82b8 d14b 8539 09cb 46b9
00000270: a7a0 3fb9 ca4b c738 c007 6837 be9d 93b8
00000280: 0c0c 4139 4cea 1039 6845 7038 a0c6 d5b6
00000290: ca1b 81b9 6051 02b6 e012 cbb6 f750 5bb9
000002a0: 81e4 0639 6c50 9938 0861 12b8 38b6 b838
000002b0: 0815 de37 0cb6 c138 70a0 8bb7 a0d9 1237
000002c0: bace 4f39 cc6b b3b9 cd5b 44be adf0 ca38
000002d0: 6c81 beb8 d8eb c1b7 b0f2 f738 2439 5db8
000002e0: 1a99 11b9 d06d e6b8 bd07 15b9 5845 b4b8
000002f0: 6358 0339 902f 4137 80f5 4cb9 38c8 0bb9
00000300: d3c9 1cb9 e060 eb38 9a4b c338 e8b8 27b9
00000310: e910 16b9 cadb 2039 1c8c b1b8 9adf aeb8
00000320: 1cc5 c038 04d0 8138 8da4 b438 98fc 0e38
00000330: fe07 d6b8 c8af 2b38 69eb 833d 868e e7bd
00000340: 9e2a 0bbb 04c7 b23c 26aa c0b8 c8b0 88b9
00000350: f92a b8b8 26ff 3539 2600 84b8 2456 1939
00000360: 6cd7 ef38 083f 53b8 d09c b838 c6de 8a38
00000370: d88e a937 ef5f bd38 ec54 6039 6807 0038
00000380: 043e 69b9 6e71 51b9 10fe 7c37 8019 ecb5
00000390: 8dca 7839 4e27 66b9 4fdb 0f39 e630 0fb9
000003a0: e429 c1b8 6e13 f0b8 1857 fcb8 05a3 3339
000003b0: f91a 28b9 2903 34b9 f7a4 1fb9 a4b8 dc38
000003c0: 24f6 39b8 2019 43b9 e44f 0ab9 1dfc 2039
000003d0: cac1 ab38 6c89 ad38 204d 9cb7 7fd6 1139
000003e0: e279 c038 7063 84b7 00f4 7b36 6083 d736
000003f0: f4a7 0db8 f0fd 1d38 7c11 29b9 c758 73bf

bias f4 [377]
0.00011803968 0.09627949 -0.0002716038 -6.802415e-05 0.00014037915 6.891899e-05 -8.790007e-05 -6.709899e-06
-5.115715e-05 -0.00017114189 -0.00010867331 0.74285716 0.00034419517 0.32907182 6.1074476e-05 0.00016350631
0.00020271238 0.2064697 0.00031386368 0.00027551298 -5.290362e-05 -0.00015311995 -3.799607e-05 -0.00012625687
0.0001280341 -0.00013622615 -6.5056185e-05 -1.3109602e-06 0.00014149497 -0.0001753516 -5.2456984e-05 -0.00021781662
-4.5116758e-07 0.000172728 -0.00013145326 0.13126574 -0.00015437898 6.791965e-05 0.000119617805 0.00016989966
-0.0001987488 0.053454567 -0.00027626508 -0.00016269357 -0.00018526801 -0.00018561323 -5.2467294e-05 6.5748376e-05
2.9800576e-06 -0.0002090933 -0.000118038035 1.2651342 -5.985459e-05 -0.00021593855 1.2170785e-05 -0.00014144012
-9.3071285e-05 0.00022242706 0.0001357554 0.000124494 5.1571653e-05 0.10724213 -0.0001923207 -9.0233036e-05
8.1643695e-05 3.5695426e-05 -8.453513e-05 8.731641e-05 -3.354653e-05 -5.8410937e-05 0.00014494048 -0.000101351674
7.5436765e-06 1.8753737e-05 0.00015106065 -5.2324118e-05 1.0675576e-05 -7.999649e-05 0.00012113369 0.00012789106
0.000260694 -7.2322364e-05 0.086628325 -0.00019272213 -0.00019083709 -7.788828e-05 3.4134806e-05 0.00016337725
1.246066e-06 0.00019216628 6.365197e-06 -9.3239825e-05 -0.00018070705 6.899456e-05 -0.0002591436 -0.00018230251
6.6381763e-06 -0.000100162826 0.7248297 -6.66246e-05 9.1559385e-05 0.0001501314 2.9893563e-06 0.00010024461
0.00045656203 -0.00022873362 -0.00019883315 -0.0002032326 0.00010054049 8.528836e-05 -0.0001461098 -1.0537478e-05
4.8123606e-05 -0.00018880359 9.039881e-05 -0.0001914178 0.00011390105 0.22018073 0.00018543223 -0.00016944697
-0.00017513667 3.9726423e-05 -9.8474804e-05 0.00013138361 1.2442062e-05 0.60960454 -3.0929223e-05 -6.1683524e-05
5.644257e-05 -7.2444105e-05 -5.232294e-05 4.0095147e-05 4.3319e-05 -6.451014e-05 2.6522684e-06 -0.00011134191
5.9658734e-05 -0.000108824584 -5.0985378e-05 4.5789056e-07 -1.642479e-05 5.879211e-05 3.2383512e-05 -0.00026718975
6.5385044e-05 -5.314393e-05 -0.00014923335 -4.025463e-05 -8.649091e-05 -0.00018941185 0.00014376309 4.2789747e-05
-0.00018686657 4.6075387e-05 -8.934039e-05 -0.00018855534 0.00021427064 0.000101514 -0.00024977836 -1.7234517e-05
6.595763e-05 4.8919333e-05 -7.513819e-05 -0.0002497176 -3.398527e-05 0.00017637353 -0.00016127736 -0.00016208677
0.00017962548 -0.00017766302 -0.00027032747 0.00012676154 -0.00016553845 0.00014035481 0.00013702604 -8.836374e-06
8.604476e-05 0.000111076835 5.494604e-05 9.356564e-05 -9.460424e-05 9.86395e-05 3.323807e-05 -0.0001531551
0.48331708 0.37196714 -0.0002342072 -0.00016375478 -0.00011323121 3.252049e-05 -0.00019375121 -2.7417002e-05
0.2679812 0.7050932 0.00011338602 -2.9682298e-05 -0.00013976995 -2.6197857e-05 0.0001611964 3.6763173e-05
4.982452e-05 -6.5889086e-05 -5.327414e-05 -9.138606e-05 -7.7071716e-05 0.0001390293 -0.00020775502 3.797635e-05
-3.546744e-05 -4.9278933e-05 -0.00015319184 -2.5330519e-06 2.60277e-06 -3.78376e-05 -0.00018393212 0.00023002419
-0.00022876776 -1.9891115e-05 -8.721385e-06 2.043965e-05 8.178233e-05 -0.00023553835 -0.00012184486 0.48716614
-5.023535e-05 0.7543122 -5.276811e-05 9.906784e-06 -0.00014419097 2.4557914e-05 -0.00015364266 -3.236602e-05
0.0003566098 -0.00012953537 2.9979637e-06 -7.1649716e-05 5.843499e-05 -4.7655165e-05 -4.8985326e-05 -1.0299802e-05
0.00013791739 -6.4285996e-06 -0.00011680412 -2.9393108e-05 -1.6525853e-05 -9.418378e-06 6.559014e-05 0.00013111162
0.00016364426 -8.183415e-05 -0.00014948446 9.563197e-05 0.00014993983 -3.1872856e-05 1.6143357 -8.8332905e-05
00000000: 128c f738 2e2e c53d 0c66 8eb9 30a8 8eb8
00000010: be32 1339 9a88 9038 fe56 b8b8 9825 e1b6
00000020: 9291 56b8 8d74 33b9 8ae7 e3b8 e32b 3e3f
00000030: 1875 b439 1a7c a83e 1c15 8038 e472 2b39
00000040: 318f 5439 cb6c 533e 128e a439 ba72 9039
00000050: d4e4 5db8 d38e 20b9 f85d 1fb8 d263 04b9
00000060: e440 0639 eed7 0eb9 c66e 88b8 40f4 afb5
00000070: 445e 1439 96de 37b9 4205 5cb8 b465 64b9
00000080: 0038 f2b4 521e 3539 b7d6 09b9 876a 063e
00000090: cbe0 21b9 1670 8e38 52db fa38 1827 3239
000000a0: 3a67 50b9 2df3 5a3d acd7 90b9 b998 2ab9
000000b0: 8144 42b9 2ca1 42b9 5410 5cb8 64e2 8938
000000c0: 00fd 4736 0e40 5bb9 308b f7b8 ebef a13f
000000d0: 600c 7bb8 906d 62b9 2031 4c37 8b4f 14b9
000000e0: 442f c3b8 4f3b 6939 9059 0e39 9b8a 0239
000000f0: a44e 5838 c3a1 db3d b2a9 49b9 7e3b bdb8
00000100: 2038 ab38 acb7 1538 7448 b1b8 a41d b738
00000110: 50b4 0cb8 44fe 74b8 2afb 1739 c48c d4b8
00000120: b01f fd36 5851 9d37 0966 1e39 9876 5bb8
00000130: 401b 3337 cac3 a7b8 2809 fe38 7f1a 0639
00000140: c2ad 8839 c6ab 97b8 316a b13d 7415 4ab9
00000150: 711b 48b9 f457 a3b8 f82b 0f38 3f50 2b39
00000160: 803e a735 3e80 4939 a094 d536 c089 c3b8
00000170: 2e7c 3db9 2cb1 9038 aadd 87b9 7528 3fb9
00000180: 80bd de36 820e d2b8 708e 393f cfb8 8bb8
00000190: 9203 c038 976c 1d39 c09c 4836 6a3a d238
000001a0: b85e ef39 37d8 6fb9 de7d 50b9 d61a 55b9
000001b0: 44d9 d238 d7dc b238 0d35 19b9 20ca 30b7
000001c0: 54d8 4938 94f9 45b9 7e94 bd38 53b7 48b9
000001d0: 29de ee38 0f77 613e 9670 4239 93ad 31b9
000001e0: e4a4 37b9 ec9f 2638 4284 ceb8 05c4 0939
000001f0: 40be 5037 0b0f 1c3f 00ba 01b8 175c 81b8
00000200: c0bc 6c38 22ed 97b8 5475 5bb8 d62b 2838
00000210: 6cb1 3538 9e49 87b8 a0fd 3136 3c80 e9b8
00000220: 143a 7a38 c138 e4b8 22d9 55b8 00d4 f534
00000230: f8c7 89b7 8c97 7638 88d3 0738 9a15 8cb9
00000240: 541f 8938 dce6 5eb8 867b 1cb9 14d7 28b8
00000250: 7462 b5b8 db9c 46b9 1cbf 1639 2479 3338
00000260: 9df1 43b9 1241 4138 425c bbb8 f0b6 45b9
00000270: d6ad 6039 eae3 d438 aff4 82b9 d892 90b7
00000280: bc52 8a38 bc2e 4d38 8293 9db8 87ec 82b9
00000290: 688b 0eb8 e9f0 3839 901c 29b9 d6f5 29b9
000002a0: d959 3c39 0e4b 3ab9 bdba 8db9 4beb 0439
000002b0: 6494 2db9 352c 1339 a6ae 0f39 f03f 14b7
000002c0: ee72 b438 ecf1 e838 dc75 6638 ac38 c438
000002d0: 4466 c6b8 aedc ce38 1b69 0b38 4298 20b9
000002e0: 5675 f73e 7a72 be3e 8495 75b9 97b5 2bb9
000002f0: 8b76 edb8 9c66 0838 b229 4bb9 90fd e5b7
00000300: d534 893e fd80 343f a8c9 ed38 40fe f8b7
00000310: 368f 12b9 78c3 dbb7 d406 2939 2832 1a38
00000320: acfa 5038 ef2d 8ab8 ac72 5fb8 84a6 bfb8
00000330: 90a1 a1b8 65c8 1139 d0d8 59b9 cc48 1f38
00000340: e0c2 14b8 dab0 4eb8 1fa2 20b9 80fd 29b6
00000350: 40ab 2e36 d0b3 1eb8 e7dd 40b9 a632 7139
00000360: 61e1 6fb9 d8db a6b7 1052 12b7 d075 ab37
00000370: 8e82 ab38 d8fa 76b9 f686 ffb8 d76d f93e
00000380: ccb3 52b8 9b1a 413f 5453 5db8 5035 2637
00000390: f831 17b9 b801 ce37 231b 21b9 c0c0 07b8
000003a0: 5bf7 ba39 e3d3 07b9 a030 4936 a642 96b8
000003b0: 1818 7538 58e1 47b8 9875 4db8 50cd 2cb7
000003c0: eb9d 1039 40b5 d7b6 bcf4 f4b8 3891 f6b7
000003d0: 00a1 8ab7 a003 1eb7 708d 8938 027b 0939
000003e0: ec97 2b39 609e abb8 eebe 1cb9 068e c838
000003f0: 2b39 1d39 38af 05b8 8da2 ce3f 5e3f b9b8
