iterative_k_clustering_AML/training_on_clusterings_second_algorithm/K_4/cluster_2/training_results/cluster_1_model.pt (torch, 3727 bytes, 4 tensors)

weight f4 [5, 37]
0	0x3a811034	0.0009846748
1	0x3ba7a1bf	0.005115717
2	0x3fa17c07	1.2615975
3	0x3a7814d5	0.00094635534
4	0xbab3d488	-0.0013719955
5	0x3fd7a3f0	1.6846905
6	0xbb67cb84	-0.0035369107
7	0xbba519c1	-0.0050384705
8	0xbb13a1bf	-0.0022526828
9	0xba60e595	-0.0008579132
10	0x3fe8bbeb	1.8182348
11	0xbb69dd06	-0.0035684719
12	0xbf5d91c0	-0.8655052
13	0x3ad820b8	0.0016489243
14	0xba749d69	-0.0009331317
15	0xbac7d035	-0.0015244546
16	0x3f0ce0d8	0.55030584
17	0xbffe22fd	-1.9854428
18	0x3b288d72	0.0025719074
19	0xbb8e7751	-0.0043477197
20	0x3fc82031	1.5634824
21	0xbb02def5	-0.0019969319
22	0x3b3d5204	0.0028887996
23	0x3a36c2d5	0.0006971781
24	0x3a6546d5	0.00087462115
25	0xbb1ea01c	-0.002420432
26	0xba62c4e5	-0.00086505554
27	0xbb8b03c2	-0.0042423913
28	0x3b249924	0.0025115693
29	0xba426f55	-0.00074171025
30	0x3b56e084	0.003278763
31	0xba805aea	-0.000979272
32	0xba2820d5	-0.0006413584
33	0xbb15308c	-0.0022764532
34	0xbae53bea	-0.0017489169
35	0x3a3e7ed5	0.0007266824
36	0x3b6273a4	0.003455379
37	0x3b736b04	0.0037142644
38	0xbafdaab5	-0.0019353243
39	0x3b5324bd	0.0032217943
40	0x3b8d2362	0.0043071965
41	0x3b8046a2	0.00391467
42	0x3b6637b7	0.0035128423
43	0xbb31d6c4	-0.0027136067
44	0xba2048cb	-0.00061143626
45	0x3b15a070	0.0022831224
46	0x3b738177	0.0037156024
47	0xbb874b6c	-0.004128864
48	0x3b75acc0	0.0037487
49	0x3a4e1b5f	0.0007862355
50	0x3b407064	0.0029363865
51	0xba5b2e29	-0.00083610654
52	0xbb01cdf2	-0.001980659
53	0xbb0de081	-0.0021648707
54	0x3afc5914	0.0019252622
55	0xbedcc11e	-0.43116087
56	0x3b378c0a	0.0028007054
57	0xbb4bc53e	-0.0031092907
58	0xbb8870c2	-0.0041638324
59	0x3a0f2b0d	0.0005461432
60	0x3b4dc687	0.003139885
61	0x3b1be904	0.0023790011
62	0xbb73d704	-0.0037207017
63	0x3b7248c4	0.0036969641
64	0xbb6b5577	-0.0035909095
65	0x3b818fdd	0.0039539174
66	0xbb51b2b5	-0.0031997387
67	0x3a41ead5	0.00073973584
68	0x3b5f08b7	0.0034032294
69	0xba4d36d5	-0.00078283
70	0x3a6638d5	0.00087822723
71	0x3b847cae	0.0040431833
72	0xbb844442	-0.0040364573
73	0xba1d8b09	-0.00060097926
74	0x3a5d8ed5	0.00084517646
75	0x3ac96870	0.0015366208
76	0x3b982b23	0.004643814
77	0x3a4ccad5	0.0007812207
78	0x3b1186a4	0.0022205496
79	0x3b6ec7b3	0.0036434948
80	0x3a1f75d5	0.0006082927
81	0x3b870aef	0.0041211764
82	0xb9a6555e	-0.0003172559
83	0x3b33e244	0.0027448097
84	0xba8ef406	-0.0010906465
85	0xbb1c3fd1	-0.0023841748
86	0xba84a214	-0.0010119104
87	0x3b035084	0.0020037005
88	0x3a5e54d5	0.0008481269
89	0x3b0d6bdf	0.0021579189
90	0xb9d0a178	-0.00039793155
91	0x3b731349	0.0037090352
92	0xbf6e4a1e	-0.93081844
93	0x3fd73448	1.681283
94	0x3b2f952c	0.0026791794
95	0xbb40c615	-0.002941494
96	0xbb674384	-0.0035288045
97	0x3a044bd5	0.00050467
98	0xba14e1d5	-0.00056794035
99	0xba2a6ed5	-0.00065015006
100	0xbb6cc604	-0.0036128769
101	0x3a3f9ed5	0.00073097396
102	0xbab15408	-0.0013529072
103	0x3a2ccd09	0.0006591832
104	0x3a816304	0.0009871428
105	0xba96116a	-0.0011449282
106	0x3997c159	0.0002894502
107	0xbb80b7fb	-0.003928182
108	0x3b8d6177	0.004314597
109	0x3a4f6cd5	0.00079126406
110	0xbb66ed8c	-0.0035236804
111	0xba82c06a	-0.0009975557
112	0x3a805215	0.0009790087
113	0xbec9c370	-0.3940692
114	0x3aaaa148	0.0013018036
115	0x3b67a277	0.003534464
116	0xbeb44417	-0.35208198
117	0xba53f3d5	-0.0008085345
118	0xbb3803e2	-0.0028078486
119	0xbec48738	-0.38384414
120	0x3ac5d4c8	0.0015093321
121	0x3b90168d	0.0043972195
122	0x3b2abd8e	0.0026052925
123	0xbb22a42d	-0.0024817095
124	0xbb78c984	-0.003796191
125	0x3b68e864	0.0035538906
126	0x3b87c572	0.0041434104
127	0x3b90ab72	0.004414969
128	0x3b65cdb7	0.0035065243
129	0x3b7c360b	0.003848436
130	0x3ae545fb	0.0017492169
131	0xbb543607	-0.0032380836
132	0xbb679f04	-0.0035342583
133	0x3a1ca6d5	0.00059757876
134	0x3b4ae7a4	0.0030960822
135	0xba15c4d5	-0.0005713229
136	0x3b6770c4	0.0035315016
137	0x3a2380d5	0.0006237154
138	0xba4546d5	-0.00075255084
139	0x3aea38d8	0.0017869724
140	0x3a930e6a	0.0011219506
141	0x3a82926a	0.0009961848
142	0x3a207cd5	0.0006122117
143	0x3a3274d5	0.00068075705
144	0xbb710104	-0.0036774287
145	0xba144ad5	-0.0005656903
146	0xbb2923c4	-0.0025808671
147	0x3b684ce4	0.003544622
148	0x3a6be8d5	0.0008999233
149	0xbaf95f70	-0.0019025635
150	0xb86740a7	-5.5134904e-05
151	0x3b7105c4	0.0036777118
152	0xb9c23019	-0.000370384
153	0xb7c2ed07	-2.3236977e-05
154	0x3b2cbda4	0.0026358152
155	0xb9b81136	-0.00035108038
156	0xbab64a89	-0.0013907711
157	0xb98eee19	-0.00027261747
158	0x3b4e79f4	0.0031505795
159	0xbb4d81a8	-0.0031357799
160	0xba947866	-0.0011327385
161	0xbb14b0f5	-0.0022688482
162	0xba835772	-0.0010020568
163	0xbb4adfae	-0.0030956077
164	0x3ac12dad	0.0014738344
165	0xbfb23fac	-1.3925681
166	0xb9a9d69b	-0.00032394085
167	0x3b4b9110	0.0031061806
168	0xbb82541b	-0.0039773113
169	0xbab57808	-0.0013844976
170	0x3b3a84b5	0.0028460447
171	0x3a45f609	0.00075516157
172	0xba2c0cd5	-0.00065631914
173	0x3ae10408	0.0017167339
174	0x3a664ad5	0.00087849546
175	0x3a80926a	0.000980926
176	0xb886ae80	-6.422121e-05
177	0xbaa93468	-0.0012909295
178	0xbb76b236	-0.0037642843
179	0x3b68d186	0.0035525276
180	0x3a3474d0	0.00068838615
181	0xb9dc6c20	-0.0004204223
182	0xbb7e3586	-0.0038789227
183	0x3b509814	0.0031828927
184	0x3a1150d0	0.0005543353

bias f4 [5]
0	0xbf90eb63	-1.1321834
1	0xbf8f60cd	-1.1201416
2	0xbf056de5	-0.5212081
3	0xbf9062da	-1.1280167
4	0x3e84a6c4	0.25908482

weight f4 [17, 5]
0	0xbb12a6dc	-0.0022377288
1	0xba4274ce	-0.0007417918
2	0x3b111b20	0.0022141412
3	0x3b00b953	0.0019641712
4	0x3b167edd	0.00229638
5	0x3f272106	0.65284765
6	0xba281fc7	-0.00064134266
7	0x3aa0ae53	0.0012258984
8	0x3adbbc67	0.0016764522
9	0xba5e4d55	-0.00084801513
10	0xbfb01072	-1.3755019
11	0xbf3be2cb	-0.73392934
12	0xbbbffd2b	-0.0058590374
13	0xbba01869	-0.0048857224
14	0x3e828d32	0.25498348
15	0x3e0893c0	0.13337612
16	0x3aa9c353	0.0012951888
17	0x3e697bad	0.22801085
18	0x3f7800f9	0.96876484
19	0xba5d6bd3	-0.0008446548
20	0xbb004539	-0.001957251
21	0x3f2740f2	0.65333474
22	0x3aaabde0	0.0013026558
23	0x3f4f3881	0.80945593
24	0x3b6f479e	0.0036511193
25	0xba9ea08c	-0.001210229
26	0xbf482b7e	-0.78191364
27	0xbfb28c4d	-1.3949066
28	0xbb1ba3f4	-0.0023748847
29	0xbe5f66a0	-0.21816492
30	0xbb119b6c	-0.0022217883
31	0x3f176182	0.5913316
32	0x3e043c50	0.12913632
33	0xba6e8176	-0.00090982707
34	0xba44b7e4	-0.00075042085
35	0xbb2336b5	-0.0024904434
36	0x3b12a6b6	0.00223772
37	0x3b627491	0.0034554342
38	0x3e91b1d5	0.28455988
39	0x3a3a1e9c	0.0007099898
40	0xbb535518	-0.0032246765
41	0x39f72113	0.00047136153
42	0xbad19b74	-0.0015991763
43	0xbe751853	-0.2393506
44	0xbfdcd1fb	-1.7251581
45	0x3b30e2f5	0.0026990746
46	0x3b467735	0.0030283455
47	0x3b872604	0.004124405
48	0x3b122725	0.0022301164
49	0xbb299d67	-0.0025881173
50	0x3f7e0129	0.9922052
51	0x3b0e1e05	0.0021685374
52	0x3f073676	0.52817476
53	0xbf9cfc13	-1.2264427
54	0xbee63e5c	-0.4496945
55	0x3f622560	0.8833828
56	0x3b50ff42	0.0031890427
57	0x3aba282e	0.0014202648
58	0xbf219cd8	-0.6312995
59	0xb8f0a70a	-0.00011475205
60	0x3b6abfe3	0.003581994
61	0xb92a4bcd	-0.00016240701
62	0xbf3cb674	-0.737159
63	0xbb2a8532	-0.0026019332
64	0x3ea8f8ef	0.3300242
65	0xbf83eaa2	-1.0305979
66	0xbe30a0f2	-0.17248896
67	0x3ff8ac49	1.9427577
68	0xb8c8d340	-9.5760915e-05
69	0x3ae58618	0.0017511277
70	0xbb2520c6	-0.0025196536
71	0x3f40490d	0.75111467
72	0x3e6d9c13	0.23204069
73	0x3f128d6c	0.5724704
74	0xb9e862b0	-0.00044324016
75	0xba77a331	-0.00094466197
76	0x3ba5bcdb	0.0050579137
77	0x3bf611f8	0.0075094663
78	0xbfc71b40	-1.5555191
79	0x3b8ff6ad	0.0043934197
80	0x3f9c5033	1.2211975
81	0x3a8ea9ae	0.0010884309
82	0xbec551f3	-0.38539085
83	0xbf20c99f	-0.6280765
84	0x3b052a70	0.0020319484

bias f4 [17]
0	0xbf93c5c6	-1.1544731
1	0xbb8645b5	-0.004097665
2	0x3b5a782b	0.0033335786
3	0xbb43fa87	-0.0029903965
4	0x3b09d6e6	0.002103263
5	0x3ad0d13f	0.0015931501
6	0xbf446dd6	-0.76730096
7	0x3a0a589c	0.0005277486
8	0x3f444b5d	0.76677495
9	0xbe1cb6d0	-0.15304112
10	0x3b307a9d	0.0026928552
11	0x3efd2016	0.49438542
12	0x3b1408a3	0.0022588156
13	0x3b817de9	0.0039517772
14	0xbb9072d7	-0.004408221
15	0xbb2df9fd	-0.002654671
16	0x3f0f4fe0	0.55981255
