RECAP_clustering_breast_cancer/results_trainings/K_4/cluster_3/training_results/cluster_2_model.pt (torch, 18767 bytes, 4 tensors)

weight f4 [5, 379]
00000000: 84e3 0838 fe59 0bb9 83ec 263f cca3 bc38
00000010: 4c5e 1e38 8040 5439 6813 2639 fee4 1039
00000020: d0a5 3b39 30e7 f137 eeaa 1d39 f05e 3e37
00000030: f1a1 6b3f 2ac0 5d39 69dd bc3e 7786 1139
00000040: 00ef b8b8 dbac b738 2fe3 883e 2d4a 1fb9
00000050: cd1d 01b9 36ed 1d39 4fb7 7539 074c 4139
00000060: 6ecb f1b8 207b f938 0cea b538 a8bf 46b8
00000070: b811 b037 ccec c2b8 3cd1 02b9 3897 06b8
00000080: a08f 9db6 8a8f 9fb8 9891 5eb8 2507 8d3f
00000090: 8495 5e38 694f 25b9 189a 4638 7afc c038
000000a0: 0880 00b8 9d44 36b9 3bca 0d39 808f 34b9
000000b0: 9356 15b9 2975 1eb9 4024 e0b8 fd7f 3db9
000000c0: ae76 8ab8 5f20 09b9 24c4 eb38 123e 7d3f
000000d0: 20d4 a737 5f39 02b9 a8b4 0fb8 632c 1c39
000000e0: 0c82 a9b8 a851 7238 c457 b838 2dc0 46b9
000000f0: 23e6 3b39 c0a4 4eb8 d872 0739 b8ca f9b7
00000100: f2a9 87b8 b8c2 9037 8385 4139 30e1 26b9
00000110: 6cdd 9038 a737 00b9 9c6f f9b8 8c8b 4bb9
00000120: f3b2 893c 4287 90b8 f81d dfb7 8b05 4339
00000130: 3c06 e038 28f6 11b9 4f06 2eb9 0a10 f038
00000140: 4363 5139 b0dc f6b8 f193 2cb9 88a2 1a38
00000150: 90f3 9537 5cab 2cb9 fcc4 08b9 a0cb ad38
00000160: 269d 00b9 a65e 5d39 688c afb8 cc4e 8838
00000170: bef0 d538 a283 d138 7672 1ab9 a813 1239
00000180: c902 3539 9623 9f3f 2eac 16b9 9c03 87b8
00000190: 8d36 15b9 405d 58b8 e0e8 a936 7d4b c93d
000001a0: 329d 85b8 b726 4039 ae1a eeb8 32cb dc38
000001b0: c0f2 ff37 a6e7 f738 fa6a 133e 36f7 16b9
000001c0: 08a6 c138 7aea 9038 a892 9937 602e 0a38
000001d0: 364f 2239 decb f338 0f5c 1bb9 8942 0eb9
000001e0: 79f0 3039 70d5 43b7 e6c5 0eb9 9202 c93f
000001f0: a45f a138 5cca 8a38 a0a7 23b9 0af3 e3b8
00000200: c88d a338 f803 4c38 fe97 1db9 2e58 15b9
00000210: 5092 bbb7 054b 2439 401f acb8 bef6 c3b8
00000220: 800b 17b6 914b 2d39 06ac 7939 d1af 09b9
00000230: 2882 2f38 108a 4d37 5a3d 60b9 024f 9438
00000240: b8a0 70b8 21d7 0439 29f9 27b9 4e35 2639
00000250: 8d34 1a39 5fa2 4e39 7e6d 5739 f877 53b8
00000260: 52ea 97b8 6945 3939 2e87 e5b8 f847 72b8
00000270: 0003 25b9 6437 5c39 e82f cab8 78bf 5139
00000280: 9028 5ab8 c8b1 1538 6234 c738 2783 03b9
00000290: 842e 8b38 2003 15b7 7817 6d38 665d 0639
000002a0: 8934 2eb9 fa13 41b9 6cfd 37b9 84b8 4b39
000002b0: 647b 9a38 06fb 1939 d04d 6b37 2ae3 89b8
000002c0: 30e5 6438 e220 113f ae13 afb8 9964 0839
000002d0: fd8f 2639 cc4a c838 2eba 9a39 d11d 0439
000002e0: f469 0538 a2c3 a738 d5a9 d23e 4faf c738
000002f0: a03b c138 b0a5 3b39 8967 2e39 5dd6 09b9
00000300: 240c 9238 2bf6 2fb9 3f38 5f39 f81b 5b38
00000310: 9936 1ab9 426f e0b8 87ae b238 62c8 fdb8
00000320: 93a9 32b9 98c6 e138 0c7d 5f38 e80f a6b7
00000330: 1487 d1b7 ac2f 84b8 4cf3 3d38 506e c5b8
00000340: 94b6 ecb8 4887 9e37 ca10 cc38 2c6d 6a38
00000350: 5c0b 6e39 3255 d0b8 185c 5fb8 1995 7e39
00000360: c2bf b7b8 b874 6e38 c2a6 f43e 9158 3639
00000370: b890 9bb7 5882 c4b8 3b56 5039 c30c 51b9
00000380: b7ef 31b9 bbf3 2fb9 6e63 be38 bc99 8239
00000390: 9c3f 80b8 5f14 4339 112a 1e39 99cd 2b39
000003a0: c40a 51b8 9d11 0d39 cc2c d0b8 5062 7db7
000003b0: bf92 223d bcc4 8cb8 095f 5f39 ace4 1739
000003c0: 02ae c0b8 e7a4 2b39 3601 0e39 349c 6ab8
000003d0: 9cdf e538 e764 3db9 08dc c137 6d67 4439
000003e0: 1fe7 33b9 67bb 4c39 3d03 04b9 009b aeb5
000003f0: f2e5 e1b8 5242 81b8 f87c 32b8 70a4 6538
3.2636817e-05 -0.00013289598 0.6520464 8.995048e-05 3.7757956e-05 0.00020241924 0.00015838223 0.00013818216
0.0001789548 2.8837094e-05 0.00015036363 1.1346987e-05 0.9204398 0.00021147789 0.36887673 0.0001387837
-8.818321e-05 8.758317e-05 0.26735827 -0.00015191054 -0.000123135 0.00015061055 0.00023433309 0.00018434237
-0.00011529667 0.00011896179 8.674347e-05 -4.7385372e-05 2.0989086e-05 -9.294748e-05 -0.00012475712 -3.2088923e-05
-4.6956848e-06 -7.608447e-05 -5.306452e-05 1.1017805 5.3068172e-05 -0.00015765209 4.735039e-05 9.202301e-05
-3.0636817e-05 -0.00017382433 0.00013522145 -0.00017219596 -0.00014241999 -0.000151117 -0.000106879044 -0.00018072124
-6.6024586e-05 -0.00013077397 0.00011242207 0.98922837 2.000673e-05 -0.00012419139 -3.4262106e-05 0.00014893855
-8.082771e-05 5.7773344e-05 8.790151e-05 -0.00018954343 0.00017919442 -4.9267663e-05 0.00012917386 -2.9777511e-05
-6.4689564e-05 1.725681e-05 0.00018455651 -0.00015914883 6.907698e-05 -0.00012227763 -0.00011894034 -0.00019411574
0.016808962 -6.891649e-05 -2.6597627e-05 0.00018598714 0.000106823136 -0.00013919978 -0.00016596283 0.00011447079
0.00019968771 -0.000117713 -0.0001645831 3.686783e-05 1.7875602e-05 -0.00016467035 -0.00013043353 8.287211e-05
-0.00012265574 0.00021111462 -8.370803e-05 6.4996624e-05 0.00010201473 9.990415e-05 -0.00014729224 0.00013930968
0.00017262543 1.2432735 -0.00014369257 -6.437974e-05 -0.00014230069 -5.158526e-05 5.0637027e-06 0.09828851
-6.371214e-05 0.0001832497 -0.00011353694 0.000105282656 3.0511408e-05 0.00011821026 0.14396277 -0.00014397208
9.233883e-05 6.91013e-05 1.8307313e-05 3.2944954e-05 0.00015479032 0.00011625116 -0.00014816246 -0.00013566962
0.00016874251 -1.16726005e-05 -0.00013615898 1.5703909 7.694893e-05 6.618045e-05 -0.00015607337 -0.00010869473
7.7988545e-05 4.8641086e-05 -0.00015029308 -0.00014242597 -2.236027e-05 0.00015668206 -8.20742e-05 -9.344284e-05
-2.2507447e-06 0.00016526716 0.00023810574 -0.00013130835 4.184447e-05 1.2251097e-05 -0.0002138516 7.071906e-05
-5.737014e-05 0.00012668643 -0.0001601918 0.00015850851 0.00014706161 0.00019706179 0.00020544787 -5.041805e-05
-7.243887e-05 0.00017668832 -0.0001094475 -5.7764322e-05 -0.00015736744 0.0002100147 -9.641034e-05 0.00020003121
-5.2013027e-05 3.568994e-05 9.4988165e-05 -0.00012541992 6.636701e-05 -8.88182e-06 5.652706e-05 0.0001281403
-0.00016613504 -0.00018413356 -0.00017546647 0.00019428326 7.3662755e-05 0.0001468473 1.4025209e-05 -6.574982e-05
5.4572884e-05 0.566908 -8.348316e-05 0.00013007446 0.00015884633 9.550675e-05 0.00029511884 0.00012599608
3.1808348e-05 7.99962e-05 0.41145197 9.521713e-05 9.214063e-05 0.00017895433 0.00016632503 -0.00013145195
6.964084e-05 -0.00016781005 0.0002128789 5.2239717e-05 -0.00014706924 -0.00010701876 8.52021e-05 -0.00012101304
-0.00017038574 0.00010765827 5.3283802e-05 -1.9796149e-05 -2.4977642e-05 -6.30313e-05 4.52877e-05 -9.414239e-05
-0.00011287365 1.8898063e-05 9.730605e-05 5.589162e-05 0.0002270168 -9.934082e-05 -5.3253112e-05 0.00024278871
-8.761838e-05 5.6852325e-05 0.47783476 0.00017389866 -1.854483e-05 -9.370287e-05 0.00019868549 -0.00019936547
-0.00016969336 -0.00016780097 9.078426e-05 0.00024910073 -6.115364e-05 0.00018604238 0.00015083725 0.00016384422
-4.983951e-05 0.0001345337 -9.926557e-05 -1.5102865e-05 0.03969073 -6.712365e-05 0.0002130234 0.00014485669
-9.187685e-05 0.00016369262 0.00013542626 -5.5935423e-05 0.000109612214 -0.00018062034 2.3109853e-05 0.00018730546
-0.0001715687 0.00019524769 -0.00012589707 -1.3009121e-06 -0.00010771667 -6.1635525e-05 -4.2554893e-05 5.4751e-05

bias f4 [5]
00000000: 8eaa 8b3e 13a6 2240 a66a 1940 7c32 0f3e
00000010: 6afe 2240
0.2727856 2.5413864 2.3971343 0.13984102 2.5467782

weight f4 [359, 5]
00000000: 25fc 31b9 3e44 8eb8 429b 3fb9 d4aa 4ab9
00000010: ab1c 1939 02f7 2539 42eb ffb8 16fb bbb8
00000020: c21c d7b8 20d7 f538 ce20 53bc 54c4 cc3e
00000030: 5539 cc3e f5ae 0640 ad40 473e a987 7739
00000040: 5694 1db8 94d5 98b8 fc7f 35b8 4b63 20bc
00000050: f045 5fb8 4469 4fb9 f69c 98b8 7854 83b7
00000060: 2481 ecb8 28ad 1038 39de 9c3c 40c2 373e
00000070: 09c8 a4bd 4d75 ba3e 7f0e 073f a0bb 2d39
00000080: c251 4c38 5a8b cbb8 00d7 1b35 e586 0dbe
00000090: 10f3 69b7 127e 7e38 466d cdbd 805e c736
000000a0: 5d99 eb38 3efa 9e3d d664 d43e d296 19b9
000000b0: 5b79 053e 42fe 0abf c16a bd3e 1369 2e39
000000c0: 40a8 7737 e77c 7d39 9030 3037 80fb cdb6
000000d0: e65e 1cb9 7c22 4339 ef8b 8fb9 5312 59b9
000000e0: 7013 d8b8 d825 19b9 0083 0039 7b88 2239
000000f0: 8876 84bd a278 353f 98d1 7e3e f268 8b39
00000100: a20f 3f3f 4e41 1db9 6137 8e3e 3019 9d3c
00000110: 625c 8dba c806 9e3d ce6b 21b9 2171 433e
00000120: dfc6 093d 2c8c c9bd 2657 a23e 58c5 d938
00000130: dc8b d3b8 0f0d 1639 8008 3c37 187f ce38
00000140: bc18 22b8 c705 5839 25f3 3439 2c18 dd38
00000150: 7be6 1cb9 cca8 1b39 ea22 8439 9257 9b38
00000160: 2652 9139 d60b ec38 40d3 8139 e68b 503e
00000170: 6f28 0e3f 5901 c13f f42b a83e 70e9 b938
00000180: 783e 3a38 f8ce 8b37 9878 8eb9 6aca b6b8
00000190: 07f5 3ebb bf55 d53d 6aa8 1038 d88a d038
000001a0: 5220 a139 af77 3039 9c1b 7fb9 0744 0dbe
000001b0: dcaa a0b8 37c2 93b9 4cd8 7b39 c123 c538
000001c0: 26ac 1d3d b093 d5b7 e7cb 083d 50bd 9db8
000001d0: 38df a737 509e 4037 f6f0 ac38 c5e8 63b9
000001e0: a667 0e3e 0bb3 1639 7008 9737 5826 7e37
000001f0: 3a80 14b9 664d 39bb 027a bcb8 c011 deb6
00000200: 24f4 72b8 2c91 40b8 580e 4bb8 6813 b8b7
00000210: 1702 5cbd 662a dcb8 eb23 90b9 6c05 d038
00000220: a042 59b9 834d 1939 3ac7 eeb8 8cac a638
00000230: b7c8 29b9 281a 0c38 6af4 1839 5073 a038
00000240: a0bb 4bb8 c0c0 55b6 20f7 28b9 72f7 76b9
00000250: e05e cb37 750f 0eb9 d0aa c2bd 1c2a e6b8
00000260: c0d5 93b8 5ba0 0339 c21b 0239 ac8d 5a38
00000270: 7668 a4b8 8ab9 62b9 e06a 72b7 858b 16b9
00000280: b042 88b9 d42c 4438 92ff 14b9 e009 dd38
00000290: 01ee 1c39 5b46 1d3d b4f7 d5b8 38ec cb38
000002a0: d99b 26b9 9257 42b9 d093 a237 347b 6e38
000002b0: d8a6 06b8 6b61 5cb9 1436 6838 f032 2a38
000002c0: e535 023f a1bc 103f 5d0e c43e 3efe 9a3e
000002d0: 6fd3 22bd d713 5e39 0f34 3439 a3e1 2db9
000002e0: 3397 a8b8 668b f538 5651 5db9 648d d0b8
000002f0: 3c74 45b9 367c 50b9 ce12 2bb9 eb57 d93d
00000300: 84e1 9338 d0a5 edb7 03a8 793c d3f4 51b9
00000310: 819b 47b9 f459 c938 6ce3 beb8 60a5 e1b6
00000320: c40f 1fb8 b8dd b6bd ce83 65b9 bb60 1139
00000330: 3409 56b9 3a30 c8bf 4d31 853e c00a 9b3e
00000340: 26dc fc38 1499 b63e d49c 7d39 f8ba db37
00000350: 5482 2e38 782c 65b9 dc99 e4b8 98b9 5438
00000360: 2deb 0c39 7205 d9b8 caf1 a039 b8f0 1ab9
00000370: fa42 a7b8 170d 45b9 5c91 5cb8 0366 f438
00000380: 59fa 3ab9 768a adb8 418e b6b9 b70e 3ab9
00000390: 7934 4739 ab23 8cbd fd44 0739 4210 e3b8
000003a0: 3034 1db9 7058 76b9 7475 0339 9c4d f0b8
000003b0: ff2c bdb9 e87d 18b9 0e18 42b9 1ec4 87b9
000003c0: 28f2 6b39 d5eb 39bd 690a afb9 2ec4 bfb8
000003d0: 3812 6eb9 ac8b bfb8 1bb7 39b9 1ccf 50b8
000003e0: 0abd 1539 1039 4a37 c839 edb8 f657 0e39
000003f0: 8034 b9b7 7eac 6f39 ec60 1ab8 3e2f 31bf
-0.00016973967 -6.783799e-05 -0.00018273017 -0.0001932786 0.00014601897 0.00015827644 -0.00012203168 -8.963623e-05
-0.000102573555 0.000117225805 -0.012886239 0.39993536 0.3988749 2.1044285 0.19458266 0.00023606293
-3.7569866e-05 -7.287707e-05 -4.3272958e-05 -0.009789298 -5.3232478e-05 -0.00019780273 -7.277161e-05 -1.565575e-05
-0.00011277411 3.449354e-05 0.019148933 0.17945194 -0.08045966 0.36417618 0.52756494 0.00016568461
4.8713533e-05 -9.7057506e-05 5.8054866e-07 -0.1382099 -1.3944475e-05 6.067573e-05 -0.10030608 5.9416634e-06
0.00011234239 0.07762574 0.41483182 -0.00014647402 0.13034575 -0.54294217 0.3699551 0.00016633076
1.4761521e-05 0.0002417449 1.0501724e-05 -6.1387545e-06 -0.00014912672 0.00018609496 -0.00027379344 -0.00020701559
-0.00010303303 -0.00014605315 0.00012255833 0.00015500367 -0.064679205 0.70887196 0.24884641 0.00026590336
0.7463323 -0.00014997015 0.27776626 0.01917705 -0.0010784979 0.07716137 -0.00015394317 0.19086124
0.033636924 -0.09841189 0.31707114 0.000103841245 -0.00010087315 0.0001430998 1.1207652e-05 9.8465185e-05
-3.8646845e-05 0.00020601517 0.00017256716 0.000105426036 -0.0001496318 0.00014844834 0.00025203015 7.407287e-05
0.0002771776 0.000112555615 0.0002476219 0.20365867 0.55530447 1.5078536 0.32846034 8.8649685e-05
4.4404034e-05 1.6666469e-05 -0.000271742 -8.716139e-05 -0.0029137747 0.104167454 3.4489123e-05 9.9440746e-05
0.00030732393 0.00016829254 -0.0002432898 -0.13795482 -7.6612196e-05 -0.00028182726 0.00024017802 9.400352e-05
0.03849425 -2.5460351e-05 0.03339758 -7.5216056e-05 2.0011896e-05 1.1480952e-05 8.2464816e-05 -0.0002173512
0.13906726 0.00014371813 1.8004532e-05 1.5148507e-05 -0.00014162148 -0.0028274893 -8.987264e-05 -6.618182e-06
-5.792467e-05 -4.591157e-05 -4.841233e-05 -2.1943546e-05 -0.05371293 -0.00010498315 -0.0002749258 9.919223e-05
-0.00020719552 0.00014620092 -0.00011385833 7.947636e-05 -0.00016191868 3.340296e-05 0.00014586901 7.650873e-05
-4.857371e-05 -3.1851669e-06 -0.0001611379 -0.00023552569 2.4243665e-05 -0.00013547933 -0.09505236 -0.00010975098
-7.04932e-05 0.0001255287 0.00012408107 5.2107192e-05 -7.839587e-05 -0.00021622158 -1.4449208e-05 -0.0001435709
-0.00025989627 4.677179e-05 -0.00014209587 0.000105399406 0.00014965983 0.038397174 -0.0001020277 9.7237935e-05
-0.00015889051 -0.00018533904 1.9380735e-05 5.6858364e-05 -3.2103475e-05 -0.00021017126 5.5363475e-05 4.0578598e-05
0.50863487 0.56537825 0.38292208 0.30272096 -0.03975242 0.00021178961 0.00017185531 -0.00016582622
-8.039027e-05 0.00011708475 -0.00021106502 -9.944549e-05 -0.00018830685 -0.00019882698 -0.00016314836 0.10612472
7.051512e-05 -2.8329814e-05 0.015237811 -0.00020022997 -0.00019036049 9.601182e-05 -9.1022666e-05 -6.7247747e-06
-3.7923237e-05 -0.08929008 -0.00021888243 0.00013864312 -0.00020412059 -1.5639718 0.26014176 0.3028164
0.00012057302 0.35663664 0.00024186383 2.6193899e-05 4.160621e-05 -0.00021855708 -0.00010900546 5.0717586e-05
0.0001343905 -0.000103483806 0.00030697725 -0.00014776259 -7.975656e-05 -0.0001879226 -5.2587464e-05 0.00011653828
-0.00017831604 -8.275073e-05 -0.00034819733 -0.00017743824 0.00018997666 -0.068427406 0.00012900303 -0.00010827232
-0.00014992128 -0.00023493334 0.00012536888 -0.00011458548 -0.00036082414 -0.00014542753 -0.00018510243 -0.00025895325
0.00022501557 -0.045390923 -0.00033386357 -9.144131e-05 -0.00022704236 -9.1336056e-05 -0.00017711187 -4.978395e-05
0.0001428017 1.2053424e-05 -0.00011311803 0.00013574943 -2.2078166e-05 0.00022857075 -3.6806727e-05 -0.6921271

bias f4 [359]
00000000: b91e 47b9 c55c 5eb9 a4c1 953f 73b2 a2bd
00000010: d441 1fb8 8c99 113d 0092 94b6 400a dc36
00000020: c714 ab3e 2b83 4d39 f608 ad38 60bc 62b9
00000030: 3910 9b3f 885e 713e 8d0c 613f 7384 0a39
00000040: 8e0f 8039 08be f437 cb89 0f3f fc44 5ab8
00000050: a9db 2d39 8c15 acb9 4590 3f3a 4468 0c39
00000060: 84d0 a738 12e4 4d39 ae83 95b9 32fe 0239
00000070: 8280 54b9 aa04 aab9 4d78 0939 558a 6ebd
00000080: 5244 32b9 e08f fa37 5eb3 43b9 c800 f33e
00000090: f4e2 6a39 2e90 ffbd 1e1e cf39 b673 8138
000000a0: c42b 23b8 f2b9 db3e 6403 2438 0e2c 2639
000000b0: 0080 e5b1 a69f 4ab9 44e2 93b8 6c21 aab9
000000c0: 4b0e 8cb9 5bde 38b9 c772 44b9 4739 e33f
000000d0: ae5d 1539 c520 8cb9 4253 ebb8 c01b 9136
000000e0: bec9 a1bd ebff 4839 6ea9 bb38 8ad2 48b9
000000f0: 6878 3c38 9d6d a43e 08f5 f13e 165e b1b7
00000100: 0315 0a39 6c0e 16b9 9051 9e3b 9a24 51b9
00000110: 106c b5b9 c53c 0cb9 0a42 8cb9 2091 65b9
00000120: 9af4 5f39 f286 9fb9 1056 40b9 84bb ae3e
00000130: ca7e 06b9 4ab6 83b8 1067 0e38 6d2b f53e
00000140: 54e6 4438 4a54 4938 9eea 0138 1a62 d838
00000150: 2837 2ab8 573e d739 0826 84b8 cabb 6739
00000160: fa09 cb3e 575d 263f 0741 233e 002c a1b6
00000170: baed 39bc a0d3 eeb7 cda0 92b9 9416 2539
00000180: 1800 beb9 8213 c93f 744d 33b8 2797 27b9
00000190: 77ff 70b9 30f2 c7b8 318f 1d39 83b0 d43e
000001a0: 6c8a 4db9 e883 12b9 6865 3ab9 dca9 ecb8
000001b0: 830b 113d 5ae1 38b9 4efb 70b8 6404 a9b8
000001c0: 3402 bdb8 7774 0e3b 40a5 86b6 b86f b13e
000001d0: 4a0c 463f 262c 7138 a72e a2b8 feef 1eb9
000001e0: 39c1 2539 1044 6a37 f266 90b8 e1af 0840
000001f0: 5153 9038 d566 f6bd 90b1 4539 eec9 d338
00000200: 9e94 1539 2acc 4f3e 4574 92bc 5822 c1b8
00000210: a98d 22b9 5839 11b8 30cf 3e37 c65a cabd
00000220: bfa1 8fb9 c335 a1b9 414f 62b9 dc62 6238
00000230: bd15 09be 7571 95b9 e068 4fb7 e477 32be
00000240: 2051 9d36 00a2 acb4 933c 78b9 d7b6 1939
00000250: 90ba 27b7 9416 bbbd 1015 5a37 b12b 71b9
00000260: 8eeb 27bd fe43 813d aae8 6db9 489d 28b9
00000270: 2f28 28b9 884c 4eb8 7ce9 38b9 a093 55b8
00000280: 50b3 0339 7d46 7c3c 42ef d0b8 0c7b 0bb8
00000290: 6a2d d03b 8794 05be 001f 9f39 7341 1bb9
000002a0: 52b8 5439 7cd7 8039 cdf8 9c3e 1ca3 1bb9
000002b0: 2110 29b9 4deb b4bd f01d ab39 4083 9a39
000002c0: 4850 53b8 18d4 a53f f858 f03e 40d8 c936
000002d0: bc52 8eb8 0b90 a6b9 4eb7 943b 98ec aebd
000002e0: a4ba 353c 0294 41b9 a7f8 8f3e b3bb a43f
000002f0: 0498 db38 f00c 64b7 6ce9 67b8 bb88 9338
00000300: f0cc f638 68e2 b0b8 fcdf 8fb8 8417 bfb8
00000310: 4209 2cb9 4026 2b3e 6791 203d 782f c436
00000320: 563e afb8 48b3 5238 4aa8 b237 0b63 14b9
00000330: b018 64b8 9c7f b1b8 8dab e5b8 5c8b b338
00000340: 30dd 85b9 0247 0db9 1f49 14b9 3045 2038
00000350: bedc e8b8 c2b4 f5b7 0ded b2bd 280f ea37
00000360: 5e59 fdb8 4c80 b8b9 cbd4 403f f3ae cdbd
00000370: 3d9c 503e e0f9 24b7 5ce8 c73e a4ec 7db8
00000380: ad9a e3ba a746 bf3e e15e ca3d 4c6f 973d
00000390: 081f 2038 bfd5 9ab9 1b0c 2b3c 34a0 1abd
000003a0: d9a2 f83b f2e7 9f38 1223 f6b7 7341 36b9
000003b0: 0e2e 51b9 502f 65b9 c023 b2b5 2e89 9239
000003c0: fd49 39b9 53db 963b b8ca 46b9 1756 b838
000003d0: 540a 95b9 80bf 4e36 e998 6eb9 8ed1 36b9
000003e0: ea3c 0739 ecb1 f038 28eb 003e 85c5 e13d
000003f0: 507e 1637 5b11 6eb9 8249 04bd bebe 64b9
-0.00018989564 -0.00021206129 1.169972 -0.07944193 -3.796986e-05 0.035546824 -4.4277404e-06 6.557704e-06
0.3341429 0.00019599187 8.250952e-05 -0.00021623215 1.2114326 0.23571217 0.87909776 0.00013210047
0.00024425652 2.9175557e-05 0.5606963 -5.2039497e-05 0.00016580395 -0.0003282245 0.00073075696 0.00013390282
8.0020196e-05 0.00019635286 -0.00028517604 0.00012492461 -0.00020265768 -0.00032428402 0.00013110154 -0.058237392
-0.00017000854 2.986932e-05 -0.00018663469 0.47461534 0.00022400526 -0.12478672 0.00039504556 6.172752e-05
-3.890299e-05 0.42915303 3.9103805e-05 0.00015847405 -6.679329e-09 -0.00019323695 -7.0516515e-05 -0.00032449828
-0.0002671353 -0.00017630441 -0.00018734774 1.7751855 0.00014244646 -0.00026727296 -0.00011221181 4.3245673e-06
-0.078998074 0.00019168823 8.9484136e-05 -0.00019151918 4.493483e-05 0.32114878 0.47257257 -2.1143856e-05
0.00013168533 -0.00014310487 0.0048315004 -0.00019945428 -0.00034603523 -0.00013374079 -0.00026752084 -0.00021893205
0.00021358058 -0.00030427385 -0.00018342608 0.34127438 -0.00012826468 -6.280521e-05 3.3951423e-05 0.47884694
4.694455e-05 4.8000635e-05 3.09745e-05 0.000103179555 -4.0582527e-05 0.00041054442 -6.301334e-05 0.00022099834
0.3965605 0.64986175 0.15942775 -4.803296e-06 -0.011348182 -2.8470356e-05 -0.00027967096 0.00015744037
-0.00036239694 1.5709078 -4.274906e-05 -0.0001598267 -0.00022983352 -9.5341704e-05 0.0001502603 0.41540918
-0.0001960189 -0.00013972784 -0.00017776119 -0.00011284996 0.03541137 -0.00017631557 -5.7454505e-05 -8.059366e-05
-9.012633e-05 0.00217369 -4.012749e-06 0.34655547 0.773625 5.7499994e-05 -7.733452e-05 -0.00015157458
0.00015807607 1.3963334e-05 -6.88563e-05 2.1357348 6.881974e-05 -0.120313324 0.00018853531 0.000100988764
0.00014265112 0.20292726 -0.017877707 -9.209354e-05 -0.00015502296 -3.46241e-05 1.1373122e-05 -0.09880595
-0.00027395596 -0.0003074837 -0.00021582564 5.397467e-05 -0.13387199 -0.00028504027 -1.236258e-05 -0.17428547
4.688409e-06 -3.2155367e-07 -0.00023673689 0.0001465933 -9.997413e-06 -0.09135166 1.2998717e-05 -0.00022999827
-0.040996127 0.063117966 -0.00022688755 -0.0001608032 -0.00016036698 -4.9185503e-05 -0.00017634587 -5.0920644e-05
0.00012559933 0.015397665 -9.962778e-05 -3.325478e-05 0.00635307 -0.1304494 0.0003034994 -0.00014806334
0.0002028656 0.0002457461 0.3065857 -0.00014842715 -0.00016123104 -0.088339426 0.00032637967 0.00029470958
-5.0381088e-05 1.2955351 0.46942878 6.0154416e-06 -6.786498e-05 -0.00031769308 0.004538453 -0.085412204
0.011091862 -0.00018461052 0.28119394 1.2869781 0.00010471049 -1.3592871e-05 -5.5292083e-05 7.034974e-05
0.00011768367 -8.4345054e-05 -6.860492e-05 -9.11197e-05 -0.00016406647 0.1671381 0.039201166 5.8467813e-06
-8.356261e-05 5.023487e-05 2.129762e-05 -0.00014151276 -5.4382428e-05 -8.463787e-05 -0.00010951525 8.561343e-05
-0.00025532534 -0.0001347326 -0.0001414162 3.821141e-05 -0.000111037385 -2.9290448e-05 -0.0873662 2.7902031e-05
-0.00012080626 -0.00035190803 0.75324696 -0.100431345 0.203721 -9.83334e-06 0.39044464 -6.054029e-05
-0.0017364823 0.3735859 0.09881378 0.07394275 3.8175873e-05 -0.00029532422 0.010439898 -0.037750438
0.0075877723 7.624914e-05 -2.9341816e-05 -0.00017381254 -0.0001994895 -0.00021856767 -1.3272438e-06 0.00027949497
-0.00017670538 0.004603782 -0.0001895827 8.789839e-05 -0.0002842719 3.080786e-06 -0.00022754412 -0.00017434938
0.00012897296 0.00011477232 0.12589705 0.11024002 8.970106e-06 -0.00022703914 -0.032296665 -0.00021814831
